results/models/1d_track/28_07_2023-12:39_model_gamma_99_n_e.pt (torch_old, 199516 bytes, 4 tensors)

layers.hidden.weight f4 [128, 384]
000000 42 a0 6a 3d 9a a0 3a bd 80 9a 48 3b 40 37 af bc
       0.05728174 -0.045563318 0.0030609667 -0.02138865
000010 b9 42 cb bd 2a 06 88 bd 47 c3 b6 bd eb df c7 bd
       -0.09924836 -0.06641801 -0.08923965 -0.09759506
000020 0d d1 95 3d 00 f8 70 38 7b 70 bf 3d 1a 8c c5 bd
       0.07315264 5.7451427e-05 0.09347626 -0.09645863
000030 60 69 7e 3c 67 09 d2 3d b3 65 cc 3d 55 0b cc 3d
       0.015528053 0.102556996 0.09980335 0.09963099
000040 48 d8 b4 bc 48 65 c4 bd 77 20 b4 3d 6c dc 7f bd
       -0.022075787 -0.0958963 0.08795255 -0.06246607
000050 c8 2b 18 3c 80 fa 7c bc 27 74 b2 3d 22 d3 dc bd
       0.009287782 -0.015440583 0.087135606 -0.10782458
000060 4d cf 8b 3d 7f 1e 93 3d 91 74 97 bd f9 a8 86 3d
       0.06826649 0.07183551 -0.0739528 0.06575198
000070 c5 af 91 bd 37 e4 d7 3d 83 c4 ab 3d ce 80 5b 3d
       -0.071136035 0.105415754 0.08387091 0.053589635
000080 7a ef ac bd 0b da 88 3d 09 d7 d5 bd 1b 2b b1 3d
       -0.08444114 0.066822134 -0.10441405 0.086508
000090 b9 55 8f 3d 15 54 d9 bd 4e 35 6b 3d 84 87 97 bc
       0.06998772 -0.106117405 0.057423882 -0.018497236
0000a0 01 71 d7 bd 50 db d1 bc 0c 8d 81 bd 20 97 80 bb
       -0.10519601 -0.025617272 -0.06325731 -0.0039242655
0000b0 4d 8a 80 3d 86 40 89 bd 5b 83 dd bd be 9e 1a 3d
       0.06276379 -0.0670176 -0.1081607 0.037749045
0000c0 00 94 d7 3a 72 78 09 3d 09 fb c0 3d da b8 0d 3d
       0.0016447306 0.03356213 0.09422881 0.034600116
0000d0 00 5c 57 bb 9b 67 91 bd 88 57 48 3c 3a 5c 90 bd
       -0.0032861233 -0.07099839 0.0122279 -0.07048841
0000e0 f5 37 da 3d f8 2b d2 bc 8d 18 ba bd 37 0c 81 3d
       0.10655204 -0.025655732 -0.09086714 0.06301158
0000f0 2e 90 5b 3d d4 44 d2 3c 56 9e 0d 3d 1a 98 d4 bd
       0.053604297 0.025667585 0.03457483 -0.103805736
000100 e8 49 b5 bd 14 97 13 bd 32 fb 4a 3d 5c d0 82 bc
       -0.08851987 -0.03603275 0.049555965 -0.015968494
000110 52 e4 02 3d 58 c2 93 bd 70 82 d4 bc 95 b2 b9 3d
       0.031956024 -0.072148025 -0.025941104 0.09067265
000120 a9 29 70 bd 45 70 8e bd 8a 01 2b 3d 70 8c b2 bc
       -0.05863348 -0.069550075 0.041749515 -0.021795481
000130 dd 9d cd bd 12 00 bc bd 71 92 a9 bd 90 26 96 bb
       -0.10039876 -0.09179701 -0.082798846 -0.0045822337
000140 00 95 ad bc bf 34 7e bd 60 c9 44 3b a8 24 6a bc
       -0.021189213 -0.06206202 0.0030027255 -0.014290966
000150 d0 78 27 3c c0 2a f2 3a 7d 5e b1 3d 60 4e 5f bd
       0.010221675 0.0018475875 0.086606 -0.054518104
000160 18 ae 2f bd b7 6c a6 bd 2f 79 c9 bd 28 89 08 bc
       -0.042890638 -0.081262045 -0.09837567 -0.008333482
000170 a2 a7 65 3d 54 2c 92 bc 97 fe be 3d ce 4f 68 bd
       0.05606807 -0.017843403 0.09325903 -0.056716733
000180 f0 09 d5 3b 8e 75 59 3d 7e 9e 44 bd 4d a2 c3 bd
       0.006501429 0.053090625 -0.048002712 -0.09552441
000190 a6 51 55 3d 3a d6 31 bd ed d1 97 3d 15 43 98 3d
       0.05207982 -0.043417193 0.07413087 0.0743467
0001a0 f4 7f 93 bc ea 86 42 3d cc e9 dd 3c f2 38 3b 3d
       -0.018005349 0.047491945 0.027089022 0.045708604
0001b0 b7 a0 ac bd 70 cc 25 bc 58 53 39 bd c0 dd de 3a
       -0.084290914 -0.0101195425 -0.0452455 0.0017003343
0001c0 0d c7 d3 3d 2e 75 6c 3d 9f 86 d6 3d 3e 12 bd bd
       0.103407 0.05772894 0.10474896 -0.09231995
0001d0 43 f3 a4 3d 90 5d ed bc 58 14 3b bc aa c8 6e 3d
       0.08054211 -0.028975278 -0.011418425 0.058296837
0001e0 2d a2 3d bd da 16 ba bd f5 78 97 bd 60 b3 9d bb
       -0.04629724 -0.0908639 -0.073961176 -0.004812643
0001f0 c5 c3 93 3d d5 e3 87 3d c6 67 40 3d e2 e1 4e 3d
       0.072150744 0.066352524 0.046973966 0.050508387
000200 6e 10 5b 3d 36 3f 7a 3d 48 db a8 bc fd 28 87 3d
       0.053482465 0.06109544 -0.020612374 0.06599615
000210 80 01 9e bc ba cc 53 3c 5c 46 2d bd 1b 50 61 bd
       -0.019287825 0.012927229 -0.042303428 -0.055008035
000220 f7 f5 bf 3d 64 90 c9 bc a2 6d 18 bd 2e 6c 7f bd
       0.09373086 -0.024604984 -0.03721393 -0.062359028
000230 e1 19 ca bd d9 4b 10 3c 89 30 d2 3d 2a 83 ae bd
       -0.09868217 0.008807146 0.102631636 -0.08521111
000240 e5 44 bf 3d d2 d5 68 bd 78 85 5b 3c d8 0d 6b bd
       0.093393125 -0.05684454 0.013398521 -0.05738625
000250 a4 0e 93 bd e1 be 0c bd 30 9d fa 3b 34 df d0 bd
       -0.07180527 -0.034361724 0.0076481327 -0.101988226
000260 00 09 19 3b a6 b1 6d 3d 57 b2 c3 3d e5 98 ad bd
       0.0023351312 0.058030747 0.095555 -0.08476428
000270 2c 85 9a bc fb 20 c6 bd d2 b7 52 3d 92 fc 33 bd
       -0.01886233 -0.09674259 0.051444836 -0.04394204
000280 ef 9b cf 3d 10 d4 9c bb 20 fc 10 bb 81 ac 20 3c
       0.10137164 -0.004786022 -0.0022122934 0.009806753
000290 fb 43 cf 3d ec 0e 7a bd da 54 51 3d 8a b8 b8 bd
       0.10120388 -0.061049387 0.05110631 -0.09019573
0002a0 bb d8 db 3d 1e 72 9f bd f0 41 16 bc db a8 04 3c
       0.107346974 -0.07785438 -0.009170994 0.008096899
0002b0 0f 67 57 bd 5b bf c9 3b a6 64 5b 3d be ba 01 3d
       -0.05258852 0.0061568446 0.053562783 0.03167223
0002c0 9e 7c 87 bc 36 7b 0b 3d d9 8b c0 3d 3a 08 1b bd
       -0.016538914 0.03405305 0.09401674 -0.037849642
0002d0 99 f6 ab 3d 40 b5 8a ba 1a 76 48 3d 49 52 9c bd
       0.08396644 -0.0010582581 0.048940755 -0.07632882
0002e0 e4 85 80 bd 10 0c f0 3b fa 2d c0 bd f2 b8 6d bd
       -0.062755376 0.0073256567 -0.09383769 -0.058037706
0002f0 3c ef 82 bc b2 fa 26 3d 55 d7 b2 bd 8a 08 1d 3d
       -0.015983216 0.040766425 -0.087324776 0.03833822
000300 ce 1d 48 3d f8 c8 87 bd fe 54 a2 bd bf f6 f3 3c
       0.04885655 -0.066301286 -0.07926367 0.029780744
000310 70 c7 db bd d8 6b be bc 48 f5 72 3c b6 a7 9a 3d
       -0.10731399 -0.023244783 0.014828987 0.075515196
000320 52 92 6c bd f7 10 9a 3d c4 fe 21 bd da b5 aa bc
       -0.05775673 0.07522767 -0.039549604 -0.020838667
000330 ef 68 86 bd 23 65 83 3d 97 fa 78 bd 2f f8 59 3b
       -0.06562983 0.06415775 -0.060785856 0.0033259501
000340 2a d7 49 3d 34 2d b5 bc 99 d4 64 bd 3b 6e a3 3c
       0.049277462 -0.022116281 -0.05586681 0.019950023
000350 9e d2 36 3d ab 1c a5 3d 3a 3a 06 bd 83 db 91 3c
       0.044634454 0.080621086 -0.032770373 0.017804867
000360 d6 ee 62 bd 89 33 c8 3d 4e 5e 9b bd 5a db 53 3c
       -0.055403553 0.097754546 -0.075863466 0.012930715
000370 fa 24 63 3d 5b 0e ca 3d 61 de 8d bd e9 5b 07 bd
       0.055455185 0.09866019 -0.06927181 -0.033046637
000380 0f 1a b8 3d 70 75 21 bc 18 7c ca bd 84 f2 81 bd
       0.08989345 -0.009854659 -0.0988695 -0.06345084
000390 12 45 56 3d 99 f5 b0 bd 69 bb cf 3d 50 5f 91 bd
       0.052311964 -0.08640594 0.101431675 -0.070982575
0003a0 cb bf a3 3d ca 91 02 3d 18 c3 3d bc ae 24 83 3d
       0.07995566 0.031877317 -0.0115821585 0.064034805
0003b0 de 47 0c bd d6 b9 2f 3d 40 e9 1d bb fc 57 8a 3d
       -0.034248225 0.042901836 -0.0024095327 0.06755063
0003c0 55 25 9a 3d 1c 63 3b bd e1 c0 92 bd 30 0f 87 3d
       0.07526652 -0.045748815 -0.07165695 0.06594694
0003d0 a5 87 d1 3d c0 16 77 bc 58 04 1f 3c f1 11 10 bb
       0.1023095 -0.015081108 0.0097056255 -0.002198335
0003e0 98 49 69 3c 8b 89 ad 3d 6b c9 d0 3c 4b 6f ad 3d
       0.0142387375 0.084735 0.025486669 0.08468493
0003f0 a0 47 d9 bb 3b 50 d5 bd 7a 34 74 3d 70 f5 23 bd
       -0.006630853 -0.10415693 0.059620358 -0.04002899

layers.hidden.bias f4 [128]
000000 77 fe 5c 3b 69 e9 b5 3e d0 16 90 3b 0a d7 23 3c
       0.0033721009 0.3552964 0.0043972507 0.01
000010 6b 68 d5 3e bc 60 71 ba 4e cb f2 bc e8 dd 26 bc
       0.41681227 -0.0009207835 -0.029637959 -0.0101847425
000020 0a d7 23 3c 6b 1c c0 39 52 94 4d 3f 21 f9 82 3b
       0.01 0.00036642267 0.80304444 0.0039969836
000030 2b 39 c8 ba 0a d7 23 3c 03 41 ae 3e 42 38 a2 bc
       -0.0015275826 0.01 0.34033975 -0.019802216
000040 3e e5 97 bb 20 73 b3 3e 91 7b ba bc ed 6d ee 3e
       -0.004635482 0.3504877 -0.022764 0.46568242
000050 2d c2 9c 3e 0a d7 23 3c ef fe 6a 3f 68 68 d3 ba
       0.30616894 0.01 0.9179525 -0.0016129138
000060 5c 74 81 bc 0a d7 23 3c 85 8c fd 3b 52 82 d2 3e
       -0.015802555 0.01 0.0077376985 0.41115052
000070 0a d7 23 3c 65 51 bf 3e ce eb b4 3e 0a d7 23 3c
       0.01 0.37366787 0.35336155 0.01
000080 d4 44 01 3f 81 82 76 bb e0 d4 0c bc 2a 4d 2b bc
       0.5049565 -0.0037614407 -0.008595675 -0.010455409
000090 6d 33 9e 3e 7d 57 97 3e d4 e5 82 3b 27 7a ab 3e
       0.3089861 0.29558936 0.003994683 0.33491632
0000a0 4d af dd 3e 73 19 80 bc 61 3d df 3e 50 45 e0 3e
       0.43297806 -0.015637135 0.43601516 0.4380288
0000b0 0a d7 23 3c 0a d7 23 3c cd cd de 3e 95 50 b3 bc
       0.01 0.01 0.4351639 -0.02188901
0000c0 0a d7 23 3c 0a d7 23 3c 7d 41 cf 3e 0a d7 23 3c
       0.01 0.01 0.4047965 0.01
0000d0 c6 ff 8a ba f8 c3 45 bb 00 02 e0 bb 0a d7 23 3c
       -0.0010604791 -0.003017662 -0.006836176 0.01
0000e0 0f 33 9e bc 8b 95 c3 3e 0a d7 23 3c 19 a8 85 bb
       -0.019311456 0.3820003 0.01 -0.0040788767
0000f0 a5 e4 bb 3e fb 03 e5 3e 0a d7 23 3c 07 e8 82 3b
       0.3669788 0.447296 0.01 0.003994945
000100 5a 34 cb 3e e2 82 a1 3f a1 9b c3 3e 3a 1a e9 3e
       0.3968838 1.2618067 0.38204673 0.45527822
000110 44 a4 c7 3e 9c b2 39 3b 24 44 0c bc de c7 d2 bc
       0.38992512 0.002833522 -0.008561168 -0.02573007
000120 13 c9 fe 3e c2 4d e8 bb 4e b0 ec 3e 2e b2 c1 3e
       0.49762782 -0.0070893476 0.4622826 0.37831253
000130 54 1f 28 bd 37 43 12 bc 0a d7 23 3c b9 c0 4c 3b
       -0.0410455 -0.008927158 0.01 0.0031242801
000140 0a d7 23 3c 09 21 b6 bc b6 42 a2 bc ac 8d d2 3e
       0.01 -0.02223255 -0.0198072 0.41123712
000150 0a d7 23 3c 9c a2 b8 3e 64 59 bc bb ba 86 91 3b
       0.01 0.3606156 -0.005747961 0.0044411095
000160 0a d7 23 3c 23 02 ee 3e 36 58 bc bb 4f 1d ad 3e
       0.01 0.46486005 -0.0057478203 0.33811423
000170 ca bb a0 3e 54 47 89 bc 0a d7 23 3c 62 7f df 3e
       0.31393272 -0.016757645 0.01 0.43651873
000180 8a 7d 96 3e 79 89 ba 3a 8d 22 a0 3e f3 a5 73 3b
       0.29392654 0.0014231644 0.3127636 0.003717777
000190 1c 02 b3 3e 3b 05 ab 3e 0a d7 23 3c 71 0a da 3e
       0.34962547 0.33402428 0.01 0.4258609
0001a0 20 18 3e 3f 66 e8 04 3f 0a d7 23 3c 0a d7 23 3c
       0.7425556 0.5191711 0.01 0.01
0001b0 64 88 d3 bc 71 ac 87 3e 10 ac b5 3e 0a d7 23 3c
       -0.025821872 0.2649875 0.35482836 0.01
0001c0 0a d7 23 3c 40 76 e4 3e 90 f0 38 bc 90 c2 c8 3e
       0.01 0.44621468 -0.011287823 0.3921094
0001d0 0c 16 09 3f 17 35 10 3f f5 82 e2 bb 90 ad e6 3e
       0.53549266 0.5633101 -0.006912584 0.45054293
0001e0 68 01 ac 3e a8 26 d3 3e 0a d7 23 3c 0a d7 23 3c
       0.33594823 0.4124043 0.01 0.01
0001f0 f8 dc 94 3e 24 f3 d2 3e 0a d7 23 3c a7 ae 78 3f
       0.29074836 0.41201127 0.01 0.971415

layers.output.weight f4 [3, 128]
000000 83 41 42 be 5b 67 59 3f 76 06 24 be b3 ad b8 bd
       -0.18970303 0.8492333 -0.1601809 -0.090175055
000010 a9 79 02 3f 7f 87 4a 3e 54 a5 3c bd 64 a2 34 3e
       0.5096689 0.1977825 -0.046056107 0.17640072
000020 20 a2 b6 bc 0a ba e8 3d 55 fc 83 3f ad c3 ec bb
       -0.022294104 0.11363609 1.0311381 -0.007225475
000030 02 c3 e4 bd 29 e5 27 be 76 eb f1 3e 94 a7 28 3e
       -0.11170007 -0.16396011 0.47249955 0.16470176
000040 79 5d 1c be 36 46 46 3f 8e a1 df bd 8c d8 5a 3f
       -0.15270032 0.77450883 -0.10919486 0.85486674
000050 56 33 0e 3f 88 98 89 bd d0 26 02 3f 9a 95 d4 bc
       0.5554708 -0.06718546 0.50840473 -0.025950242
000060 5e dc 25 3e ea ef 99 3d ac 0d be 3d 86 18 50 3f
       0.16197345 0.07516463 0.092799515 0.8128742
000070 2c e7 6c bd 1f 13 2a 3f 9a f5 49 3f b1 fe 37 3e
       -0.05783765 0.66435426 0.78890383 0.17968251
000080 ab 0e ec 3e 39 bf c0 bd 42 a1 97 bd fe 2d 9b 3c
       0.4610494 -0.09411473 -0.07403804 0.01894283
000090 39 11 76 3f 00 4f e7 3e a6 f5 2c be 1c 2d 7f 3f
       0.9612003 0.4517746 -0.16890582 0.99678206
0000a0 0c 16 53 3f 22 2e 74 bd 18 81 4c 3f cf a2 29 3f
       0.82455516 -0.05961431 0.7988448 0.6626405
0000b0 fa e8 88 3d 0b ea 4b be ce 68 44 3f ae 2f e1 3d
       0.06685062 -0.19913499 0.7672242 0.10995422
0000c0 ce c9 1f be 0c 21 19 3d 79 29 4c 3f 4e 09 2e be
       -0.15604326 0.03738503 0.7975078 -0.16995737
0000d0 fa cc 44 3e 74 60 18 be 4e e7 99 bd b8 c4 35 be
       0.19218817 -0.14880544 -0.07514821 -0.17750823
0000e0 f3 45 0c 3d 04 84 91 3f 32 c3 8d 3d 0e 0c e5 bd
       0.034246396 1.1368413 0.06921996 -0.1118394
0000f0 e0 86 0b 3f 42 e6 62 3f 66 86 d3 3d e9 c8 89 bd
       0.5450268 0.88632596 0.10328369 -0.06727774
000100 52 bf 2c 3f 6c 0b dc 3e c8 69 05 3f 3e fd 55 3f
       0.6747943 0.42977464 0.52114534 0.8358954
000110 98 3e 8b 3f 82 6f af 3d 45 61 4d bd 4e 77 49 bd
       1.0878477 0.0856619 -0.05014159 -0.049186043
000120 28 70 23 3f 80 dd 90 bd b6 0d 5a 3f bb 73 07 3f
       0.6384301 -0.07073498 0.8517717 0.52910966
000130 2c 0a 2d 3d ed 09 bb 3d 25 b2 3e be 68 bb 7c bc
       0.04224603 0.091327526 -0.18622644 -0.0154255405
000140 30 3d e2 bc 09 9f 32 be 04 d4 17 3d 05 8b 55 3f
       -0.027617067 -0.1744348 0.03706743 0.8341525
000150 c5 be 1c 3e 0c b2 f7 3e ff f8 ca bd 1a 7d a3 bd
       0.15307148 0.48378026 -0.099107735 -0.079828456
000160 e4 f5 10 be 7c cc 65 3f 29 69 00 3e b0 35 19 3f
       -0.141563 0.89765143 0.12540115 0.59847546
000170 b7 4f 4c 3f 16 44 53 3d b8 6f 01 be d8 8b 41 3f
       0.79809135 0.051578604 -0.12640274 0.7560401
000180 5b ad de 3e 55 eb 1f 3e 6a 6b 68 3f fb de 28 be
       0.43491635 0.15617116 0.907889 -0.1649131
000190 81 9c 04 3f aa fd 57 3f 80 2e 69 bb cd 37 64 3f
       0.51801306 0.84371436 -0.0035580695 0.89147645
0001a0 f9 1d 42 3f 5b 25 3a 3f 3f 16 3f be 8a e1 41 be
       0.75826985 0.7271325 -0.1866083 -0.18933693
0001b0 bd df ec bd 33 4c 88 3f 10 6c 0a 3f 58 fa dc 3c
       -0.11566112 1.0648254 0.5407114 0.026974842
0001c0 12 70 87 3d 6f fc 44 3f 4b 38 86 3d 49 34 08 3f
       0.066131726 0.76947683 0.06553706 0.5320478
0001d0 40 e5 6a 3f 12 c7 52 3f 03 77 f0 3d 50 27 7d 3f
       0.9175606 0.8233501 0.1174145 0.9888811
0001e0 d2 3f 05 3f 19 79 52 3f c6 a5 b4 3d a5 36 04 3e
       0.5205051 0.8221603 0.08820681 0.1291147
0001f0 e2 20 1b 3f 55 27 24 3f b9 0f 48 3e bf d3 02 3f
       0.6059705 0.64122516 0.19537248 0.5110435
000200 ca fe 59 3e 0f 81 1b 3f b6 cb ab bd 80 73 ea bb
       0.212886 0.607438 -0.08388464 -0.007154882
000210 8d d6 1e 3f 89 f3 2a 3c 5f f8 24 bd 86 c7 0a be
       0.6204613 0.01043404 -0.040275928 -0.13552675
000220 23 05 53 3e 32 66 ce 3c 97 21 f0 3e f0 7e 4d bd
       0.20607428 0.025195215 0.46900627 -0.050169885
000230 ba 36 11 3d 97 76 3a be 8a 9f 3e 3f 3a d2 c2 bd
       0.035452582 -0.18209301 0.7446219 -0.09512754
000240 4b f9 c8 bd 4e fd 2a 3f a2 43 0d be 26 eb 0b 3f
       -0.09813174 0.6679276 -0.13795331 0.54655683
000250 c7 bb 47 3f 40 9a a1 bc 1c 5e 62 3f a5 5f 9a bd
       0.780209 -0.019726872 0.8842485 -0.07537774
000260 94 bd 3b be 86 59 c9 3d 77 cd 4f be a1 c4 2f 3f
       -0.18334037 0.09831528 -0.20293222 0.68659407
000270 e4 91 f2 bd 67 28 40 3f 00 d1 19 3f 8e 37 0c be
       -0.11844233 0.7506165 0.60084534 -0.13693067
000280 58 86 2c 3f d3 7c d4 3c a5 90 16 3d 18 53 2a bd
       0.6739249 0.025938427 0.036759038 -0.04158315
000290 22 d9 3d 3f 48 a3 66 3f 7a 1c 8a 3d 5c 81 06 3f
       0.74159443 0.900929 0.06743713 0.52541137
0002a0 5c f4 09 3f b5 c3 ea bd 4e 38 23 3f 75 4b 10 3f
       0.5388849 -0.114631094 0.6375779 0.5636514
0002b0 6b 07 17 3e aa 47 17 be e2 0d 0e 3f 5d 13 15 be
       0.14748923 -0.14773431 0.55489933 -0.14558168
0002c0 80 ba 98 3c 62 fb c1 3d c0 08 12 3f 55 44 e2 bd
       0.018643618 0.094717756 0.570446 -0.110481896
0002d0 e8 0a e3 bd b3 8c 46 be bf d5 0e be 13 b2 3b 3e
       -0.110860646 -0.1938961 -0.13948725 0.18329649
0002e0 41 61 1e be ba 24 95 3e c4 a8 2f 3d b4 b9 2d be
       -0.15466787 0.29129583 0.042885557 -0.16965371
0002f0 a4 34 1f 3f 96 1a 0b 3f 86 8f 8f bd 80 f6 29 bb
       0.621897 0.5433744 -0.07009797 -0.002593428
000300 39 ad 1a 3f 50 16 cd 3f ba 62 1e 3f 00 52 08 3f
       0.60420567 1.6022434 0.61869395 0.5325012
000310 19 4e 17 3f b6 72 c7 3d 96 b7 39 be 1d ea 1e be
       0.5910354 0.09738676 -0.18136439 -0.15518995
000320 00 91 f3 3e 18 b0 34 be a0 41 01 3f b8 43 91 3f
       0.47571564 -0.176453 0.5049076 1.1348791
000330 90 a3 31 be 91 91 8a bd 19 f8 19 3e 51 1b 27 be
       -0.1734755 -0.06766046 0.15036048 -0.16319014
000340 5f 82 0f 3e 4d 46 dd bd 2b e5 1d be 98 18 10 3f
       0.14014576 -0.108044244 -0.15419452 0.5628753
000350 ad a1 59 3e 95 dc 23 3f 44 0d 71 3d 80 19 18 bd
       0.2125308 0.64008456 0.05885054 -0.037133694
000360 e3 24 1a 3e 60 1a 05 3f d5 d7 21 3d 4c 74 4a 3f
       0.15053134 0.5199337 0.039512474 0.79083705
000370 97 97 34 3f 62 77 e4 bd 3d 52 3d 3e b2 b1 0c 3f
       0.7054381 -0.11155583 0.18488403 0.5495864
000380 f9 9f 3f 3f 6c bb d6 bd 4a 6e 39 3f 09 da 34 be
       0.74853474 -0.10484967 0.7243391 -0.17661299
000390 f3 78 26 3f 1c 21 27 3f 12 c8 b3 3d a2 53 1a 3f
       0.65028304 0.65284896 0.08778395 0.60283864
0003a0 fb 66 1a 3f 18 2b f8 3e a9 6f ba bd c0 38 f8 bb
       0.60313386 0.48470378 -0.09103329 -0.0075751245
0003b0 a8 07 3c bd 25 b7 de 3e 7e 49 76 3f fc 8c 0c be
       -0.04590574 0.43499103 0.9620589 -0.13725656
0003c0 ff fc 57 3e 7e b7 0b 3f 91 a6 f7 bd a4 4a 19 3f
       0.21092604 0.5457686 -0.12092317 0.5987952
0003d0 2f 46 0e 3f 4f a9 09 3f dc 70 51 be 66 05 0e 3f
       0.5557584 0.5377397 -0.20453209 0.5547699
0003e0 78 be 38 3f 3d d3 17 3f 40 2c 99 bb 3a a9 90 3d
       0.7216563 0.593067 -0.0046744645 0.070635274
0003f0 5c 51 43 3f c6 f2 19 3f 1c ea 10 be 68 98 80 3f
       0.7629602 0.6013607 -0.14151806 1.0046511

layers.output.bias f4 [3]
000000 12 40 bf 3e 50 e9 61 3e d8 96 f9 3e
       0.3735357 0.22061658 0.48747897
