results/models/1d_track/28_07_2023-18:04_model_n_e_r_20K_fixed_99.pt (torch_old, 199516 bytes, 4 tensors)

layers.hidden.weight f4 [128, 384]
0.054808117 -0.030640721 -0.0848928 0.080398925 -0.09171221 0.019089304 -0.050883487 -0.031358562
-0.0518348 -0.054011244 0.0974414 -0.1011996 -0.0863664 -0.091747284 0.03788089 -0.10389532
0.10136878 0.0030345246 0.09268635 -0.09681804 -0.032767028 0.06836774 -0.04477586 0.09255204
-0.061839182 0.033029206 0.017269589 -0.06114262 0.041771553 0.06293351 -0.07395134 0.046203785
0.0046842694 -0.087209806 -0.10778237 0.005840689 -0.07274145 0.09998111 -0.04871285 0.08349528
-0.023991875 0.04221656 0.006850891 -0.07384236 0.056363977 0.06731912 0.06887481 -0.087399095
0.0130440295 -0.08244437 0.09424149 -0.005987212 -0.08600082 -0.03550013 -0.016430303 0.031548537
-0.105353884 -0.080676295 0.078867026 -0.084787786 0.044757865 -0.10365525 0.032142706 0.015737824
-0.021598294 0.034536757 -0.07828363 0.04578171 0.07899735 -0.09143962 -0.09064628 0.021526046
0.009698264 0.053989105 -0.048857562 0.096003 -0.034519292 -0.094275534 -0.04446827 -0.04426004
0.071041636 -0.0778908 -0.10599303 0.025681205 0.054204084 0.077527545 -0.00049366057 0.08948865
-0.017768621 0.06789289 0.055263303 -0.027297929 -0.08164664 -0.10067145 -0.0690626 -0.010033987
-0.07622072 0.0120150745 -0.07295281 0.007382348 0.019648321 0.016954072 -0.0043769926 0.09527733
0.035821147 -0.06895284 -0.017000556 0.09247678 -0.015171766 0.05329255 -0.0067334697 -0.047371488
0.024311312 0.101835005 -0.024119519 -0.03848722 -0.090556845 0.014206886 0.05259157 -0.012367867
0.07468546 0.008940667 -0.06120956 0.08643823 0.07750312 -0.09754873 -0.011932552 -0.01957848
0.03947576 -0.048203446 0.06840331 0.072392024 -0.0949383 2.4569838 -0.019177243 0.06014619
-0.11381776 0.028158762 0.090711914 2.4220967 -0.15973194 2.4604814 0.052048855 -0.16271427
0.16112015 0.08076169 -0.057609692 2.343423 -0.15958332 2.4255593 0.0045752227 -0.17996097
0.16805086 0.0704812 0.06567792 2.3109148 -0.23328304 2.3138828 -0.089645505 -0.04395763
0.15193556 0.104239665 0.07824647 2.3944519 0.040804233 2.2999074 0.03857162 -0.065038815
0.37108144 -0.07946125 -0.08514964 2.3542562 0.121168934 2.4201066 0.030269213 0.07199538
0.42718247 -0.071909316 -0.0009968951 2.2096586 0.30235556 2.4201427 0.061896957 0.42034006
0.79089636 0.045005135 -0.0907402 2.3884907 0.6676096 -0.02745822 -0.05767326 2.3691204
-0.5166015 -0.0021434575 0.053395234 2.428411 -0.37300014 0.05639208 -0.04846104 2.4397433
-0.49720767 -0.04807179 0.06973169 2.4146326 -0.45127586 -0.07829637 -0.0066205636 2.4328701
-0.48278168 0.091506295 0.032155074 2.5151103 -0.617783 0.022816084 0.017309435 2.415946
-0.36184794 -0.066417605 0.08433249 2.3494086 -0.56665134 -0.08579813 -0.1078504 2.4488714
-0.5681683 0.06943231 0.01208964 2.440965 -0.61266613 0.031107314 0.099872105 2.3554842
-0.25227374 0.043146588 0.017966308 2.4846091 0.75881755 0.051253043 0.10238839 2.3457646
1.870405 0.06600391 -0.069003776 2.1857085 2.8564796 -0.096469365 0.010575317 0.24566855
-0.06420215 -0.020237565 2.3035038 0.047730274 -0.011950426 -0.068888925 0.10033857 -0.087210596
00000000: 7a7e 603d 4002 fbbc 47dc adbd 31a8 a43d
00000010: 9cd3 bbbd 2c61 9c3c 346b 50bd d671 00bd
00000020: ba50 54bd e53a 5dbd 5b8f c73d bc41 cfbd
00000030: dee0 b0bd 00e6 bbbd fe28 1b3d 12c7 d4bd
00000040: 6f9a cf3d e0de 463b 57d2 bd3d 8948 c6bd
00000050: b836 06bd 6304 8c3d e466 37bd ed8b bd3d
00000060: 154b 7dbd a249 073d f478 8d3c af70 7abd
00000070: a618 2b3d 49e3 803d cd73 97bd 2e40 3d3d
00000080: 807e 993b 0e9b b2bd 01bd dcbd 4063 bf3b
00000090: 78f9 94bd e5c2 cc3d 2087 47bd 93ff aa3d
000000a0: 9c8a c4bc 46eb 2c3d 707d e03b aa3a 97bd
000000b0: eadd 663d 9bde 893d 3d0e 8d3d 4cfe b2bd
000000c0: a0b6 553c 98d8 a8bd af01 c13d 6030 c4bb
000000d0: 3321 b0bd 9668 11bd d898 86bc 0a39 013d
000000e0: c7c3 d7bd 9d39 a5bd 0985 a13d 38a5 adbd
000000f0: 0654 373d 3449 d4bd 12a8 033d 9cec 803c
00000100: e8ee b0bc 6a76 0d3d 2b53 a0bd 9a85 3b3d
00000110: 5dc9 a13d b244 bbbd c2a4 b9bd 6457 b03c
00000120: 78e5 1e3c ae23 5d3d de1e 48bd 399d c43d
00000130: 1a64 0dbd 8813 c1bd 5c24 36bd 044a 35bd
00000140: 477e 913d 3685 9fbd e012 d9bd 6461 d23c
00000150: 1a05 5e3d c3c6 9e3d 0069 01ba d345 b73d
00000160: 808f 91bc 6d0b 8b3d c65b 623d e89f dfbc
00000170: 5b36 a7bd d52c cebd b170 8dbd 9865 24bc
00000180: 9c19 9cbd e0da 443c 4868 95bd a0e7 f13b
00000190: 84f5 a03c 44e3 8a3c e06c 8fbb c320 c33d
000001a0: 32b9 123d 2637 8dbd c044 8bbc 7764 bd3d
000001b0: 0093 78bc 4a49 5a3d 70a4 dcbb 9b08 42bd
000001c0: 8428 c73c df8e d03d 4c96 c5bc c6a4 1dbd
000001d0: de75 b9bd 00c4 683c 426a 573d 98a2 4abc
000001e0: b1f4 983d e07b 123c e0b6 7abd 8706 b13d
000001f0: f5b9 9e3d a1c7 c7bd c080 43bc 0c63 a0bc
00000200: 56b1 213d fa70 45bd 0917 8c3d 4542 943d
00000210: 036f c2bd 393f 1d40 9819 9dbc da5b 763d
00000220: 4919 e9bd 34ad e63c 2bc7 b93d a203 1b40
00000230: c590 23be 8778 1d40 2e31 553d 929e 26be
00000240: aefc 243e 6366 a53d 24f8 6bbd a4fa 1540
00000250: cf69 23be 5d3c 1b40 c0eb 953b b047 38be
00000260: 8615 2c3e 7358 903d 2582 863d 07e6 1340
00000270: c0e1 6ebe a816 1440 1098 b7bd ea0c 34bd
00000280: ff94 1b3e 9b7b d53d af3f a03d b33e 1940
00000290: 5722 273d af31 1340 46fd 1d3d 1233 85bd
000002a0: 63fe bd3e 94bc a2bd ef62 aebd 22ac 1640
000002b0: 6b27 f83d 07e3 1a40 24f7 f73c 5072 933d
000002c0: a9b7 da3e 3145 93bd 40aa 82ba 0c6b 0d40
000002d0: 59ce 9a3e 9ee3 1a40 aa87 7d3d d036 d73e
000002e0: 2f78 4a3f 4e57 383d ffd5 b9bd 08dd 1840
000002f0: 76e8 2a3f 10f0 e0bc cc3a 6cbd ab9f 1740
00000300: ff3f 04bf 4079 0cbb f6b4 5a3d 166b 1b40
00000310: e0f9 bebe 62fb 663d 157f 46bd c124 1c40
00000320: 0192 febe ede6 44bd 7dcf 8e3d 5789 1a40
00000330: a10d e7be d959 a0bd 50f1 d8bb 25b4 1b40
00000340: 292f f7be a767 bb3d 0ab5 033d 91f7 2040
00000350: 0727 1ebf cce8 ba3c 84cc 8d3c dc9e 1a40
00000360: 2244 b9be f405 88bd 83b6 ac3d b65c 1640
00000370: 1010 11bf eeb6 afbd ace0 dcbd 4fba 1c40
00000380: 7a73 11bf 8732 8e3d a013 463c c538 1c40
00000390: b0d7 1cbf c4d4 fe3c bf89 cc3d 41c0 1640
000003a0: 062a 81be 7aba 303d 142e 933c d603 1f40
000003b0: de41 423f b6ee 513d 01b1 d13d 0221 1640
000003c0: 6e69 ef3f 0f2d 873d da51 8dbd a6e2 0b40
000003d0: 90d0 3640 bb91 c5bd 1844 2d3c 8990 7b3e
000003e0: 6b7c 83bd 40c9 a5bc 9b6c 1340 d280 433d
000003f0: b8cb 43bc a315 8dbd 4f7e cd3d 789b b2bd

layers.hidden.bias f4 [128]
2.360932 0.01 2.2932115 2.4795086 2.4128714 0.01 2.2366145 2.431275
-0.021667821 0.01 2.3914263 0.0005085969 2.5394542 0.01 2.485817 2.3821306
2.5015147 0.0016718607 2.4945998 2.4395287 2.3521452 -0.021151768 2.5098987 2.3194163
-0.023700887 2.5244827 -0.003493884 2.5347316 0.01 2.4670308 -0.033153456 2.4729419
0.01 2.429329 -0.0077459784 2.3545015 -0.021379273 2.4238224 2.369118 -0.0076240525
2.493667 2.3923345 2.4092364 -0.013371584 0.01 0.01 -0.013426088 -0.0018405813
0.01 2.5138545 2.5219274 2.5382707 2.3566449 0.0066458853 2.4791005 -0.00019487023
2.3194914 1.6977863 2.474726 0.01 0.01 2.4795492 0.01 0.01
-0.008712076 -0.007455714 2.512308 -0.0028264788 2.2422674 2.5167136 2.3755324 -0.01703692
2.499823 -0.010358576 2.3042707 -0.020028768 2.5029974 2.4068892 2.548524 -0.000579725
2.5253308 -0.012813699 0.01 2.53604 -0.015891496 2.464582 2.3533106 2.5228214
-0.0025630016 2.5074718 -0.017702166 2.370642 5.186471e-05 2.521079 -0.0009839757 2.4063022
-0.006723787 -0.028507827 -0.0042692996 2.3056862 -0.018975997 2.4977167 2.2436671 2.5400233
2.3761775 -0.0168133 2.5052106 2.5309918 0.01 2.5385253 -0.00018122923 0.01
2.5202875 2.3669105 2.5496914 2.3982527 -0.029564222 0.01 -0.012206068 2.517833
2.4743116 -0.013168478 -0.010833918 -0.012100609 2.382106 2.3977652 -0.0032631895 -0.0012850183
00000000: 8319 1740 0ad7 233c fac3 1240 45b0 1e40
00000010: 7c6c 1a40 0ad7 233c b124 0f40 029a 1b40
00000020: b780 b1bc 0ad7 233c 210d 1940 5c53 053a
00000030: 6b86 2240 0ad7 233c a017 1f40 d474 1840
00000040: d118 2040 5622 db3a 86a7 1f40 3d21 1c40
00000050: 8c89 1640 7946 adbc 2ea2 2040 5171 1440
00000060: 5d28 c2bc 2091 2140 a6f9 64bb 0b39 2240
00000070: 0ad7 233c d5e3 1d40 ebcb 07bd ae44 1e40
00000080: 0ad7 233c 207a 1b40 fad1 fdbb 27b0 1640
00000090: 9623 afbc e81f 1b40 a19f 1740 30d3 f9bb
000000a0: 3d98 1f40 021c 1940 ee30 1a40 7d14 5bbc
000000b0: 0ad7 233c 0ad7 233c 18f9 5bbc a93f f1ba
000000c0: 0ad7 233c fee2 2040 4267 2140 0773 2240
000000d0: 45d3 1640 bac5 d93b 95a9 1e40 1456 4cb9
000000e0: 8c72 1440 1051 d93f e961 1e40 0ad7 233c
000000f0: 0ad7 233c efb0 1e40 0ad7 233c 0ad7 233c
00000100: 18bd 0ebc 104f f4bb a7c9 2040 723c 39bb
00000110: 4f81 0f40 d611 2140 b908 1840 0391 8bbc
00000120: 1afd 1f40 04b7 29bc 2c79 1340 5f13 a4bc
00000130: 1c31 2040 790a 1a40 041b 2340 b0f8 17ba
00000140: 059f 2140 8df0 51bc 0ad7 233c 7b4e 2240
00000150: e22e 82bc b6bb 1d40 a49c 1640 e875 2140
00000160: 08f8 27bb 6b7a 2040 2204 91bc 99b8 1740
00000170: 4f89 5938 5c59 2140 bff8 80ba db00 1a40
00000180: 3753 dcbb 3f89 e9bc 7be5 8bbb 5d90 1340
00000190: 8d73 9bbc 97da 1f40 3e98 0f40 be8f 2240
000001a0: 4b13 1840 0cbc 89bc 5f55 2040 c5fb 2140
000001b0: 0ad7 233c 3377 2240 5a08 3eb9 0ad7 233c
000001c0: 644c 2140 767b 1740 252e 2340 f97c 1940
000001d0: ab30 f2bc 0ad7 233c f6fb 47bc 2d24 2140
000001e0: 1f5b 1e40 9ac0 57bc bf80 31bc a241 46bc
000001f0: 6d74 1840 fc74 1940 3cdb 55bb 0f6e a8ba

layers.output.weight f4 [3, 128]
1.53263 -0.0061052293 1.5141156 1.871507 1.8809407 -0.03124471 1.5266144 1.6376935
-0.029120881 0.14285426 1.5756141 -0.14223519 1.7729039 0.015792519 1.6349612 1.5841676
1.764614 0.1955771 1.5692389 1.773068 1.7724087 -0.13177839 1.6319839 1.8159579
-0.05378768 1.7667934 -0.088215426 1.7513857 -0.14857586 1.7224423 0.19688289 1.6760081
0.1906522 1.7096269 0.009452098 1.6026417 0.07087435 1.8135585 1.569345 0.13120158
1.6336609 1.8260412 1.7103792 -0.20380566 -0.10079405 -0.033414364 0.13982731 -0.00080222357
-0.050306767 1.7038685 1.6131437 1.7408093 1.8082978 -0.07455159 1.7463676 -0.05138362
1.6137887 2.866786 1.7232307 0.17367123 -0.15229295 1.8032181 -0.025128037 0.18252443
-0.18392915 0.17626083 1.7360833 -0.07501422 1.6825165 1.7500274 1.6958476 -0.15373124
1.817627 -0.098933235 1.6224467 0.04401394 1.8301291 1.8653418 1.8464726 -0.11253602
1.8161756 -0.0750751 0.19554533 1.713533 -0.12951104 1.8130552 1.8879775 1.8125094
0.13736695 1.8862678 -0.053025752 1.802823 0.13475275 1.8131105 0.0016428672 1.9087383
0.061210368 -0.10998393 -0.19874476 1.5075817 0.15696271 1.8319625 1.4611111 1.8113424
1.6050732 -0.16952251 1.8901895 1.9199926 0.060724184 1.7524145 -0.03035584 0.048266754
1.6146849 1.8377405 1.7608836 1.5871426 -0.20342097 -0.10432077 0.1295884 1.7649552
1.5531737 -0.09584375 0.009860729 -0.10130224 1.866633 1.9414102 -0.19207136 -0.031891268
1.7620461 -0.013969421 1.9211736 1.8895077 1.8800293 -0.17740035 1.9199761 1.8673629
-0.08190344 0.09418745 1.7534201 -0.17828916 1.7094426 -0.034012377 1.7495431 1.9073527
1.889943 -0.15407437 1.7198023 1.8497516 1.9426416 0.0034330476 1.7480141 1.9154967
-0.106345095 1.7775961 -0.17092282 1.6553254 0.08352284 1.9063095 -0.08416831 1.9028509
-0.088199764 1.766617 0.0032512734 1.913848 0.00092070206 1.7944621 1.6995649 -0.10476236
1.819542 1.8153187 1.8872664 -0.17828603 -0.008272037 -0.03477736 -0.08932659 0.08636168
-0.15087844 1.6275123 1.7324414 1.7401781 1.9583381 0.07650108 1.57895 -0.042008303
1.9312993 0.90392685 1.8939223 -0.027274668 -0.19869448 1.866635 -0.034207895 0.11740334
-0.110705316 -0.15059265 1.8102475 0.017740533 1.8378465 1.787563 1.9501095 -0.13647293
1.6622854 0.07658732 1.9135147 -0.13920906 1.5617272 1.8430212 1.4710368 -0.07304324
1.6866759 -0.18699467 -0.057853416 1.7474815 0.20785055 1.8572044 1.9360311 1.6981752
-0.15202957 1.5739826 -0.025554681 1.8926431 0.0063784304 1.5608103 -0.1470814 1.8259572
-0.09976974 -0.066594325 0.052140493 1.7669259 -0.033926383 1.8459365 1.9507134 1.6895193
1.9224385 0.21833803 1.5358559 1.6249106 0.1336248 1.766041 -0.100887276 -0.049034715
1.7504337 1.83233 1.6839786 1.7639441 -0.34552145 0.0931562 -0.17227758 1.5892526
1.7501917 -0.17319304 -0.09427559 -0.06932747 1.6851143 1.90404 -0.14707558 -0.07505756
00000000: 382d c43f 600e c8bb 8ace c13f 8b8d ef3f
00000010: aac2 f03f e8f4 ffbc 1a68 c33f f19f d13f
00000020: ea8e eebc 6348 123e b9ad c93f 1aa6 11be
00000030: 84ee e23f 505f 813c 6946 d13f 01c6 ca3f
00000040: dfde e13f 5d45 483e d2dc c83f e4f3 e23f
00000050: 4ade e23f eaf0 06be d9e4 d03f 4f71 e83f
00000060: 7850 5cbd 4926 e23f 4aaa b4bd 682d e03f
00000070: 4524 18be fd78 dc3f ab9b 493e 6f87 d63f
00000080: 553a 433e 0ed5 da3f f9dc 1a3c 5d23 cd3f
00000090: 9226 913d af22 e83f 4ce0 c83f b559 063e
000000a0: cd1b d13f b8bb e93f b5ed da3f 6eb2 50be
000000b0: 1c6d cebd 80dd 08bd e42e 0f3e 504c 52ba
000000c0: 780e 4ebd 5d18 da3f 7e7b ce3f d7d2 de3f
000000d0: 4d76 e73f 81ae 98bd f988 df3f a177 52bd
000000e0: a190 ce3f 6c79 3740 d392 dc3f dfd6 313e
000000f0: aff2 1bbe dacf e63f 50d9 cdbc afe7 3a3e
00000100: ec57 3cbe b87d 343e fa37 de3f 0ea1 99bd
00000110: b35c d73f e600 e03f 8911 d93f b96b 1dbe
00000120: 00a8 e83f 829d cabd 55ac cf3f f647 343d
00000130: ac41 ea3f 85c3 ee3f 3759 ec3f 4979 e6bd
00000140: 7178 e83f f9c0 99bd 093d 483e 0d55 db3f
00000150: 8b9e 04be 3112 e83f 3fa9 f13f 4f00 e83f
00000160: eca9 0c3e 3971 f13f 8831 59bd e7c2 e63f
00000170: a0fc 093e 0114 e83f 7a55 d73a 8951 f43f
00000180: b9b7 7a3d 413f e1bd bf83 4bbe 70f8 c03f
00000190: d5ba 203e bf7d ea3f b005 bb3f 11da e73f
000001a0: 0a73 cd3f 4f97 2dbe bbf1 f13f 51c2 f53f
000001b0: ecb9 783d 1e4f e03f d0ac f8bc 5cb3 453d
000001c0: ffad ce3f 153b eb3f a264 e13f 7d27 cb3f
000001d0: 964d 50be 21a6 d5bd d2b2 043e 0dea e13f
000001e0: 65ce c63f ba49 c4bd e58e 213c 8c77 cfbd
000001f0: d5ed ee3f 2180 f83f 5bae 44be 6ba0 02bd
00000200: ba8a e13f 00e0 64bc 04e9 f53f 63db f13f
00000210: cda4 f03f 70a8 35be c7c1 f53f bf05 ef3f
00000220: febc a7bd 5ae5 c03d 1270 e03f 6f91 36be
00000230: 04cf da3f 9050 0bbd 07f1 df3f 2224 f43f
00000240: a7e9 f13f acc5 1dbe 7b22 dc3f a9c4 ec3f
00000250: 7ba8 f83f fbfc 603b edbe df3f ff2e f53f
00000260: 75cb d9bd 4588 e33f 6406 2fbe b4e1 d33f
00000270: 060e ab3d f301 f43f 6f60 acbd 9e90 f33f
00000280: 14a2 b4bd 8120 e23f 5113 553b f9f8 f43f
00000290: 455b 713a efb0 e53f 588b d93f a68d d6bd
000002a0: c1e6 e83f 5d5c e83f f291 f13f 9d90 36be
000002b0: 7087 07bc b472 0ebd dcf0 b6bd 64de b03d
000002c0: e17f 1abe 5352 d03f a4c0 dd3f 28be de3f
000002d0: d3aa fa3f 99ac 9c3d 091b ca3f e610 2cbd
000002e0: d134 f73f c067 673f 0c6c f23f 206f dfbc
000002f0: 9176 4bbe e5ed ee3f 941d 0cbd 2a71 f03d
00000300: 78b9 e2bd f634 1abe 31b6 e73f 9854 913c
00000310: 8e3e eb3f ddce e43f 309d f93f 8fbf 0bbe
00000320: c5c5 d43f d0d9 9c3d 0dee f43f d28c 0ebe
00000330: ade6 c73f 1ee8 eb3f ef4a bc3f b297 95bd
00000340: ffe4 d73f 887b 3fbe b4f7 6cbd 79ad df3f
00000350: c6d6 543e e0b8 ed3f decf f73f ce5d d93f
00000360: a4ad 1bbe 4378 c93f 0d58 d1bc 2142 f23f
00000370: 2702 d13b a2c8 c73f 829c 16be f7b8 e93f
00000380: 1454 ccbd 9b62 88bd 4591 553d a12a e23f
00000390: 64f6 0abd a647 ec3f fab0 f93f 2b42 d83f
000003a0: 7712 f63f 0194 5f3e ed96 c43f 12fd cf3f
000003b0: f1d4 083e a20d e23f fd9d cebd a0d8 48bd
000003c0: 360e e03f ca89 ea3f 9c8c d73f ecc8 e13f
000003d0: 30e8 b0be aec8 be3d 8969 30be a16c cb3f
000003e0: 4806 e03f 8459 31be 8f13 c1bd 90fb 8dbd
000003f0: d3b1 d73f 95b7 f33f fb9a 16be c7b7 99bd

layers.output.bias f4 [3]
1.3518835 1.4334068 1.3929137
00000000: 850a ad3f e079 b73f ff4a b23f
