results/models/1d_track/28_07_2023-18:02_model_e_r_20K_fixed_99.pt (torch_old, 199516 bytes, 4 tensors)

layers.hidden.weight f4 [128, 384]
0.041204207 0.065436296 -0.00408075 -0.06940834 -0.08002662 0.08478055 0.029443868 -0.09749226
-0.06251839 -0.05184279 0.009188749 -0.0436721 -0.026458293 0.07904517 -0.039149813 0.09820638
-0.10385908 -0.06276645 0.024658523 0.022485428 0.0662564 -0.09249996 0.077183895 -0.021204367
-0.037462562 -0.105487525 0.005026914 0.09138309 -0.056140803 0.08667327 -0.042147182 -0.04311773
0.05983024 -0.037595816 0.087806605 0.08468317 0.073692806 -0.026333556 0.0929473 0.061378427
0.00031420588 0.013456024 -0.049209464 -0.009139642 -0.04875505 -0.02646374 0.03547672 -0.0038453639
-0.037772007 -0.0043558404 0.061895452 0.013853416 -0.012321658 0.10001405 0.08502876 0.028785922
-0.026308857 -0.07032163 0.06394415 -0.05223832 -0.06164459 -0.07776068 0.026343398 0.07872658
0.10265618 -0.03460171 0.05037581 0.027679943 -0.09086705 -0.023812078 0.029349111 0.0927792
-0.024650462 0.10608143 -0.08535073 0.05910129 -0.06309989 0.03266693 -0.05963098 -0.094233364
0.054334678 0.045939572 0.05913668 0.08589903 -0.020547517 -0.0038335621 -0.040921405 -0.005721636
-0.03058 -0.087827146 0.057712726 -0.026049286 -0.0020583868 0.02792143 0.05415336 0.026053227
0.09819492 0.077449046 -0.021911152 0.0012575984 -0.033259876 -0.07681881 0.022024922 0.07265604
0.05226209 0.02390074 -0.0088524595 0.024054043 0.10347187 -0.09538807 -0.0044260174 0.009937108
-0.064348444 -0.072983935 -0.04446671 0.106361724 -0.06112075 0.09748379 0.03233757 0.08934746
0.053948604 0.029050298 -0.0036696792 -0.08213726 0.09326752 -0.087114096 0.057162963 -0.0152897015
-0.048617173 -0.06168391 0.07603025 0.003883645 0.005841218 0.09971654 -0.074024856 0.06752343
-0.085687995 0.027077593 0.058994047 -0.0069756806 -0.10040548 -0.0070936084 -0.05269999 -0.078896284
-0.015034445 0.032657705 0.10594771 -0.056692585 0.10033765 -0.046380516 0.0135761425 -0.06063976
-0.038940318 0.108142994 -0.018510632 -0.091896154 0.08594055 0.070171155 -0.035353884 -0.043681428
-0.043217994 -0.08019326 -0.015285276 -0.052572336 0.08831104 0.06891141 0.007017374 0.05111865
-0.07874099 -0.07667819 -0.09531568 -0.05294655 -0.08348765 -0.065078124 -0.05396066 -0.097427584
0.08877716 0.04979343 0.02103085 -0.053687632 0.044733174 0.051964603 -0.073932335 -0.10348363
-0.0665745 0.029218338 -0.043779984 0.0017782003 -0.0268889 -0.019456811 -0.09150684 0.0765479
0.049954914 0.0065428317 -0.10810264 -0.034678742 -0.049843695 0.005206488 -0.013318926 -0.046778034
0.019275598 -0.07469754 -0.010424137 0.10452866 -0.08081088 0.038206793 -0.059538763 -0.09174125
-0.07014439 0.072990976 0.021477647 0.038125344 -0.08911304 -0.0087924 -0.0189737 0.07159697
0.0068620294 -0.009327799 -0.0412089 -0.08791199 0.02390375 -0.08350424 0.058757372 -0.025731415
0.053267203 0.018318914 -0.018416531 0.094429724 -0.08036572 0.050088875 0.10701316 0.014973514
-0.021032982 -0.019786663 -0.0040705204 -0.037343957 0.015301704 0.048738845 -0.035201 -0.052488633
-0.10774283 0.016184822 0.090526156 -0.002510123 -0.048110377 0.015704915 -0.04525567 -0.05561527
-0.09843116 -0.10275229 -0.042185932 0.06623716 -0.10619472 0.056991912 0.04814502 0.071652256
00000000: bec5 283d 7703 863d d0b7 85bb f625 8ebd
00000010: ffe4 a3bd 6da1 ad3d 4434 f13c 06aa c7bd
00000020: a409 80bd 1b59 54bd 688c 163c 84e1 32bd
00000030: 10bf d8bc 6fe2 a13d 8e5b 20bd 6d20 c93d
00000040: 12b4 d4bd b28b 80bd ac00 ca3c 5c33 b83c
00000050: 6fb1 873d 9e70 bdbd 9712 9e3d c8b4 adbc
00000060: 5872 19bd d809 d8bd d0b8 a43b 0f27 bb3d
00000070: e6f3 65bd c181 b13d 86a2 2cbd 389c 30bd
00000080: 8e10 753d 12fe 19bd f3d3 b33d 5f6e ad3d
00000090: 41ec 963d 78b9 d7bc 275b be3d f267 7b3d
000000a0: 00bc a439 a876 5c3c dd8f 49bd 70be 15bc
000000b0: 60b3 47bd 7cca d8bc 0a50 113d 8002 7cbb
000000c0: d2b6 1abd 70bb 8ebb 1686 7d3d 70f9 623c
000000d0: c8e0 49bc 2bd4 cc3d 8f23 ae3d 74d0 eb3c
000000e0: ac85 d7bc c904 90bd 27f5 823d d9f7 55bd
000000f0: 0a7f 7cbd fe40 9fbd 1cce d73c 673b a13d
00000100: 673d d23d 86ba 0dbd de56 4e3d 0cc1 e23c
00000110: 8118 babd 8c11 c3bc 8c6d f03c 0503 be3d
00000120: c4ef c9bc 3941 d93d 5dcc aebd 3214 723d
00000130: 843a 81bd c2cd 053d 9d3f 74bd 6cfd c0bd
00000140: 0a8e 5e3d 222b 3c3d 4e39 723d d5eb af3d
00000150: 4453 a8bc 803c 7bbb 349d 27bd 907c bbbb
00000160: e882 fabc b8de b3bd 2e64 6c3d 5065 d5bc
00000170: 00e6 06bb 7cbb e43c eacf 5d3d 946d d53c
00000180: 6b1a c93d 9b9d 9e3d 047f b3bc 00d6 a43a
00000190: 823b 08bd 2e53 9dbd 9c6d b43c b1cc 943d
000001a0: c610 563d 7ccb c33c e809 11bc fc0c c53c
000001b0: 0fe9 d33d d25a c3bd 2008 91bb 40cf 223c
000001c0: 1ec9 83bd 9a78 95bd ba22 36bd 2dd4 d93d
000001d0: c059 7abd 95a5 c73d 6674 043d cdfb b63d
000001e0: 36f9 5c3d e4fa ed3c 007f 70bb 9437 a8bd
000001f0: 0b03 bf3d e068 b2bd b623 6a3d a881 7abc
00000200: cd22 47bd 45a8 7cbd bfb5 9b3d c084 7e3b
00000210: b067 bf3b 2f38 cc3d 589a 97bd b949 8a3d
00000220: 307d afbd d4d1 dd3c bea3 713d 4094 e4bb
00000230: 63a1 cdbd 8071 e8bb f2db 57bd 6094 a1bd
00000240: 0853 76bc 16c4 053d 1dfb d83d 7c36 68bd
00000250: d37d cd3d 7ff9 3dbd 786e 5e3c 6661 78bd
00000260: e27f 1fbd 137a dd3d 9ca3 97bc 0d34 bcbd
00000270: 9901 b03d e5b5 8f3d 3ccf 10bd 4ceb 32bd
00000280: 5a05 31bd 5d3c a4bd 186f 7abc 1756 57bd
00000290: 6bdc b43d 6d21 8d3d 00f2 e53b ca61 513d
000002a0: f542 a1bd 7409 9dbd de34 c3bd 7bde 58bd
000002b0: 93fb aabd ae47 85bd da05 5dbd 1d88 c7bd
000002c0: cdd0 b53d 32f4 4b3d e448 ac3c 90e7 5bbd
000002d0: 223a 373d d6d8 543d d669 97bd 3aef d3bd
000002e0: 3658 88bd 4c5b ef3c a452 33bd 8012 e93a
000002f0: 1c46 dcbc e463 9fbc f067 bbbd 25c5 9c3d
00000300: 869d 4c3d 4065 d63b eb64 ddbd 4c0b 0ebd
00000310: e728 4cbd 309b aa3b a037 5abc 539a 3fbd
00000320: dce7 9d3c 06fb 98bd 00ca 2abc 1f13 d63d
00000330: 2d80 a5bd ba7e 1c3d ebde 73bd d6e2 bbbd
00000340: dda7 8fbd 4b7c 953d e4f1 af3c 5229 1c3d
00000350: e680 b6bd 000e 10bc bc6e 9bbc 6fa1 923d
00000360: e0da e03b a0d3 18bc aaca 28bd 340b b4bd
00000370: ccd1 c33c 4504 abbd 92ab 703d b0ca d2bc
00000380: b62e 5a3d 8c11 963c 44de 96bc 5f64 c13d
00000390: c896 a4bd fe29 4d3d b729 db3d 7853 753c
000003a0: 5c4d acbc a417 a2bc 0062 85bb faf5 18bd
000003b0: 00b4 7a3c 62a2 473d ec2e 10bd 52fe 56bd
000003c0: 46a8 dcbd 0896 843c c765 b93d e080 24bb
000003d0: 630f 45bd 98a7 803c 025e 39bd d6cc 63bd
000003e0: 4796 c9bd cb6f d2bd 28cb 2cbd 59a7 873d
000003f0: 9e7c d9bd 5a70 693d b633 453d 6bbe 923d

layers.hidden.bias f4 [128]
0.01 -0.0129525 -0.018721743 -0.09772482 -0.0010943227 -0.0017383432 0.38416258 -0.032351255
-0.008780994 0.43338123 0.01 -0.014868664 0.5860567 0.01 0.49323845 -0.03315896
0.6118716 -0.0006138242 -0.005427109 0.4168671 0.01 0.0043820376 -0.0012806221 -0.015041769
-0.0007143623 -0.03414381 0.01 0.49293438 0.51451397 -0.028771905 -0.0034669186 -0.007852805
0.01 -0.0057279347 0.01 -0.0352875 0.00096640136 0.49069872 0.00020801614 0.01
0.51813304 0.24972641 0.6462086 0.53020024 -0.021885987 0.47150978 0.5572736 0.01
0.41733173 0.4749408 -0.0009315809 0.5246052 0.39605722 0.45519558 0.01 0.0031245798
-0.015215933 0.44504958 0.54665965 0.01 0.01 0.01 0.39727032 0.48747325
0.5130783 0.42394364 -0.00073465303 0.43467844 0.6069568 0.43535665 0.0039944937 0.5685179
0.5182324 0.46950397 0.4986772 0.36815602 0.4750127 0.01 6.872475e-05 -0.00024330559
-0.0065632644 0.01 0.326771 0.5017721 0.4619083 -0.0005993711 0.5526587 0.01
0.5303085 -7.651227e-05 -0.001926504 0.34899005 0.561666 -0.0022809077 0.36218452 -0.04715923
-0.008944968 0.004460788 -0.021732733 0.34101278 0.0014237177 0.52415115 0.5449989 0.5107823
-0.006476707 0.5299826 0.5197243 0.0017072182 -0.0074136206 0.4110496 0.56981814 0.0037254866
0.3803522 0.01 0.42450184 0.34744227 -0.000113203365 0.50367004 0.00083744404 0.01
0.49129006 -0.0063905064 0.34116545 0.0039945035 0.4248576 0.5575467 0.5638037 0.5611185
00000000: 0ad7 233c b936 54bc 575e 99bc f323 c8bd
00000010: 606f 8fba 1ed9 e3ba f5b0 c43e c082 04bd
00000020: 29de 0fbc 25e4 dd3e 0ad7 233c b29b 73bc
00000030: d007 163f 0ad7 233c c089 fc3e b1d1 07bd
00000040: 9ea3 1c3f 0be9 20ba e4d5 b1bb 9b6f d53e
00000050: 0ad7 233c 3297 8f3b 8cda a7ba c071 76bc
00000060: 0b44 3bba 61da 0bbd 0ad7 233c e561 fc3e
00000070: 30b7 033f 0fb3 ebbc 3e35 63bb 0da9 00bc
00000080: 0ad7 233c 66b1 bbbb 0ad7 233c a089 10bd
00000090: 1956 7d3a dd3c fb3e e81e 5a39 0ad7 233c
000000a0: 5ea4 043f 48b8 7f3e ed6d 253f 34bb 073f
000000b0: 3e4a b3bc bb69 f13e 7ca9 0e3f 0ad7 233c
000000c0: 81ac d53e 712b f33e 5635 74ba 874c 063f
000000d0: 03c8 ca3e 650f e93e 0ad7 233c c0c5 4c3b
000000e0: 404c 79bc 8add e33e e3f1 0b3f 0ad7 233c
000000f0: 0ad7 233c 0ad7 233c 0467 cb3e 1896 f93e
00000100: 1959 033f 240f d93e bb95 40ba 2c8e de3e
00000110: 8561 1b3f 11e7 de3e 3ee4 823b 648a 113f
00000120: e1aa 043f d362 f03e 9e52 ff3e f27e bc3e
00000130: dd34 f33e 0ad7 233c 5220 9038 d91f 7fb9
00000140: a710 d7bb 0ad7 233c 874e a73e 2374 003f
00000150: 3f7f ec3e 1d1f 1dba 0a7b 0d3f 0ad7 233c
00000160: 4cc2 073f 3675 a0b8 bf82 fcba d3ae b23e
00000170: 58c9 0f3f 487b 15bb 4070 b93e 092a 41bd
00000180: ea8d 12bc cd2b 923b d808 b2bc 3a99 ae3e
00000190: 0a9c ba3a c52e 063f 0c85 0b3f a1c2 023f
000001a0: 8e3a d4bb f1ac 073f a70c 053f bdc4 df3a
000001b0: f5ed f2bb 1875 d23e 9adf 113f 4b27 743b
000001c0: 86bd c23e 0ad7 233c 4e58 d93e f4e3 b13e
000001d0: 9867 edb8 85f0 003f eb87 5b3a 0ad7 233c
000001e0: 5f8a fb3e 7467 d1bb 3dad ae3e 53e4 823b
000001f0: ef86 d93e 61bb 0e3f 7055 103f 76a5 0f3f

layers.output.weight f4 [3, 128]
-0.04032509 1.2466582 -0.13706888 -1.3337977 -0.09643625 0.13370378 0.80714315 -0.1217533
1.0254486 0.4754425 -0.09308389 -0.14516674 0.6984602 -0.20633613 0.49444288 1.8347256
0.59935015 0.012224292 -0.1655959 0.4793892 0.035460144 0.10653396 -0.10722866 -0.035719097
-0.07175707 -0.065308034 0.12937476 0.5367638 0.7299314 1.3027271 -0.056865014 0.007758652
0.17418636 0.10105998 -0.05793433 1.6496024 -0.117935404 0.68300337 -0.059330195 0.13224031
0.5204278 0.8010341 0.5135835 0.7029203 -0.11251114 0.74009895 0.54383504 -0.059294835
0.78416234 0.4849542 -0.08454292 0.5639152 0.48685244 0.707781 0.15560673 0.2108237
-0.0040793265 0.5144391 0.6452321 -0.2080068 0.16105203 -0.0022350848 0.7723857 0.7052412
0.5896051 0.8494085 -0.028930247 0.53511244 0.6512038 0.7785482 -0.15290181 0.54143053
0.5293341 0.5445437 0.7859499 0.480052 0.5268993 -0.036482707 -0.063809335 0.0009617988
-0.04334309 -0.20836098 0.47120827 0.61033905 0.6975541 1.0728327 0.6577995 -0.10371332
0.7314553 -0.020268193 -0.102717504 0.6832664 0.71148425 -0.04609658 0.49496508 1.6950198
-0.13175465 0.18714073 -0.06638782 0.686772 -0.14433956 0.72528887 0.5511607 0.71350056
-0.11226911 0.66113156 0.7307421 0.0013708026 -0.070521116 0.8622884 0.53679115 0.13491742
0.46892244 0.13186859 0.78886163 0.46046895 0.00491326 0.7308026 0.04679915 0.11249967
0.694053 -0.16090506 0.45834804 -0.14686802 0.6765594 0.6463273 0.52389866 0.5684555
-0.06210175 1.023233 -0.1311695 -1.2840673 0.12113453 -0.081279434 0.6260284 -0.13798855
1.0866983 0.66322535 0.18997465 -0.09234133 0.5342008 0.15878741 0.6658657 1.4555123
0.45895863 -0.14657204 0.048604272 0.60244346 0.104517356 -0.19660327 -0.06673646 -0.06762164
0.0325865 -0.04862365 0.04549475 0.7364393 0.5101505 1.4345899 -0.07544491 -0.18979304
0.054836735 -0.13726105 0.1534694 1.7235031 -0.15460075 0.72003716 0.040028527 -0.13562256
0.61153513 0.4812735 0.5467639 0.6309337 -0.07859962 0.46309933 0.6100031 0.13009284
0.44902605 0.6794558 -0.050035417 0.49335694 0.779152 0.71371126 0.115361765 0.05174609
-0.15919688 0.7379521 0.62793523 -0.16572675 0.20398273 -0.020824492 0.5463552 0.70667523
0.453129 0.53116864 -0.16277918 0.57798785 0.47831598 0.7389584 -0.118051425 0.6395231
0.6393035 0.7400207 0.4837991 0.7475832 0.74533814 0.14263172 0.09635328 -0.16812937
-0.15001883 -0.20982522 0.85240775 0.65190697 0.72990745 1.127218 0.5921524 0.12564863
0.5788708 -0.010728499 -0.09167388 0.84610397 0.51047313 -0.10987545 0.8330043 1.599044
-0.15198751 -0.041885264 0.018167302 0.46722233 -0.14966308 0.5429185 0.6834905 0.7014548
-0.20117433 0.6013924 0.47266805 -0.18934351 0.0037197047 0.6453132 0.60734946 -0.111412086
0.68109983 -0.19229174 0.44205886 0.6639935 0.0669062 0.5448418 -0.12973247 0.13073786
0.48481256 -0.123479374 0.82034713 0.12700827 0.7373652 0.64913434 0.59835464 0.5669918
00000000: ec2b 25bd 7f92 9f3f c95b 0cbe e2b9 aabf
00000010: 5e80 c5bd a5e9 083e efa0 4e3f cb59 f9bd
00000020: e641 833f 336d f33e c4a2 bebd 97a6 14be
00000030: 4ace 323f c749 53be 9e27 fd3e 4ad8 ea3f
00000040: 036f 193f 6648 483c f991 29be 8072 f53e
00000050: a83e 113d 7a2e da3d b39a dbbd 304e 12bd
00000060: 5ff5 92bd 38c0 85bd d17a 043e 5a69 093f
00000070: c9dc 3a3f c3bf a63f 4aeb 68bd 4a3c fe3b
00000080: e95d 323e 89f8 ce3d 8c4c 6dbd 2c26 d33f
00000090: 1e88 f1bd 4fd9 2e3f 3804 73bd 016a 073e
000000a0: c23a 053f 9210 4d3f 357a 033f 96f2 333f
000000b0: 3e6c e6bd 2077 3d3f c638 0b3f 24df 72bd
000000c0: ddbe 483f eb4b f83e d724 adbd bf5c 103f
000000d0: b944 f93e 2331 353f 5f57 1f3e 2be2 573e
000000e0: dfab 85bb 48b2 033f ee2d 253f bcff 54be
000000f0: d3ea 243e 807a 12bb 12bb 453f b08a 343f
00000100: 5cf0 163f d672 593f 20ff ecbc 21fd 083f
00000110: 4bb5 263f ef4e 473f 4b92 1cbe 319b 0a3f
00000120: 7182 073f 3767 0b3f 0334 493f 60c9 f53e
00000130: dfe2 063f e46e 15bd 78ae 82bd 3a21 7c3a
00000140: 8688 31bd 955c 55be 3642 f13e 2e3f 1c3f
00000150: e892 323f 9552 893f 8c65 283f a667 d4bd
00000160: a840 3b3f 7b09 a6bc 8e5d d2bd 8cea 2e3f
00000170: d523 363f c4cf 3cbd 106c fd3e 69f6 d83f
00000180: b1ea 06be d2a1 3f3e 56f6 87bd 4ad0 2f3f
00000190: c0cd 13be 88ac 393f de18 0d3f f9a7 363f
000001a0: 59ed e5bd eb3f 293f ea11 3b3f 81ac b33a
000001b0: 606d 90bd efbe 5c3f 256b 093f cb27 0a3e
000001c0: 9a16 f03e 8f08 073e d6f2 493f 96c2 eb3e
000001d0: 6aff a03b e115 3b3f 77b0 3f3d 3a66 e63d
000001e0: 75ad 313f 4cc4 24be 98ac ea3e 9264 16be
000001f0: ff32 2d3f b575 253f 391e 063f 4d86 113f
00000200: 685e 7ebd 4df9 823f 4c51 06be 515c a4bf
00000210: 6115 f83d d575 a6bd 6643 203f df4c 0dbe
00000220: ee18 8b3f 23c9 293f b788 423e 741d bdbd
00000230: 62c1 083f 2b99 223e 2d76 2a3f 3a4e ba3f
00000240: a0fc ea3e fb16 16be 4615 473d bc39 1a3f
00000250: 320d d63d 5e52 49be 20ad 88bd 377d 8abd
00000260: 6c79 053d 9829 47bd b458 3a3d 4987 3c3f
00000270: 3999 023f a4a0 b73f dc82 9abd 1b59 42be
00000280: 7c9c 603d 298e 0cbe 1527 1d3e c09b dc3f
00000290: a94f 1ebe 5b54 383f f4f4 233d a4e0 0abe
000002a0: 918d 1c3f 7b69 f63e b8f8 0b3f df84 213f
000002b0: d6f8 a0bd 5b1b ed3e 2a29 1c3f 0f37 053e
000002c0: bee6 e53e d1f0 2d3f f0f1 4cbd 4899 fc3e
000002d0: 8176 473f c8b5 363f ca42 ec3d b5f3 533d
000002e0: 8204 23be 6eea 3c3f 5dc0 203f 46b4 29be
000002f0: d9e0 503e 2098 aabc efdd 0b3f abe8 343f
00000300: 8600 e83e abfa 073f 96af 26be 03f7 133f
00000310: d5e5 f43e 612c 3d3f f2c4 f1bd c9b7 233f
00000320: 65a9 233f ff71 3d3f 84b4 f73e 9d61 3f3f
00000330: 7bce 3e3f 0d0e 123e de54 c53d 1b2a 2cbe
00000340: 899e 19be 6cdc 56be 6537 5a3f 60e3 263f
00000350: 37db 3a3f ae48 903f 4d97 173f 09aa 003e
00000360: e030 143f 96c6 2fbc 84bf bbbd 459a 583f
00000370: 5eae 023f 6106 e1bd c53f 553f 79ad cc3f
00000380: 9da2 1bbe e28f 2bbd 98d3 943c c437 ef3e
00000390: 4741 19be b5fc 0a3f 3cf9 2e3f 8b92 333f
000003a0: a500 4ebe daf4 193f 8c01 f23e 44e3 41be
000003b0: 4ac6 733b 3f33 253f 417b 1b3f 052c e4bd
000003c0: 8f5c 2e3f 20e8 44be 8a55 e23e 7afb 293f
000003d0: 1e06 893d c17a 0b3f 97d8 04be 25e0 053e
000003e0: 5a39 f83e c1e2 fcbd 4502 523f 750e 023e
000003f0: f7c3 3c3f ab2d 263f c52d 193f 6026 113f

layers.output.bias f4 [3]
-0.28000355 -0.19306432 -0.46350753
00000000: a05c 8fbe a7b2 45be dc50 edbe
