results/models/1d_track/28_07_2023-14:35_model_gamma_1_e_r.pt (torch_old, 199516 bytes, 4 tensors)

layers.hidden.weight f4 [128, 384]
0.09021067 -0.04350195 0.029906385 -0.021370903 0.023902573 0.09098349 -0.013485953 -0.05893384
-0.05902123 -0.077703215 -0.063261285 0.077569 -0.07581625 0.060182773 0.008767009 0.090048455
-0.0946059 0.081369825 -0.008964486 -0.0988511 0.01475849 -0.039084204 -0.076882675 0.037579782
0.036824428 -0.0841829 -0.083471574 0.070356004 0.03997063 0.043402635 0.032058887 0.056714557
0.05997341 0.002295129 -0.010680243 0.08691687 0.086044304 0.10306243 0.0015950724 -0.07265319
0.04430204 0.085453816 0.101189576 0.036680333 -0.04943255 -0.09961547 0.102812 -0.053077776
0.055240683 0.00090713054 0.016958721 0.01843018 -0.03748201 0.04049591 0.007654898 0.06506149
-0.05182644 0.076828144 0.057802834 -0.026039585 -0.058523066 -0.08307416 0.100334205 0.043114983
0.012299508 -0.0359435 -0.004997894 -0.022183038 -0.019393891 -0.011986092 0.03208349 0.10509918
0.05357138 0.023458697 -0.08756549 0.0006592944 0.089673035 0.04083083 0.01058574 -0.08103719
0.022636153 0.020673804 0.033205025 0.057437204 0.073222525 0.025540419 0.056837387 -0.0032856613
-0.06675196 -0.026976816 -0.099004686 -0.05467033 -0.03451912 -0.047387116 -0.04911082 -0.07124896
0.011577956 0.0028244033 0.098346405 0.060794525 0.09768892 -0.068677336 0.09890754 -0.026610635
-0.034207344 0.07547008 -0.02641514 0.059061445 -0.058246452 -0.016327105 -0.0698397 0.06427277
0.049340792 -0.02016069 -0.069778904 0.062010996 -0.019895911 -0.09348815 0.067862146 -0.05663991
-0.002680391 0.10724125 -0.07045021 0.021352597 -0.003199093 -0.03000293 0.045707576 0.053116806
-0.0050408393 0.08694344 0.041319378 0.011409983 0.06731554 0.059965767 -0.05536511 0.01994776
-0.0441432 -0.07879977 0.017679088 -0.0733981 -0.031761244 -0.075327896 -0.017264381 -0.05123482
-0.04438042 -0.025363453 0.054975368 -0.008689329 0.073282935 -0.08832619 0.041171573 -0.023076415
-0.050525274 0.09724528 0.107330404 -0.12521927 -0.09536393 -0.024498176 -0.019991547 -0.05814005
-0.0720609 -0.094021104 0.07652836 0.090241745 -0.08117575 -0.062258415 -0.066493034 0.09037822
-0.09448977 -0.053843997 0.001935795 -0.024319965 -0.07356472 -0.03043412 -0.064436525 0.060715236
0.082308926 -0.093254276 0.071926005 -0.07278703 -0.09422689 0.057229295 -0.08928172 -0.106757306
-0.022657147 0.07363386 -0.046874125 0.040482126 0.044216182 -0.05011197 0.008933812 0.044934742
0.07203193 0.08494381 0.053315945 0.033517156 0.0074331607 -0.03053058 0.096650265 -0.06175441
0.10126587 0.084825255 -0.05000058 0.059449818 0.01539718 -0.03885907 -0.029375628 -0.047354713
0.06411695 -0.011279307 -0.04848677 -0.047994327 -0.055923425 0.015048347 -0.102889426 -0.024690697
-0.06743586 0.055412076 -0.089257136 0.07716182 0.007198179 -0.014831148 0.014051825 -0.085142486
0.10036098 0.074721105 0.027039967 -0.032608323 0.04631615 -0.013487861 0.082599364 -0.087117076
-0.06691155 -0.07451424 -0.081143655 0.08932549 -0.05150001 -0.037236445 0.0731565 -0.004061689
-0.044837065 0.017217003 -0.05425286 0.0893431 0.027970161 0.041013263 0.03413304 -0.101408586
0.08173553 -0.0151294395 0.020967819 0.08773797 -0.051947318 -0.09914714 -0.094859324 -0.10354725
00000000: 5fc0 b83d 1a2f 32bd 3cfe f43c 0812 afbc
00000010: 54cf c33c 8d55 ba3d 30f4 5cbc 9c64 71bd
00000020: 3fc0 71bd dd22 9fbd 228f 81bd 7fdc 9e3d
00000030: 8d45 9bbd 3682 763d 80a3 0f3c 536b b83d
00000040: bdc0 c1bd 39a5 a63d c8df 12bc 7272 cabd
00000050: 98cd 713c c216 20bd aa74 9dbd 42ed 193d
00000060: 36d5 163d 1668 acbd 25f3 aabd cf16 903d
00000070: 3eb8 233d f6c6 313d 2e50 033d 864d 683d
00000080: aea6 753d e069 163b 30fc 2ebc 7901 b23d
00000090: ff37 b03d 6512 d33d c011 d13a 32cb 94bd
000000a0: 0e76 353d 6902 af3d 7b3c cf3d 1e3e 163d
000000b0: c979 4abd 3203 ccbd 198f d23d 1568 59bd
000000c0: 0e44 623d 80cc 6d3a 04ed 8a3c e4fa 963c
000000d0: bc86 19bd 0adf 253d f0d5 fa3b f53e 853d
000000e0: f647 54bd 1358 9d3d aac2 6c3d f850 d5bc
000000f0: e2b5 6fbd c922 aabd 057c cd3d 5699 303d
00000100: e083 493c 7e39 13bd 60c5 a3bb 34b9 b5bc
00000110: f0df 9ebc 5061 44bc fa69 033d 3d3e d73d
00000120: aa6d 5b3d 742c c03c 8955 b3bd 80d4 2c3a
00000130: 7fa6 b73d 3a3e 273d d06f 2d3c d4f6 a5bd
00000140: 746f b93c 1c5c a93c fe01 083d 4643 6b3d
00000150: b1f5 953d 243a d13c 52ce 683d 4054 57bb
00000160: 40b5 88bd 7cfe dcbc f8c2 cabd ffed 5fbd
00000170: ec63 0dbd fe18 42bd 6d28 49bd faea 91bd
00000180: 78b1 3d3c a019 393b d769 c93d ae03 793d
00000190: 2111 c83d b4a6 8cbd 0990 ca3d 8cfe d9bc
000001a0: 001d 0cbd 0f90 9a3d 9064 d8bc 6aea 713d
000001b0: d593 6ebd 6cc0 85bc 1e08 8fbd 71a1 833d
000001c0: 9219 4a3d 0828 a5bc 3ee8 8ebd 3eff 7d3d
000001d0: c0fc a2bc b776 bfbd 4ffb 8a3d 40ff 67bd
000001e0: 80a9 2fbb 4da1 db3d 3348 90bd a4eb ae3c
000001f0: e0a7 51bb b4c8 f5bc de37 3b3d 0291 593d
00000200: a02d a5bb 670f b23d 823e 293d f0f0 3a3c
00000210: bbdc 893d aa9e 753d 87c6 62bd 7c69 a33c
00000220: 80cf 34bd c661 a1bd bcd3 903c be51 96bd
00000230: 1418 02bd 8345 9abd 086e 8dbc 9adb 51bd
00000240: 3ec8 35bd 04c7 cfbc da2d 613d b05d 0ebc
00000250: 5d15 963d 5de4 b4bd 86a3 283d c00a bdbc
00000260: 97f3 4ebd 8928 c73d 0bd0 db3d 7b39 00be
00000270: 2a4e c3bd 66b0 c8bc 50c5 a3bc 4324 6ebd
00000280: aa94 93bd 238e c0bd e7ba 9c3d aad0 b83d
00000290: 793f a6bd ae02 7fbd 802d 88bd 3718 b93d
000002a0: da83 c1bd 868b 5cbd 80ba fd3a aa3a c7bc
000002b0: 1aa9 96bd fa50 f9bc 4cf7 83bd 8ab0 783d
000002c0: 9591 a83d 19fc bebd f14d 933d 5e11 95bd
000002d0: 07fa c0bd 4469 6a3d 56d9 b6bd 93a3 dabd
000002e0: 7b9b b9bc 59cd 963d 15ff 3fbd 96d0 253d
000002f0: 071c 353d 3642 4dbd 205f 123c 7e0d 383d
00000300: 7a85 933d 05f7 ad3d d261 5a3d 4949 093d
00000310: df91 f33b 441b fabc 93f0 c53d 31f2 7cbd
00000320: 7b64 cf3d ddb8 ad3d 68cd 4cbd a781 733d
00000330: 7444 7c3c b02a 1fbd 28a5 f0bc 04f7 41bd
00000340: bf4f 833d d8cc 38bc 109a 46bd b395 44bd
00000350: f60f 65bd 588d 763c b1b7 d2bd 2544 cabc
00000360: d01b 8abd c6f7 623d 72cc b6bd 0407 9e3d
00000370: b4de eb3b 58fe 72bc a039 663c 2f5f aebd
00000380: 0f8a cd3d 6107 993d ec82 dd3c 4e90 05bd
00000390: 01b6 3d3d 30fc 5cbc db29 a93d 706a b2bd
000003a0: ec08 89bd ec9a 98bd a52e a6bd 48f0 b63d
000003b0: adf1 52bd 3e85 18bd 13d3 953d eb17 85bb
000003c0: 12a7 37bd ac0a 8d3c 3f38 5ebd 84f9 b63d
000003d0: ae21 e53c 86fd 273d 16cf 0b3d 4eaf cfbd
000003e0: f564 a73d 78e1 77bc b4c4 ab3c f7af b33d
000003f0: b6c6 54bd a80d cbbd 9b45 c2bd 9510 d4bd

layers.hidden.bias f4 [128]
-0.0074664964 -0.00626572 0.47288835 0.7361892 0.54812783 0.0009271648 0.01 0.72248316
-0.011364187 0.01 0.01 0.0024767637 0.5981865 0.01 0.62288505 -0.006288888
0.01 -0.023519538 -0.027461246 0.01 0.78361326 -0.016256623 0.54604775 0.01
-0.0031295693 0.004725531 0.003994521 -0.007772175 -0.04107758 0.7063466 0.46841764 0.7686118
0.00096781127 8.989442e-05 0.01 0.8644045 0.01 -0.24971196 0.8342361 -0.0042342246
0.01 -0.003416875 -0.037986107 -0.009189847 -0.007006827 0.01 0.01 0.59847313
0.01 0.01 -0.010883834 0.75207067 0.66699004 0.01 -0.021765813 0.6448038
-0.009926746 0.5718085 -0.0029389341 0.01 0.0023593707 -0.0072233323 -0.01277779 0.57779247
0.6394201 0.01 -0.0057955678 0.7286785 0.4354127 -0.029083997 0.7796062 0.6442422
0.01 0.0003034845 -0.22552055 0.7133215 0.01 0.60780764 0.00060966774 0.01
0.6915291 -0.024241576 0.6716867 -0.025038902 -0.009913661 0.01 0.8283117 0.01
0.01 0.01 -0.0044364864 -0.012897207 0.71910644 0.01 0.49179393 0.00021945275
0.0035593575 0.01 0.6827054 -0.0071503897 -0.008729257 0.01 0.01 -0.0008834003
0.01 -0.0024951813 0.5624863 0.6232797 0.49478537 -0.02878141 0.6778731 -0.022910384
0.89593405 3.2191336 0.6648879 0.01 -0.005299048 -0.004045605 -0.006265397 -0.010446198
-0.21885478 0.01 -0.037598584 0.70517087 0.7152481 0.6880725 0.01 -0.013214324
00000000: 83a9 f4bb ab50 cdbb 6c1e f23e e576 3c3f
00000010: 1b52 0c3f fa0c 733a 0ad7 233c a8f4 383f
00000020: db30 3abc 0ad7 233c 0ad7 233c 3351 223b
00000030: c022 193f 0ad7 233c 6575 1f3f 0413 cebb
00000040: 0ad7 233c 0cac c0bc 68f6 e0bc 0ad7 233c
00000050: e19a 483f 9c2c 85bc c9c9 0b3f 0ad7 233c
00000060: 7619 4dbb a1d8 9a3b 79e4 823b bbad febb
00000070: f740 28bd 21d3 343f 70d4 ef3e bec3 443f
00000080: b7b4 7d3a b385 bc38 0ad7 233c 9d49 5d3f
00000090: 0ad7 233c 7eb4 7fbe 7f90 553f 40bf 8abb
000000a0: 0ad7 233c a6ed 5fbb 5297 1bbd 0391 16bc
000000b0: 8699 e5bb 0ad7 233c 0ad7 233c 8935 193f
000000c0: 0ad7 233c 0ad7 233c 1c52 32bc b487 403f
000000d0: dcbf 2a3f 0ad7 233c 384e b2bc dd11 253f
000000e0: caa3 22bc 0b62 123f 229b 40bb 0ad7 233c
000000f0: ac9f 1a3b b4b1 ecbb f059 51bc 35ea 133f
00000100: 09b1 233f 0ad7 233c bfe8 bdbb ad8a 3a3f
00000110: 6aee de3e 9041 eebc 4694 473f 0fed 243f
00000120: 0ad7 233c 001d 9f39 dcee 66be 3d9c 363f
00000130: 0ad7 233c 4899 1b3f 1cd2 1f3a 0ad7 233c
00000140: 0d08 313f 4596 c6bc a9f3 2b3f 621e cdbc
00000150: e86c 22bc 0ad7 233c 3c0c 543f 0ad7 233c
00000160: 0ad7 233c 0ad7 233c f25f 91bb cf4e 53bc
00000170: 5c17 383f 0ad7 233c 6acc fb3e e61c 6639
00000180: 1c44 693b 0ad7 233c c8c5 2e3f d14d eabb
00000190: 2805 0fbc 0ad7 233c 0ad7 233c fe93 67ba
000001a0: 0ad7 233c 3286 23bb 1aff 0f3f 428f 1f3f
000001b0: 8254 fd3e fec6 ebbc 1789 2d3f 8fae bbbc
000001c0: ef5b 653f 4906 4e40 1836 2a3f 0ad7 233c
000001d0: a3a3 adbb ff90 84bb f64d cdbb 8826 2bbc
000001e0: 781b 60be 0ad7 233c f900 1abd 1486 343f
000001f0: 801a 373f 8525 303f 0ad7 233c e480 58bc

layers.output.weight f4 [3, 128]
-0.16671516 0.0542749 1.3281248 1.0592778 1.2481565 -0.010896627 -0.15535969 1.0248291
-0.08419251 0.047410086 0.12871136 -0.013093188 1.0170742 0.21399261 1.2503556 -0.066696286
0.05070208 0.078323394 -0.05692705 0.1781735 1.0678462 0.055903774 1.0361274 0.033879727
-0.011000932 -0.16163546 -0.18165228 0.12633531 -0.008098528 1.1103396 1.0953511 1.053171
0.14517872 -0.20307764 -0.13646239 0.93374085 0.113064155 1.9445828 0.9446541 -0.07577327
0.05348219 0.06236436 -0.15800765 -0.006745808 -0.12117525 0.028048739 -0.16420937 1.1630895
0.16772167 -0.19453359 -0.10060471 1.0176438 1.1109346 -0.09735629 -0.1744639 0.8889406
-0.13338722 0.9032564 0.16661195 0.049577102 0.09217153 0.2154086 -0.01709152 1.1940563
0.85542256 -0.12491958 -0.17619945 0.9067885 1.1136923 -0.008590585 1.0597405 1.1775054
-0.06881952 0.2040994 2.165127 0.8592474 0.0464205 0.9570233 0.085964955 0.18775572
0.8418698 -0.08483639 1.0911912 0.19209513 -0.131343 -0.021897003 0.86447453 0.18119876
-0.18115512 -0.01639539 -0.16653197 -0.047467943 0.8915321 -0.18176249 1.3711298 0.21373242
0.11017706 -0.027472034 1.098462 0.041000176 -0.061314404 0.089478895 -0.18759282 0.0049473513
0.103658244 0.09703936 1.2657119 1.1814177 1.2917901 -0.20416906 0.8737899 0.010900238
0.7912769 -5.527051 0.8495538 0.10952105 0.04108493 -0.031096809 0.0790474 -0.13254616
-2.3339047 0.14048927 -0.15617011 0.86056155 1.0745275 1.1043142 0.1171353 -0.0061692027
-0.0005604361 -0.1526086 1.0209962 0.7244918 1.0391532 0.16331537 -0.091043495 0.861034
0.0025078452 -0.013264567 -0.023641557 0.17485578 0.61436087 -0.10366776 0.87506884 -0.085816965
0.10947962 -0.11040952 0.14100604 -0.1064024 0.7831784 -0.17997998 0.70439 0.042758152
-0.06444006 0.19711256 0.049508736 -0.18634723 -0.15344723 0.91952586 1.1081344 0.8228174
-0.0104279285 0.13270858 -0.15118366 0.80374074 0.13873892 1.242856 0.86042356 -0.1322068
0.037872568 -0.1528847 0.019064672 -0.19640572 0.11644128 0.08921166 0.19035159 1.0295581
0.15070803 -0.16580902 0.0098041175 0.8218614 0.71294945 -0.023598954 -0.094140664 0.9718442
-0.129621 1.0123758 -0.20053114 -0.18819062 -0.05686768 0.0068562804 -0.18024066 0.9669225
0.85460275 -0.040917814 -0.06768353 0.74635595 0.6573794 0.1813167 0.773704 1.0110663
0.04989536 -0.15410596 2.0580652 0.81389445 0.21178995 1.0418216 -0.1863166 0.2016849
0.877679 -0.19742362 0.66324675 -0.039142527 -0.1254983 -0.09583545 0.7448717 -0.08945058
0.14402775 0.05808671 -0.16060594 -0.09032764 0.99091303 -0.19148062 1.1495721 0.19930944
-0.00022996777 0.12810202 0.68441826 -0.17392516 0.06634106 0.0562755 -0.1207788 -0.1548679
-0.04776892 0.15633634 0.8359389 0.70651037 1.1093811 -0.07018812 0.9155202 -0.016817879
0.758646 -4.458951 0.93396026 -0.15793717 0.010048136 -0.23477995 -0.066110015 0.022845056
-2.2345524 0.0028796792 -0.099153236 0.85315335 0.642475 0.6850304 0.0113967955 -0.011244698
00000000: 61b7 2abe 5c4f 5e3d feff a93f 6a96 873f
00000010: 98c3 9f3f c487 32bc 9c16 1fbe 9a2d 833f
00000020: 1f6d acbd 1431 423d e9cc 033e d084 56bc
00000030: 7d2f 823f e120 5b3e a70b a03f 1098 88bd
00000040: fcac 4f3d 0468 a03d 572c 69bd 1d73 363e
00000050: 2faf 883f 5bfb 643d d39f 843f 78c5 0a3d
00000060: 413d 34bc c483 25be 0e03 3abe 0b5e 013e
00000070: b0af 04bc 9c1f 8e3f 7734 8c3f 4fce 863f
00000080: bba9 143e 96f3 4fbe ccbc 0bbe a409 6f3f
00000090: 2e8e e73d 17e8 f83f dad4 713f 042f 9bbd
000000a0: 2410 5b3d c571 7f3d c2cc 21be f00b ddbb
000000b0: bb2a f8bd 78c6 e53c 8026 28be 1ee0 943f
000000c0: 3bbf 2b3e d033 47be d809 cebd 2742 823f
000000d0: 1b33 8e3f bc62 c7bd aaa6 32be 9c91 633f
000000e0: a996 08be d03b 673f 539c 2a3e 5c11 4b3d
000000f0: 6dc4 bc3d 1294 5c3e 8403 8cbc d6d6 983f
00000100: f9fc 5a3f d6d5 ffbd a16d 34be 4b23 683f
00000110: 788d 8e3f 86bf 0cbc 94a5 873f 7fb8 963f
00000120: 40f1 8cbd 6fff 503e 7191 0a40 a3f7 5b3f
00000130: 6c23 3e3d 7bff 743f 650e b03d 0943 403e
00000140: c784 573f b4be adbd 27ac 8b3f 96b4 443e
00000150: c87e 06be 5861 b3bc 344e 5d3f 2b8c 393e
00000160: ba80 39be a04f 86bc 5b87 2abe bf6d 42bd
00000170: 733b 643f f21f 3abe 2e81 af3f acdc 5a3e
00000180: 83a4 e13d 080d e1bc 679a 8c3f cdef 273d
00000190: d024 7bbd b640 b73d 5518 40be 641d a23b
000001a0: c64a d43d 92bc c63d d902 a23f b238 973f
000001b0: 6159 a53f b211 51be b2b0 5f3f e996 323c
000001c0: 1f91 4a3f 9add b0c0 5c7c 593f 924c e03d
000001d0: ac48 283d bcbe febc 9ae3 a13d 2eba 07be
000001e0: b25e 15c0 6bdc 0f3e 0feb 1fbe c34d 5c3f
000001f0: 1e8a 893f 2b5a 8d3f a2e4 ef3d 0627 cabb
00000200: 3bea 12ba 6e45 1cbe 01b0 823f 4b78 393f
00000210: f902 853f 253c 273e 0375 babd b96c 5c3f
00000220: a95a 243b a053 59bc f0ab c1bc 650d 333e
00000230: c146 1d3f c34f d4bd 8304 603f cec0 afbd
00000240: da36 e03d 631e e2bd e363 103e 80e9 d9bd
00000250: 617e 483f ac4c 38be e752 343f 2c23 2f3d
00000260: 26f9 83bd e0d7 493e acc9 4a3d cfd1 3ebe
00000270: 4521 1dbe 0c66 6b3f 59d7 8d3f 29a4 523f
00000280: e7d9 2abc c2e4 073e e4cf 1abe f4c1 4d3f
00000290: 9311 0e3e e815 9f3f b844 5c3f 3861 07be
000002a0: 4420 1b3d cf8d 1cbe 842d 9c3c 951e 49be
000002b0: c478 ee3d 9ab4 b63d 87eb 423e 8fc8 833f
000002c0: 3553 1a3e d7c9 29be 73a1 203c 8265 523f
000002d0: db83 363f 9852 c1bc d2cc c0bd c8ca 783f
000002e0: 5ebb 04be 8895 813f 0958 4dbe 0bb5 40be
000002f0: 16ee 68bd a6aa e03b 0291 38be 3c88 773f
00000300: 3fc7 5a3f 7099 27bd aa9d 8abd 2f11 3f3f
00000310: 044a 283f 16ab 393e 7711 463f 9f6a 813f
00000320: 145f 4c3d f4cd 1dbe 57b7 0340 635b 503f
00000330: 77df 583e 695a 853f c7c9 3ebe 7d86 4e3e
00000340: 92af 603f 6b29 4abe 8aca 293f ea53 20bd
00000350: a082 00be 6045 c4bd e9af 3e3f de31 b7bd
00000360: 037c 133e 54ec 6d3d e275 24be b3fd b8bd
00000370: 7aac 7d3f 7f13 44be 2e25 933f c617 4c3e
00000380: 8123 71b9 2d2d 033e 0936 2f3f 7019 32be
00000390: d2dd 873d 2481 663d e05a f7bd b195 1ebe
000003a0: 58a9 43bd a216 203e 1700 563f dddd 343f
000003b0: 3300 8e3f cabe 8fbd 885f 6a3f a6c5 89bc
000003c0: a036 423f baaf 8ec0 0518 6f3f 48ba 21be
000003d0: f0a0 243c 286a 70be b064 87bd 8e25 bb3c
000003e0: e802 0fc0 00b9 3c3b da10 cbbd 4268 5a3f
000003f0: 3e79 243f 275e 2f3f a0b9 3a3c af3b 38bc

layers.output.bias f4 [3]
-0.6220784 -0.2540504 -0.60276747
00000000: 8840 1fbf e512 82be f84e 1abf
