results/models/2d_track/28_07_2023-21:19_model_100K_99_e_r.pt (torch_old, 218980 bytes, 4 tensors)

layers.hidden.weight f4 [128, 420]
0	0xbcd18db8	-0.025580272
1	0xbce7e370	-0.028306693
2	0x3dc54ff9	0.09634394
3	0xbcbfdb78	-0.02342008
4	0x3daa2b27	0.08309012
5	0xbd66e9e3	-0.056375396
6	0x3d648f7e	0.055800907
7	0x3cd6e34c	0.02623143
8	0x3dafe337	0.0858826
9	0xbaf72a00	-0.0018857121
10	0x3d62a96a	0.055337347
11	0xbb21b1a0	-0.0024672523
12	0xbd437088	-0.04771474
13	0xbd417390	-0.04722935
14	0xbdc46497	-0.095894985
15	0x3c0e9768	0.00870309
16	0xbd3cd92e	-0.046105556
17	0xba9be280	-0.0011893064
18	0x3da5c051	0.08093322
19	0x3cdcf4d4	0.026972212
20	0xbda155e6	-0.07877712
21	0xbb458240	-0.003013745
22	0x3db8c449	0.090218134
23	0xbd552722	-0.052039273
24	0x3db13209	0.086521216
25	0xbd576a0a	-0.05259136
26	0xbccab3e0	-0.024743974
27	0x3d61cb8e	0.055125766
28	0x3d9e9935	0.07744066
29	0x3c857944	0.016293176
30	0xbdc7ad29	-0.097498246
31	0x3d383c66	0.044979475
32	0xbcc34c7c	-0.023840182
33	0x3d5672f6	0.05235573
34	0xbd99614a	-0.074892595
35	0xbdc507ca	-0.09620626
36	0xbc63b860	-0.013898939
37	0xbd17d71c	-0.03707038
38	0x3d69aeb6	0.057051383
39	0xbc3e9f18	-0.011634611
40	0xbc754cc0	-0.014971912
41	0xbd9ad082	-0.07559301
42	0x3d46b266	0.048509978
43	0xbdd5f05b	-0.10446235
44	0x3daf200b	0.085510336
45	0x3d189442	0.037250765
46	0x3ace3c00	0.0015734434
47	0xbdb019ed	-0.08598695
48	0xbdca1d9d	-0.098689295
49	0xbdc13748	-0.09434372
50	0xbdc5fc04	-0.09667209
51	0xbc826a2c	-0.015919767
52	0xbdd03d29	-0.101679154
53	0xbd3f5756	-0.04671415
54	0xbdb6752b	-0.08909067
55	0xbd18893e	-0.03724026
56	0xbd48ee22	-0.049055226
57	0xbdd6427f	-0.10461902
58	0x3dba2e11	0.09090818
59	0x3dab3137	0.08358996
60	0xbdca81ec	-0.09888062
61	0x3db32941	0.08748103
62	0x3da2a4dd	0.079416014
63	0x3d53c0ca	0.05169753
64	0x3d419c76	0.047268353
65	0x3d2a7842	0.041618593
66	0xbccc0208	-0.024903312
67	0x3d8318d9	0.06401224
68	0x3d1ec976	0.038766347
69	0x3db96ea5	0.09054307
70	0x3d82d091	0.06387437
71	0x3d198b46	0.037486337
72	0x3d2f4aaa	0.042795815
73	0xbd42d07a	-0.0475621
74	0xbdbeb38a	-0.09311588
75	0xbd9efcf6	-0.07763092
76	0x3dbb60d3	0.09149327
77	0x3dbecb09	0.0931607
78	0xbd60cc4f	-0.054882344
79	0x3d8ec7dc	0.06971714
80	0xbbeb6bd0	-0.007184483
81	0x3da095d9	0.07841081
82	0x3d612fd6	0.05497726
83	0x3d9f9203	0.077915214
84	0xbdbc3692	-0.09190096
85	0x3d9542d5	0.07288138
86	0x3d429895	0.047508795
87	0x3cd37ad4	0.025815405
88	0xbce1540f	-0.027505903
89	0x3d0bea7b	0.034159165
90	0x3dc249f1	0.094867595
91	0xbcae18f8	-0.02125214
92	0x3d9f5dd1	0.07781566
93	0xbda316b3	-0.07963314
94	0x3d905080	0.07046604
95	0x3d881a7f	0.06645679
96	0x3c298885	0.01034749
97	0xbcc744d4	-0.024324812
98	0x3d7bc7ab	0.061469715
99	0xbdcbd46e	-0.09952627
100	0xbd3b81de	-0.045778148
101	0x3ce1aa94	0.027547158
102	0x3d4bf46e	0.049793653
103	0xbd842133	-0.06451645
104	0x3c21fd9a	0.0098871235
105	0x3d40b4f2	0.047047563
106	0x3d7630d2	0.060105152
107	0xbd64f419	-0.055896852
108	0x3d8f7cbb	0.07006212
109	0x3ba5d8d0	0.0050612465
110	0xbb80a370	-0.0039257333
111	0xbdb525d8	-0.08845109
112	0x3d83b1bb	0.06430384
113	0x3cb745b4	0.022372104
114	0x3dba4e4e	0.09096967
115	0x3ccd5eec	0.025069676
116	0x3810a33f	3.448431e-05
117	0x3d8e6b39	0.06954045
118	0xbbd51a60	-0.0065033883
119	0xbd9c34b8	-0.07627243
120	0x3d2fb116	0.04289349
121	0xbdbbc7db	-0.09168979
122	0x3d4b480a	0.04962925
123	0xbdc4f0e8	-0.09616262
124	0xbde63f3a	-0.11242528
125	0x3d823397	0.06357496
126	0xbd67da14	-0.05660446
127	0x3dbfdd57	0.09368389
128	0xbc772620	-0.015084773
129	0xbdb928c7	-0.09040981
130	0xbcbb4134	-0.02285824
131	0xbcd72bac	-0.026265942
132	0x3d7ed966	0.062219046
133	0xbcfb76bc	-0.030696265
134	0xbd0df8fc	-0.034661278
135	0xbda06c7e	-0.07833193
136	0xbdc71997	-0.09721678
137	0xbc8291b0	-0.01593861
138	0xbd1e53e8	-0.038654238
139	0x3db5daab	0.08879598
140	0x3d412e32	0.047163196
141	0xbcbb8e64	-0.022895046
142	0xbdb6fbf7	-0.08934777
143	0x3da44d81	0.08022595
144	0x3c346f98	0.011012934
145	0xbd2ffca5	-0.04296555
146	0xbd0a2d1e	-0.033734433
147	0x3d929f27	0.07159262
148	0x3d2188b2	0.039437003
149	0xbd402fbe	-0.04692053
150	0x3d35a5e2	0.04434765
151	0x3c316ca0	0.010829121
152	0xbd9da70c	-0.07697877
153	0xbcf08a08	-0.029362693
154	0xbdbccea5	-0.09219102
155	0x3dba022d	0.09082446
156	0x3d175a6e	0.036951475
157	0x3bd073d0	0.006361462
158	0x3dc565d4	0.09638563
159	0x3d85e860	0.06538463
160	0xbd746e5d	-0.059675563
161	0xbd06afca	-0.03288249
162	0xbbb8a860	-0.0056353062
163	0xbd98637c	-0.0744085
164	0x3d160c9c	0.03663312
165	0xbd9c9c8a	-0.07647045
166	0xbcb757ec	-0.022380792
167	0x3d86990b	0.065721594
168	0xbca3b054	-0.01998154
169	0xbcbf5a1b	-0.023358395
170	0xbcf2a87c	-0.029621355
171	0x3d79c01e	0.060974233
172	0x3d0b85b7	0.034063067
173	0x3d9f44a5	0.07776765
174	0x3d41826d	0.047243524
175	0xbb61b740	-0.00344415
176	0x3dabd6e1	0.08390594
177	0x3d68685e	0.056740157
178	0xbd556904	-0.052102104
179	0xbdcefe35	-0.1010708
180	0x3da92ad1	0.0826012
181	0x3d61519e	0.055009477
182	0x3cc46c84	0.023977526
183	0xbc427df8	-0.011870854
184	0xbb7bfce0	-0.0038450286
185	0x3c437bc0	0.01193136
186	0xbd75b936	-0.059991084
187	0xbdb1bf22	-0.08679034
188	0xbd6d78f2	-0.05797667
189	0x3d3345a2	0.04376758
190	0xbdae63bb	-0.08515116
191	0xbd15f2e6	-0.0366086
192	0x3dcf7fe9	0.10131819
193	0x3d8a2631	0.06745566
194	0x3d2391ae	0.039933853
195	0x3d540fca	0.05177287
196	0x3d83b141	0.06430293
197	0x3db0710d	0.08615313
198	0xbdbbdeea	-0.09173377
199	0xbdae7c63	-0.08519819
200	0x3b8b25d0	0.004246451
201	0xbde13b03	-0.10997584
202	0xbcad4020	-0.021148741
203	0xbd6ad944	-0.057336107
204	0xbd788d61	-0.060681704
205	0xbc8e2fd0	-0.017356783
206	0x3d027c3e	0.031856768
207	0xbcb93e54	-0.022612728
208	0xbc88628c	-0.016648553
209	0xbcae7ec0	-0.021300673
210	0x3b27d400	0.002560854
211	0xbd2616ae	-0.040548973
212	0xbdca15b3	-0.0986742
213	0xbd7e18b0	-0.062035263
214	0xbd88871b	-0.06666394
215	0xbd899158	-0.06717175
216	0xbd381b48	-0.044947892
217	0xbd08cb98	-0.033397287
218	0x3b7b1ee0	0.0038317963
219	0xbd2abaf7	-0.04168221
220	0xbcabda30	-0.020978063
221	0x3ccf4504	0.025301464
222	0x3ce576b4	0.028010704
223	0x3d8f48a9	0.06996281
224	0xbcc54e64	-0.024085231
225	0xbd973fc8	-0.07385212
226	0x3db1bd5d	0.08678696
227	0xbd8f4eda	-0.069974616
228	0xbd95f950	-0.07322943
229	0xbdcd41cc	-0.100223154
230	0x3dcb5ae1	0.09929443
231	0xbdc8aedb	-0.09798976
232	0x3bb5c640	0.005547315
233	0x3b9b33f0	0.004736416
234	0xbd59411c	-0.05304061
235	0xbdb86864	-0.09004286
236	0xbd4095e7	-0.047017958
237	0xbd5a434b	-0.05328683
238	0x3ca60524	0.020266123
239	0xbd3fdc1b	-0.04684077
240	0x3dc5a613	0.09650817
241	0x3d82d15b	0.06387588
242	0x3d35b1f3	0.04435916
243	0x3c915430	0.017740339
244	0xbdaa869a	-0.083264545
245	0xbd18bada	-0.03728757
246	0x3ccc250d	0.024920011
247	0x3d52701a	0.05137644
248	0x3da76339	0.08173222
249	0x3bd74f50	0.006570734
250	0x3d88d193	0.06680598
251	0xbcf45cfc	-0.029829495
252	0x3bc78ae0	0.0060895532
253	0x3d8dca77	0.06923383
254	0xbd988883	-0.074479125
255	0x3ab54dc0	0.0013832375

layers.hidden.bias f4 [128]
0	0x3a5ccee6	0.0008423164
1	0xbc9e7a1b	-0.019345334
2	0x3e9d2076	0.30688828
3	0xbe3b2606	-0.18276224
4	0xbcf954f0	-0.03043601
5	0x3c23d70a	0.01
6	0xbd0d5926	-0.034508847
7	0xbc46c009	-0.012130746
8	0x3ec61969	0.3869126
9	0x3d8207b0	0.063491225
10	0x3c6f0cd8	0.0145904645
11	0x3eae0049	0.33984593
12	0xbd62da00	-0.055383682
13	0xbc3f69fe	-0.011682985
14	0x3e3ba474	0.18324453
15	0xbe450b22	-0.19242528
16	0xbcb24d73	-0.021765446
17	0xbc9e4e9f	-0.019324599
18	0xbccf360e	-0.02529433
19	0xbc81241b	-0.015764287
20	0xbb6ff58e	-0.0036614868
21	0xbc600adb	-0.013674463
22	0x3ebe4b85	0.37166992
23	0x3ea023ab	0.31277213
24	0x3e13abe3	0.14421038
25	0x3f23809a	0.63868105
26	0x3ed9ad7f	0.4251518
27	0x3dc96f10	0.098356366
28	0x3accf3cf	0.0015636625
29	0xbdb75f27	-0.08953696
30	0xbd192082	-0.037384517
31	0x3ec5c1ba	0.38624364
32	0xbe40499a	-0.18778077
33	0x3e96ed00	0.29477692
34	0x3ed37d07	0.41306326
35	0x3cd8a5b3	0.026446199
36	0x3e9af9ba	0.3026865
37	0x3eac3faf	0.33642337
38	0xbcb24350	-0.021760613
39	0xbcd2ac18	-0.025716826
40	0x3ecf0e3c	0.40440547
41	0xbcb24bfc	-0.021764748
42	0x3e4f75b1	0.2025974
43	0x3e92fa60	0.28706646
44	0xbc123462	-0.008923622
45	0xbea2dfeb	-0.3181146
46	0x3e936c65	0.28793636
47	0x3c23d70a	0.01
48	0x3eecf17e	0.46277994
49	0xbda82080	-0.08209324
50	0x3e9c98b4	0.30585253
51	0xbcb24c0e	-0.021764781
52	0xbcb969b4	-0.022633411
53	0xbc663d1f	-0.014052658
54	0x3dafeba4	0.08589867
55	0x3e254581	0.16139795
56	0xbea3942a	-0.31948978
57	0x3ed72b73	0.42025337
58	0x3e992ea6	0.29918402
59	0xbb1eb4b2	-0.002421659
60	0xbd0f8980	-0.03504324
61	0xbe4f7b93	-0.20261984
62	0x3c23d70a	0.01
63	0xbeeeb3fc	-0.46621692
64	0xbb251faa	-0.0025195875
65	0x3da1294e	0.07869206
66	0xbcab5bfc	-0.020917885
67	0xbe27f2f1	-0.16401269
68	0x3ed3f8f1	0.41400865
69	0xbbecd2d7	-0.0072272825
70	0xbcdeddae	-0.027205314
71	0xbd2a5aa7	-0.04159036
72	0x3eae316a	0.34022075
73	0xbdff745c	-0.12473366
74	0xbca5f899	-0.020260142
75	0xbdd23b4b	-0.102652155
76	0xbbe7337e	-0.007055699
77	0xbe86a8eb	-0.2630075
78	0xbcf06607	-0.029345525
79	0x3e1c7478	0.15278804
80	0xbcaf189c	-0.02137404
81	0xbd962c32	-0.07332648
82	0xbcb23f0f	-0.021758584
83	0xbd38b2b6	-0.045092307
84	0x3e9b0396	0.30276173
85	0x3eb6d317	0.35707924
86	0x3ed60955	0.41803995
87	0x3ee3ab07	0.4446642
88	0xbc8d1b3d	-0.017224902
89	0xbcbe1078	-0.023201212
90	0xbb5ee7a6	-0.0034012585
91	0x3eafdae3	0.34346685
92	0x3e8372c0	0.25673485
93	0x3e8c67fc	0.27423084
94	0xbe40c61d	-0.18825574
95	0xbe1829c4	-0.14859682
96	0xbc66bf73	-0.014083731
97	0xbd075a12	-0.033044882
98	0x3e940aeb	0.2891458
99	0xbcfe2bb7	-0.031026704
100	0x3eaad8a9	0.33368424
101	0x3ebf6dc0	0.3738842
102	0xbe2c6c70	-0.1683824
103	0xbc906452	-0.017625961
104	0x3ee23d1d	0.4418725
105	0x3cf56b9c	0.029958539
106	0x3e181367	0.14851151
107	0x3eabcf72	0.33556706
108	0x3c411c2d	0.011786503
109	0x3e936f45	0.2879583
110	0x3e917196	0.28406972
111	0x3e9e5da2	0.3093081
112	0xbe5cca2e	-0.215615
113	0xbcc5c789	-0.024142997
114	0xbbbce428	-0.005764503
115	0xbcf9df51	-0.030501993
116	0x3ecdecdc	0.40219772
117	0xbb9f3021	-0.0048580323
118	0x3ea6e4a1	0.32596305
119	0x3c70a6bb	0.014688189
120	0xbcfaaf92	-0.030601297
121	0xbdda5cf0	-0.10662258
122	0x3da80cd7	0.08205574
123	0x3e9e8a62	0.30964953
124	0xbc6af8ae	-0.014341516
125	0x3ea660c9	0.32495716
126	0x3eb789a1	0.3584719
127	0xbc92ea43	-0.01793397

layers.output.weight f4 [5, 128]
0	0xbd737d80	-0.059445858
1	0x3fada0f7	1.3564748
2	0x3ee415ff	0.44548032
3	0x409b7d6a	4.8590593
4	0x3d99779e	0.07493518
5	0x3c53c9b0	0.012926504
6	0xbdd5fcb4	-0.1044859
7	0xbe4fa3cf	-0.20277332
8	0x3eee1169	0.46497658
9	0x3fa1f990	1.2654285
10	0x4077282b	3.8618267
11	0x3ef64e11	0.48106435
12	0xbe2a00c0	-0.16601849
13	0x3e3928e3	0.18082003
14	0xbf4e128f	-0.8049707
15	0x3f08c064	0.53418565
16	0xbd1dc498	-0.038517565
17	0xbdbd917e	-0.09256266
18	0xbd105c93	-0.035244536
19	0xbe11a94c	-0.14224738
20	0xbd91670a	-0.07099731
21	0xbde2fd09	-0.11083419
22	0x3f07a770	0.52989864
23	0x3edb4578	0.42826438
24	0xbf6df022	-0.9294454
25	0xc03c2104	-2.939515
26	0x3f00c4f1	0.5030051
27	0xc03aaa7b	-2.9166553
28	0xbe026e3d	-0.12737365
29	0xc0165b7c	-2.3493338
30	0xc03f7f90	-2.9921608
31	0x3e9b665a	0.30351526
32	0xbfee3c01	-1.8612062
33	0x3ea49f43	0.32152757
34	0x3f01cb50	0.50700855
35	0x3fa28f85	1.2700049
36	0xc0308a63	-2.7584465
37	0x3eb89b3e	0.3605594
38	0xbdac8f90	-0.0842582
39	0x3a3b97da	0.00071561115
40	0x3f148276	0.5801157
41	0xbe55c905	-0.20877464
42	0x3f9c988a	1.2234051
43	0x3ed3117d	0.4122428
44	0xbddd93f0	-0.108192325
45	0x3fa3c097	1.2793149
46	0xc08f2dec	-4.4743557
47	0x3db53128	0.088472664
48	0x3f076723	0.5289175
49	0x407f29e5	3.986932
50	0x3e78ebf5	0.2430876
51	0xbd8d3a34	-0.06895867
52	0x3e33b605	0.17549904
53	0xbe156111	-0.14587809
54	0xbffc775a	-1.9723923
55	0xc038cc50	-2.8874702
56	0x4091995d	4.549971
57	0x3ef48486	0.47757357
58	0x3e44147d	0.1914844
59	0xba4c8000	-0.0007801056
60	0xbe103264	-0.14081722
61	0xbf534768	-0.8253083
62	0x3d870f3c	0.065947026
63	0x4070df9b	3.7636478
64	0x3e3ec007	0.1862794
65	0x401a639f	2.4123304
66	0xbe0300f2	-0.1279333
67	0x406d2b5e	3.705772
68	0x3ec56a9f	0.38557908
69	0x3e0f09b9	0.13968553
70	0xbdfef198	-0.12448424
71	0x3c0b4523	0.00850037
72	0x3ec9f954	0.39448035
73	0x4070c263	3.7618644
74	0x3e4ce104	0.20007712
75	0x4059e8d9	3.404837
76	0x3d822e84	0.063565284
77	0xc011974d	-2.2748597
78	0x3e653bf8	0.22386158
79	0xbf4b461a	-0.7940384
80	0xbc441a34	-0.011969138
81	0x4089b056	4.3027754
82	0x3c282320	0.010262281
83	0xbd00f921	-0.031487588
84	0x3ebec8bd	0.37262526
85	0x3eed686c	0.4636873
86	0x3ed7e727	0.42168543
87	0x3eb9f37d	0.3631858
88	0xbd80ae28	-0.06283218
89	0xbe052733	-0.13003235
90	0xbdd24bb0	-0.102683425
91	0x3e9ba542	0.3039952
92	0x3f0f5f6b	0.5600497
93	0x3edb1a2f	0.42793414
94	0x4055b78b	3.3393276
95	0xbfd06cb8	-1.6283178
96	0xbd020682	-0.031744488
97	0xbdf64604	-0.12025073
98	0x3f0e8ab7	0.5568041
99	0xbdce75ee	-0.10081087
100	0x3e9d4057	0.3071315
101	0x3eae4001	0.34033206
102	0xc080b292	-4.021798
103	0xc019c012	-2.402348
104	0x3f033617	0.5125441
105	0x3fa25ef2	1.2685225
106	0xc02917b0	-2.6420708
107	0x3eddc6b5	0.43315664
108	0x3fd332ef	1.6499919
109	0x3e836014	0.2565924
110	0x3f0e8568	0.5567231
111	0x3eb3aece	0.35094303
112	0x40c4e8f4	6.1534367
113	0xbe222c4b	-0.15837209
114	0x3fdb827b	1.7149194
115	0x3dc11ddf	0.094295256
116	0x3ece1be5	0.40255657
117	0xbdb4655c	-0.08808395
118	0x3ed07975	0.40717664
119	0xc029cc0d	-2.6530793
120	0xbe052da1	-0.13005687
121	0xc04dd734	-3.21626
122	0xc05370f7	-3.3037698
123	0x3f0f4ad6	0.55973566
124	0xbe01d14a	-0.12677494
125	0x3efbcf36	0.49181527
126	0x3ec94f9a	0.39318544
127	0x40564aa3	3.3483055
128	0x3e509ff8	0.20373523
129	0x3fcdf8a8	1.6091509
130	0x3f17499d	0.590967
131	0x409ba97e	4.86444
132	0x3b0c2202	0.0021382575
133	0x3e3e2b60	0.18571234
134	0x3b49bf8e	0.0030784342
135	0x3d7cb560	0.06169641
136	0x3f15f00e	0.5856942
137	0x3f8de754	1.1086221
138	0x408140b6	4.0391493
139	0x3ec202db	0.37892804
140	0xbdad90d2	-0.08474888
141	0x3e178ea0	0.14800501
142	0xbf4c6312	-0.7983867
143	0x3f0a8e80	0.5412369
144	0x3c77ad10	0.015116945
145	0xbdc90da1	-0.09817053
146	0x3db3c9e2	0.087787405
147	0xbe0dc6f1	-0.13845421
148	0x3d6717b1	0.05641908
149	0x3d047adf	0.03234374
150	0x3ea641a3	0.32471952
151	0x3f14838d	0.5801323
152	0xbf8343bd	-1.0255047
153	0xc03f207a	-2.9863572
154	0x3e8f1718	0.27947307
155	0xc0367099	-2.8506224
156	0xbcd6ddd8	-0.02622883
157	0xc00afa53	-2.1715286
158	0xc044b559	-3.0735686
159	0x3ec37942	0.3817845
160	0xbff596f4	-1.9186692
161	0x3f1b9a7a	0.6078259
162	0x3f0fa184	0.5610583
163	0x3f8ce2e0	1.1006737
164	0xc037f263	-2.874169
165	0x3f077642	0.5291482
166	0x3d29e280	0.041475773
167	0xbde266f5	-0.11054794
168	0x3f08f45b	0.53497857
169	0xbd07cb20	-0.0331527
170	0x3f962843	1.1731037
171	0x3ee85e2f	0.45384356
172	0x3dfa1f79	0.12213034
173	0x3f934235	1.150458
174	0xc0896504	-4.293581
175	0xbc4c3bb0	-0.0124654025
176	0x3f0b085b	0.54309624
177	0x40820f4e	4.0643682
178	0x3f06a047	0.52588314
179	0xbe0cc62f	-0.13747476
180	0xbe2d7569	-0.1693932
181	0x3e223d02	0.15843585
182	0xc01092ff	-2.258972
183	0xc02cb754	-2.6986895
184	0x40880754	4.2508945
185	0x3ebd7a14	0.370072
186	0x3eedfebd	0.46483412
187	0xbd5bba28	-0.05364433
188	0xbc9d7338	-0.01921998
189	0xbf5c00da	-0.859388
190	0xbdf5f72b	-0.12010034
191	0x40718ed1	3.7743418
192	0xbe073951	-0.13205458
193	0x400d7082	2.209992
194	0xbd27328e	-0.040819697
195	0x40641c4b	3.5642269
196	0x3ebc206a	0.3674348
197	0xbe024960	-0.12723303
198	0xbe30e0d3	-0.17273264
199	0xbdea727c	-0.114476174
200	0x3f1cf59a	0.6131226
201	0x40862eb4	4.193201
202	0x3c54950a	0.012974987
203	0x403aa79a	2.9164796
204	0x3d7ee7c3	0.062232744
205	0xc012ea20	-2.2955399
206	0x3e2c12ee	0.16804096
207	0xbf56c30d	-0.83891374
208	0x3d2e6478	0.042576283
209	0x4087d2a2	4.244462
210	0x3e47402e	0.19458076
211	0xbca12421	-0.019670548
212	0x3e7a032b	0.24415271
213	0x3e8847fa	0.26617414
214	0x3e9f694a	0.31135017
215	0x3ee209e1	0.44148162
216	0xbe51733a	-0.20454112
217	0xbdf5eae4	-0.120076925
218	0x3dbcdb78	0.09221548
219	0x3edee08a	0.43530685
220	0x3f0146d2	0.5049869
221	0x3e68fc60	0.22752523
222	0x404b1740	3.173294
223	0xbfbc0694	-1.4689507
224	0x3e07aae2	0.1324878
225	0x3de18bac	0.110129684
226	0x3f13be23	0.57712
227	0xbe2ed4f5	-0.17073424
228	0x3eb3c9fa	0.35115033
229	0x3eb8a61b	0.36064228
230	0xc04afe8d	-3.1717865
231	0xc016461e	-2.3480296
232	0x3ed4b503	0.4154435
233	0x3f979cef	1.1844767
234	0xc034e3ca	-2.8264031
235	0x3ef4e446	0.4783041
236	0x3fc88374	1.5665116
237	0x3eda1a7f	0.4259834
238	0x3f06a816	0.5260023
239	0x3e2bc8f8	0.16775882
240	0x40d5beab	6.679525
241	0x3dfb380c	0.122665495
242	0x3fa0e988	1.2571268
243	0xbe210697	-0.1572517
244	0x3eafce93	0.3433729
245	0xbe26aa61	-0.16275932
246	0x3ebfe5db	0.37480053
247	0xc013255f	-2.299156
248	0x3cd62b00	0.02614355
249	0xc064d3c9	-3.5754263
250	0xc03cd83c	-2.950698
251	0x3f154754	0.58311963
252	0xbcdc5ecd	-0.026900673
253	0x3e85cfa1	0.2613497
254	0x3ef953a4	0.48696625
255	0x405ace14	3.418828

layers.output.bias f4 [5]
0	0x3ea4f15b	0.3221539
1	0x3e890e0d	0.26768532
2	0x3e70afa2	0.23504499
3	0x3e7732ed	0.2414052
4	0x3e87c1b5	0.26514974
