results/models/2d_track/28_07_2023-22:29_model_e_r_1M_99.pt (torch_old, 218980 bytes, 4 tensors)

layers.hidden.weight f4 [128, 420]
00000000: 88b7 6b3c dfed 833d bcdb 1cbd 78ad 84bc
00000010: 343d dd3c 9db5 9ebd cb41 97bd dece 073d
00000020: 84e6 bc3c fefe 88bd d245 a4bd 7c7f b93c
00000030: 8e8a 213d 08e5 14bd cc4b bbbd ae68 1bbd
00000040: 5e06 093d 58f2 61bc 6006 0fbd 4c5c 1bbd
00000050: 4a18 80bd 31df 2fbd c0df 5f3b ab05 9d3d
00000060: db1f bd3d 68bc a4bc 0e04 17bd 409a 43bb
00000070: 4027 78bb 72b1 733d 00eb 37bc 90ca 10bd
00000080: c149 853d a759 ce3d 3362 943d e19e 913d
00000090: 9c55 2cbd e429 c13c bae7 aabd c05e 1f3c
000000a0: 30c5 a03c 263f 12bd 7806 83bc 70e6 aabb
000000b0: 5552 a6bd 845e 88bd 83e7 cbbd 7743 d13d
000000c0: 4ff6 973d 7ad5 263d 3e0e 453d 7257 293d
000000d0: cce2 1fbd 40a9 813c 27ca cebd c67a c9bd
000000e0: e89f d2bd d2e5 2c3d 99b7 c0bd dcbf fdbc
000000f0: d07f 34bc 9548 cf3d 4b10 a4bd c0f6 1f3b
00000100: fe81 353d 0e6a 82bd 20c7 ac3b da2e 1b3d
00000110: ecc3 afbd 90a4 64bd 74fa bd3c 96b0 7b3d
00000120: e635 babd fe39 1c3d c009 27bb 28b2 89bd
00000130: 7ed3 323d f51c d53d 8fea f5bf 58d4 73bf
00000140: a085 243b 702e 793c c1f9 8b3d 34ad 923f
00000150: 5171 68bf 8860 2cbc 4b3c d03e af40 943d
00000160: 25a7 9040 15d3 2f3e 109d d43b 96ac c2bd
00000170: 122e 1a3d 5668 a540 03d6 83bf 0b72 b43d
00000180: e583 9cbf 2870 f0bc 7ad2 9540 8e14 e73f
00000190: f75f ae3d 871b c23d 405b c1be 852a 2f40
000001a0: dbf3 dbbe d69a 2a3d efb1 9e3f a372 4fbd
000001b0: a88d 9b40 8c03 353f 58ad 303c 6e78 073d
000001c0: ab8d ca3d 61bc 8a40 2607 e0bf dfd7 8f3d
000001d0: d5ea 1740 348b 79bd abd8 5fbf 868e 97c0
000001e0: c48f abbc a8d3 6f3c 71a3 c0bd 645f 8140
000001f0: 7115 82bf 4770 c03d db18 8b3f 4404 99bd
00000200: 4672 b53d 3ce2 88c0 80bb 84ba 9695 a9bd
00000210: 127a 493d 2aa3 9f40 3267 81bf 8615 5d3d
00000220: e815 a4bc b4c8 a3bc cf69 30bd c433 e63c
00000230: 93be 9c3d 7422 b9bd 00fa d53b 1e83 163d
00000240: 5c2e c53c d06c 29bd e271 a0bd 1ee2 263d
00000250: 494d fdbf 4f7b 84bf 1324 8140 cabb 073d
00000260: 44f9 aebd 1451 3e40 4a4f cb3f 5bc1 b5bd
00000270: fccb 943c 0528 c83d 1eec 7640 29d2 debf
00000280: 207d 373c c92b 8ebf 9aeb 503d a6f2 7640
00000290: e7c3 d6bd 66a1 173d e0cb 85bd 8438 f03c
000002a0: 3f8e ee3f 92b4 8ebf ac11 cb3c 3c84 dfbc
000002b0: 7dd4 d4be a554 6340 8974 813d 229f 443d
000002c0: e83b 1f3c 1287 99bd 13a5 b040 f6e2 b4bf
000002d0: b871 683c 0493 df3e 088f 92bd 80ca 9d40
000002e0: 63cb 17bd 8209 6e3d e209 b0bd 105b c5bd
000002f0: b503 fc3f 4492 b1bf 9538 53bf 951d 9fbd
00000300: 7e3c 2fbd f6bd e040 0b96 0a40 96ac 463d
00000310: f018 babb 58ec 56bd 437f a740 a47e 5fbf
00000320: 1025 a8bd 55ed 823f 07be cd3d d486 7b40
00000330: bb42 edbf cc4d dabc f7cb ccbd 38f3 27bd
00000340: 8ae8 743d 8ee5 633d 74e3 abbc 1ea1 073d
00000350: 828b 5c3d 414f 893d a0f9 973b ebeb 6fbd
00000360: d302 4e40 9ef4 3b3d 6d0f 81be c7d5 11c0
00000370: 9087 e13b a7b3 883d 1a9a 28bd 382e f23f
00000380: 2472 95bf 4e8f ca3f 70bd e1bc 32d3 10bd
00000390: b168 d540 e128 1340 c086 d93b 8d85 4fbd
000003a0: 1cb1 a3bc 5683 6340 12a1 b6bf 7083 91bc
000003b0: 57c3 033d 604e 6dbc ff7a a640 d6a9 d83f
000003c0: 24bc 91bd 63e8 833d d35e 34bd 262a a03f
000003d0: 05a9 c33e 920b b1bd f703 f43f 20d7 53bc
000003e0: 7608 4c40 662f 35c0 7e4d 45bd 16d8 acbd
000003f0: 9c9f c73c 6b5d d340 591c 08c0 526d 1d3d
0.014387019 0.06441855 -0.038295493 -0.016195998 0.027006723 -0.07749484 -0.07385596 0.03315627
0.023059137 -0.06689261 -0.0802113 0.022643797 0.039438777 -0.036351234 -0.091453165 -0.037941627
0.033453338 -0.013790689 -0.03491819 -0.037929818 -0.06254633 -0.04293746 0.0034160465 0.07667097
0.092345916 -0.02010937 -0.0368691 -0.002984658 -0.0037865192 0.059495397 -0.011225462 -0.03534943
0.06508208 0.100756936 0.072452925 0.07110382 -0.04207383 0.023579545 -0.083449796 0.00972718
0.019625276 -0.035704754 -0.015994295 -0.0052154586 -0.08121172 -0.066586524 -0.09956267 0.10217946
0.074200265 0.04073093 0.048109286 0.04134316 -0.03903465 0.015827775 -0.10097151 -0.0983787
-0.10284406 0.04221136 -0.094100185 -0.030975275 -0.011016801 0.10121266 -0.0801092 0.002440855
0.044313423 -0.063678846 0.005272761 0.037886478 -0.08582291 -0.055821 0.023190714 0.061447702
-0.090923116 0.038141243 -0.002548799 -0.06723434 0.043658726 0.10405914 -1.9212207 -0.95245886
0.002510406 0.0152088255 0.06834746 1.1459107 -0.9079791 -0.010521062 0.40671 0.072389
4.5204034 0.17170365 0.00648845 -0.095055744 0.037641592 5.1689863 -1.0299686 0.088108145
-1.2227751 -0.029350355 4.681943 1.8053148 0.085143976 0.09477907 -0.3776493 2.7369702
-0.42959484 0.04165157 1.2398051 -0.050646435 4.861042 0.7070854 0.010783516 0.033073835
0.09890302 4.3354955 -1.7502182 0.07023596 2.373708 -0.06092377 -0.87439984 -4.736148
-0.020942576 0.014637865 -0.09406174 4.0428944 -1.0162793 0.09396415 1.086696 -0.07471517
0.088596866 -4.2776165 -0.001012668 -0.082804844 0.04918868 4.9886675 -1.0109618 0.053975604
-0.020029977 -0.019993164 -0.043069657 0.028100856 0.07653537 -0.090397745 0.0065300465 0.036746137
0.024069957 -0.041363537 -0.078342214 0.040742986 -1.978921 -1.0350131 4.0356536 0.033138074
-0.085436374 2.9736986 1.5883572 -0.0887477 0.018163674 0.09773258 3.8581614 -1.7407886
0.011199266 -1.1107112 0.051005937 3.85856 -0.10486584 0.037019156 -0.06533027 0.029323824
1.863716 -1.1148856 0.0247887 -0.027284734 -0.41568366 3.5520413 0.063210554 0.048003323
0.009718873 -0.07496466 5.5201507 -1.4131763 0.014187269 0.43666852 -0.07156187 4.930969
-0.0370592 0.058114536 -0.08595635 -0.096365094 1.9688631 -1.3872762 -0.8250821 -0.07769314
-0.0427823 7.0231886 2.165408 0.048504435 -0.0056792423 -0.05247149 5.234285 -0.87302613
-0.08210194 1.0228678 0.100460105 3.9301043 -1.853599 -0.026648425 -0.09999841 -0.041003436
0.05979208 0.055638842 -0.020982482 0.033112638 0.053843983 0.067045696 0.004637912 -0.0585746
3.2189224 0.045887582 -0.2520708 -2.278673 0.0068826154 0.06674891 -0.041162588 1.8920355
-1.1675458 1.5824983 -0.027556151 -0.03535766 6.6690297 2.29937 0.006638378 -0.050664473
-0.019981913 3.554891 -1.4267905 -0.01776287 0.032168712 -0.014484018 5.202514 1.692683
-0.07115963 0.064408086 -0.044035744 1.2512863 0.3821489 -0.08644785 1.906371 -0.012929708
3.1880164 -2.831018 -0.048169605 -0.084396526 0.0243681 6.6051536 -2.1267302 0.038434334

layers.hidden.bias f4 [128]
00000000: 9ae5 79bf 2a7a 20bd 786e 42bd 6ff7 9dbe
00000010: 0635 823b 2a77 16bd dd33 383e 49de adbf
00000020: 38f5 d8be 955f 27bf 7632 4fbf 9216 bbbe
00000030: 6ec1 2f3f db5d eabc 0ad7 233c a9e6 bcbe
00000040: e036 ecbe 5e53 31bf 5194 733f 08df a0be
00000050: 0e16 80bf 1fee 6ebc d4dd cdbe 3915 24bf
00000060: 8aeb 08bd 292d 25bf 02fa 14bd 74d2 8abf
00000070: 37a3 6b3f 0a83 80bf 49be 10bf c7a3 40bc
00000080: 0918 a73f 3eaf 923f 15eb 0dbd 0069 a2bc
00000090: dbc5 c1be 3ac4 c9be 9843 ecbc 5db4 75bf
000000a0: 7c0b 7d3f b35a 13bd c01c 40bf 89cb 0abd
000000b0: d17b 7abc bfe2 8cbf e55d 00bd 8b00 39bf
000000c0: bab7 71bf d15b e8bb 9393 86bc 76fd 0ebd
000000d0: 439e 173b 35f8 b9bb 5046 4abf 07bd b2be
000000e0: bb93 65bc ae67 a6bc 1b17 08bc 4188 35bf
000000f0: f9e5 b4bc dd81 f9be b6c3 d9be 4926 98bc
00000100: 4d45 963f a52b e0be 6b27 42bf 8231 b2bc
00000110: 24e1 84bf 56d8 22bc b829 93bc 0a89 13bf
00000120: 53e2 1bbf 9571 d7bb 9536 9dbc c81e 08bc
00000130: 9a54 99be f6f0 01bf 13b8 2abf 9ef9 f0bc
00000140: e176 4abf 30b0 12bf 8c0f babe ef4d b2bc
00000150: 22d7 29bf 564a 9ebe 079b 4ebe 6c4e fdbe
00000160: 555f 23bc d8bd a6be 7a4d b2bc 8d73 f5ba
00000170: 46e1 37bf dea0 97bf c4d3 20bf 7e8d ecbc
00000180: 386f 0dbd a769 06bf caf3 30bc 0e98 54bf
00000190: c4de 4e3e 8c16 6fbf 528a 56bd 3384 5abf
000001a0: 780d 8bbc 6142 b2bc 8726 46bf f4f4 40bf
000001b0: 8b20 1ebf dee2 503a 5cb8 f7bc 0ad7 233c
000001c0: d474 e4be 3554 3abf 53d2 13bd 8387 c23e
000001d0: 0ad7 233c 474c 7bbf 9509 3cbf d00a e9be
000001e0: 6049 1fbd a1cd 78bf e6fb 9abe dbaa b7bc
000001f0: 45a6 84be db28 02bc dd85 473e b3b4 00bf
-0.9761597 -0.039179005 -0.047468632 -0.3085284 0.003973606 -0.036734737 0.17988534 -1.3583461
-0.42374587 -0.6538022 -0.8093637 -0.36540657 0.68654525 -0.028609207 0.01 -0.3689473
-0.46135616 -0.69267833 0.9514819 -0.3142016 -1.000673 -0.01458314 -0.40208304 -0.64094883
-0.033427753 -0.64522034 -0.03637124 -1.0845475 0.9204592 -1.003999 -0.5654035 -0.011757798
1.305421 1.145973 -0.03464802 -0.019825459 -0.37846264 -0.3940752 -0.028840825 -0.9597834
0.9884565 -0.03597517 -0.7504387 -0.033885513 -0.015288309 -1.1006697 -0.031339545 -0.72266454
-0.9442097 -0.0070910235 -0.01642779 -0.034909688 0.0023135103 -0.0056753405 -0.7901354 -0.3490984
-0.0140122725 -0.02031311 -0.00830629 -0.7091103 -0.022082316 -0.4873189 -0.42532128 -0.018572943
1.1739899 -0.43783298 -0.758414 -0.021752123 -1.0381207 -0.009939274 -0.017964229 -0.5763098
-0.6089222 -0.0065748193 -0.019191066 -0.00830812 -0.29947358 -0.507583 -0.66687125 -0.029415902
-0.79087645 -0.5730009 -0.36339986 -0.021765677 -0.6634389 -0.3091609 -0.20176326 -0.49473894
-0.009971459 -0.32566714 -0.02176546 -0.0018726453 -0.71828115 -1.1845968 -0.6282313 -0.028876062
-0.034529895 -0.5250496 -0.010800311 -0.8304452 0.20202166 -0.9339378 -0.052378006 -0.8535797
-0.016974196 -0.021760168 -0.7740254 -0.7537377 -0.61768407 0.0007968376 -0.030239277 0.01
-0.44620383 -0.7278474 -0.036089253 0.37994012 0.01 -0.98163265 -0.7345212 -0.45516062
-0.038888335 -0.97188765 -0.30270308 -0.022420337 -0.25908104 -0.007944311 0.19484659 -0.50275725

layers.output.weight f4 [5, 128]
00000000: 8c6d c840 cfc4 72c0 ed5b 68bc 57e4 abc0
00000010: 2f8c 47bc 5e3a 31be f5ad b140 2510 2841
00000020: 057a 2d40 fb8f 9f40 a563 0041 ab3e 1c40
00000030: 6275 7dc0 1c52 c2bb 70e7 3abd e16a 9ebf
00000040: 7af6 4b40 7524 d340 b7d6 04c1 dfd6 57c0
00000050: 3dc5 eb40 6265 2cbe 9898 c7bf a792 5b40
00000060: e863 14be d80b 3040 b06e 59bd 5019 1941
00000070: 3775 c1c0 96a1 2a41 4d63 bf40 1401 1dbe
00000080: fd88 92c0 b39f b2c0 6bf9 883d f7d1 9ebd
00000090: 3057 0340 6af3 6a3f 5858 b63d e402 cd40
000000a0: cfb4 e0c0 d226 d23a 91bb e440 1bdc eabd
000000b0: 0c06 c9bd b083 0e41 9270 82be ae91 f340
000000c0: 2ed4 3041 b7a6 803d a487 983d 34af cabd
000000d0: afeb 67bd 6069 293d 825f fa40 15dc c43f
000000e0: 425c 263e eb1b 3e3e 6b98 0dbd b94d c340
000000f0: c122 8dbc 706d 4840 a650 96c0 f9c4 d63d
00000100: 7220 94c0 e9ce 6640 7f9a 0c41 e650 0dbe
00000110: 73d7 f240 92f5 19be 4042 52bc 1cd8 4e40
00000120: 3d6a be40 955f 4dbe 84f0 973d 5d29 693d
00000130: 5da4 3541 b8de 1c40 6ec9 0741 11ad 783c
00000140: 2396 f040 3623 c040 d613 6e3f 2148 38be
00000150: 70a5 bb40 3649 f03e ea18 bdc0 4317 4e40
00000160: 6010 42be ac3e 6ac0 1255 d63d d92c 0cbe
00000170: 7d9a 1a41 1740 1a41 5ab4 9d40 678e e03d
00000180: 2e8c 293e 1c15 5f40 f9a9 343e 2d9e ee40
00000190: 3ed4 8640 f3fc 1341 d470 eb40 f255 1a41
000001a0: eb18 623d 7c58 13be d6a4 9940 06bb 3541
000001b0: dcc5 8440 139e 15be 055b a13d 3a36 4d3e
000001c0: d876 e83f 07ba 0041 26b6 12bd b859 bbc0
000001d0: 6c10 083e 8334 1b41 658b e840 cc35 3540
000001e0: aa15 c4bc 42d3 3341 eb61 b0c0 5805 77bd
000001f0: 1798 9fc0 2979 03be a25d 8f40 2a3d b33f
00000200: d286 cd40 7545 72c0 a623 94bd 3d63 aec0
00000210: c623 4cbe d069 2e3e 15dd af40 80d3 2d41
00000220: 88e8 2e40 6db3 9e40 9c29 0041 e874 1f40
00000230: bcd3 6fc0 245e 103e d0cf 343e 0b34 a6bf
00000240: e2bb 4940 f544 d240 9d03 0dc1 e732 5ac0
00000250: 948f fa40 504f 30bd 802c c0bf b0ca 5a40
00000260: 6b25 abbc 449d 2d40 84d1 4a3d 396c 1a41
00000270: ee44 dbc0 5792 2f41 60a3 c040 00a4 213e
00000280: 3da4 8dc0 a706 b6c0 8147 663d 90f3 4bbe
00000290: ce2b 0140 acae 6f3f dae5 4f3e 9e71 cb40
000002a0: 9581 dec0 5a1e dbbd 0d4e e440 e0fa 1bbc
000002b0: c48a babd 26d9 0d41 90cb b13d 499d f040
000002c0: 199e 2c41 5e9f f0bd c762 36be a5ce e9bd
000002d0: 4970 943d f90b 34be 840e fc40 9fb4 ba3f
000002e0: ff95 19bc 5a5d 2c3e 45bf 42be 0373 c040
000002f0: 020b f63a 321a 4740 ebff 96c0 ea1e 603b
00000300: 884d 94c0 fa50 6740 faa1 1241 16eb 4cbe
00000310: dac5 e540 6c67 123e c8fd b33d 3a64 5540
00000320: 7b38 bb40 6f65 1f3d 91ac bfbd cd97 50be
00000330: bd4a 3a41 5ab7 1e40 a239 0541 d625 5dbd
00000340: 85d5 e940 9e36 be40 e86d 883f 9c5d 2cbe
00000350: 2120 c040 c711 6a3e f179 bcc0 ae3a 4740
00000360: 1e16 273d 0090 5cc0 b0e8 b33d be67 293e
00000370: d041 1741 7340 1e41 8273 9740 f82f 7e3d
00000380: 0a47 88bd 5892 5f40 835c a9bd adf9 e440
00000390: 70f3 8240 17b8 1241 4d87 e340 fd11 1a41
000003a0: 660e 35bc 6c41 9abd 5301 9a40 7bba 3541
000003b0: 40d5 8540 3842 ce3d 123a 02be 3095 56be
000003c0: bfc6 e63f abee f440 31fa bfba 7896 c2c0
000003d0: b6f9 0fbe 6e91 2641 3266 ea40 f2b4 3e40
000003e0: c9c1 b73d b171 3041 3b23 b2c0 786e 33be
000003f0: ce62 a5c0 dcb1 59bd bfba 9440 77ed ac3f
6.2633724 -3.7932622 -0.014182073 -5.3716235 -0.0121794185 -0.17307422 5.552485 10.503942
2.7105725 4.9863257 8.024327 2.441325 -3.9602895 -0.0059301984 -0.045630872 -1.2376367
3.1869187 6.5982003 -8.302421 -3.3724897 7.367827 -0.1683555 -1.5593443 3.430826
-0.14491236 2.750723 -0.053084075 9.56868 -6.0455585 10.66445 5.9808717 -0.15332443
-4.579222 -5.5819945 0.06688198 -0.07754891 2.0521965 0.9177767 0.08903569 6.406603
-7.0220714 0.0016033298 7.1478963 -0.11467763 -0.098156065 8.90715 -0.2547651 7.611533
11.051802 0.06281798 0.074477464 -0.098966986 -0.05662125 0.04136026 7.8241587 1.5379664
0.16246131 0.18565337 -0.034569185 6.1032376 -0.017228486 3.1316795 -4.697345 0.10486788
-4.6289606 3.6063788 8.787719 -0.13800392 7.5888 -0.15035084 -0.012833178 3.2319403
5.9504685 -0.20055993 0.074189216 0.056924213 11.352628 2.4510937 8.486677 0.015177981
7.518327 6.004298 0.9299902 -0.17996265 5.863945 0.46930856 -5.9092913 3.2201698
-0.18951559 -3.6600752 0.104654446 -0.13688983 9.662717 9.640647 4.9282656 0.10964661
0.1655738 3.4856634 0.17642964 7.4568086 4.2134085 9.249255 7.357523 9.645983
0.055199545 -0.14389223 4.8013716 11.35816 4.1491528 -0.14611082 0.07878689 0.20040217
1.8161268 8.045417 -0.03581824 -5.854702 0.13287514 9.70032 7.267016 2.8314085
-0.023936111 11.239077 -5.511953 -0.06030783 -4.9873157 -0.12839188 4.48018 1.4003041
6.4227076 -3.7854893 -0.07233362 -5.449614 -0.19935521 0.17032552 5.4957376 10.864136
2.7329426 4.9594026 8.010159 2.4915104 -3.7472982 0.14098412 0.17657399 -1.2984632
3.1520925 6.5709176 -8.813382 -3.4093568 7.8300266 -0.04304439 -1.501358 3.418621
-0.020891866 2.7127237 0.049516216 9.651422 -6.8521643 10.9732275 6.019943 0.15785217
-4.4262986 -5.688312 0.056220535 -0.1991713 2.0182986 0.93625903 0.20302525 6.3576193
-6.953318 -0.106991485 7.1345277 -0.0095202625 -0.09108499 8.865515 0.086814046 7.5192
10.788598 -0.11749147 -0.17811118 -0.114163674 0.07247979 -0.17582692 7.876772 1.4586371
-0.009374141 0.16832486 -0.19018276 6.0140395 0.0018771591 3.1109738 -4.71874 0.0034198114
-4.6344643 3.6143174 9.164545 -0.20011553 7.180402 0.14297265 0.08788639 3.3342423
5.8506446 0.038915094 -0.09359086 -0.20370407 11.643247 2.479941 8.3265705 -0.05399116
7.3073144 5.944167 1.0658541 -0.16832584 6.003922 0.22858344 -5.8898854 3.1129565
0.040792577 -3.446289 0.08784616 0.16543481 9.4535675 9.890735 4.73285 0.062057465
-0.066541746 3.493307 -0.08269598 7.155478 4.0922165 9.169944 7.110266 9.629392
-0.011050796 -0.075320095 4.8126616 11.358027 4.1822815 0.10071224 -0.12717465 -0.20955348
1.8029402 7.6541343 -0.0014646706 -6.080868 -0.14060101 10.410505 7.324975 2.979794
0.089725085 11.027757 -5.5668006 -0.17522609 -5.168311 -0.053148136 4.647796 1.3509969

layers.output.bias f4 [5]
00000000: 9d6c 09bd 7639 5e3f 8f02 873d 6bb7 a4bd
00000010: c5f4 3a3e
-0.033550847 0.8680643 0.06592285 -0.08042797 0.18257435
