results/models/2d_track/28_07_2023-18:37_model_good_e_r_100K_99.pt (torch_old, 218980 bytes, 4 tensors)

layers.hidden.weight f4 [128, 420]
00000000: 3164 a63d c217 c9bd 384f 163c cc04 b3bc
00000010: 2873 3a3c faec 6d3d 1068 5cbd b5ff a93d
00000020: 04c3 aabc 40b5 423c d08f 2f3c da55 2d3d
00000030: e083 55bc 26db 26bd 906e 683c 92f3 163d
00000040: 4aa4 0e3d 2b35 b6bd bc59 90bd 9465 fd3c
00000050: 0a75 073d 4c82 8cbd b667 5a3d f6cf 88bd
00000060: fe8c c5bd cbdc 903d 3b09 bc3d 18c3 1cbd
00000070: d140 b0bd 3087 e23b 58e0 203c 0038 323b
00000080: ecac cc3c cbb6 bf3d 5013 f73b 6459 afbd
00000090: e41a a63c af24 823d 947b 89bd fadd 393d
000000a0: 074a 37bd d198 ca3d b093 bcbd ff5a be3d
000000b0: 8cf7 85bc a8c9 6bbd 3cdc afbd 285a e6bc
000000c0: 7f4c 77bd da76 3a3d bac6 663d c385 b53d
000000d0: 5899 63bc fc66 dfbc 00f8 3db8 d46c b4bd
000000e0: e67a 7f3d 63e3 a23d 5626 5c3d 40f1 7d3c
000000f0: 2c45 a4bd 33e2 963d 8293 273d e8ce 0f3c
00000100: 04b3 be3c 0045 a93b 6dbb c93d 3093 613c
00000110: f26c 293d a8d6 35bd 2941 853d 0095 82b9
00000120: 1a35 00bd 3899 c6bd 2557 973d bcb6 94bd
00000130: 98b2 8ebd b374 60bd 023f ebbe 1164 84be
00000140: 6047 a83b 7c20 e4bc 9461 eb3c dcbc bebf
00000150: 7c19 543e 8861 303c b87e 483f 7b7f 8c3d
00000160: 5c4c bebf 7531 fb3e 4308 b83d cd5f 4abd
00000170: 5c29 07bd b4cd 8c3f b925 30be 10b3 923b
00000180: 931c 13bf 5cf6 09bd 47c3 153f 4833 923f
00000190: 336d 8c3d b80f c8bd e7c0 c23e edec 9d3f
000001a0: 1b9e 003f 60d4 b63b 956a 0abf a049 443b
000001b0: 2734 973f 70a9 ca3f 807c 053c d566 a9bd
000001c0: 5faa 8d3d 191d 6840 308d debe 3ff3 ab3d
000001d0: a061 033f 7069 f8bc d8be 9240 ec18 4bbe
000001e0: 38f4 4e3c f76d cebd 33b4 b0bd 5f07 4040
000001f0: 4343 54be 8ded 883d 6dba fbbd ad11 b23d
00000200: 9f13 193f cda1 06be 76cf 313d 612b afbd
00000210: 90f6 a33c d194 a83f 3f63 433b e410 bfbc
00000220: 41eb b43d 0cd0 38bd b86d a3bc c5f3 893d
00000230: aa02 4c3d 2a01 04bd 19f7 d13d 7cb0 f63c
00000240: 58d3 84bc 48bd 6b3c 8a52 9cbd 99fb 8cbd
00000250: b61f b3be 37db 65bd 1171 203f 9648 5fbd
00000260: 0009 9f3b b46e acbf bc46 00c0 606a 4d3c
00000270: 0e91 683d b4ed 4abd 47f7 90bf 9ebb 9e3e
00000280: 0ecc 013d 6fa9 2dbf 0cb6 c63c ba8e d33f
00000290: 7889 a33f 32cc 58bd b9a6 cebd b0bc cbbc
000002a0: 4d93 bebe 917a 6b3e 9156 5dbd 885e 7f3c
000002b0: 8f6e dd3e dac3 ca3e 6d3e d83d b419 a43c
000002c0: 8845 9bbd 343d b9bd a8e3 0740 5ad7 cabd
000002d0: 60db 22bc 0b12 ecbd 2c94 b23c 65a1 2640
000002e0: 7c7f d43e 6b6f 8c3d 394b 91bd ac1a b7bc
000002f0: 1ac0 8040 5a03 03bf 8c2f 1ebe 3223 5abd
00000300: 7b38 bf3d 601b f43f 6058 a13e 4077 7b3c
00000310: 2b6a 833d a0b3 683c 7a1a d33f e6f0 9f3c
00000320: 548c 9f3c 8140 9a3e 2cbc e83c 8a17 0cc0
00000330: a830 11c0 9e45 403d 73f9 ce3d d570 c4bd
00000340: 4e14 5a3d e9c3 d13d 9997 35bd 6ead 543d
00000350: 1a64 2f3d d103 34bd 84ef eb3c e706 b13d
00000360: 655f f63f 790f cc3d dd28 963f f0bf 91bf
00000370: 727b 303d 28f8 1fbd c03f 56bc f960 6b3f
00000380: 98bd 88be 9735 7b3e 2521 913d 6cdd dcbc
00000390: 8470 e83e b590 663f 340d ae3c da2c a8bd
000003a0: 57d3 8b3d 0775 3640 d043 95be d2ce c0bd
000003b0: edc1 3b3f ba3b 133d 183f a6be 235e 97bf
000003c0: a8fc 883c dedf 143d c6c0 3e3f cdc9 753d
000003d0: 0c48 a6be d07c a3bd 214f 0a3f 0a41 bfbd
000003e0: 0ed4 1abf 6457 183e be4b 783d 033b d03d
000003f0: 7446 a03c 35e6 ed3f 4d8c 8ebe 9a7a 95bd
0.08124579 -0.098189846 0.009174161 -0.021852873 0.011379994 0.058087327 -0.05381018 0.08300725
-0.020844944 0.011884034 0.01071544 0.042318203 -0.01303193 -0.04073634 0.014186516 0.03685338
0.034824647 -0.0889686 -0.070483655 0.030932225 0.0330706 -0.0686079 0.053321563 -0.066802904
-0.09646033 0.07073363 0.09181448 -0.038271993 -0.08606113 0.0069130883 0.009819113 0.0027194023
0.0249848 0.09361037 0.007540144 -0.08561972 0.020276494 0.06354653 -0.06713024 0.04537771
-0.044748332 0.09892429 -0.09207857 0.092947 -0.016353391 -0.05756536 -0.08586928 -0.028119162
-0.060375687 0.045523502 0.056341864 0.08863404 -0.0138915405 -0.027270786 -4.529208e-05 -0.0880982
0.062373064 0.07953527 0.053747497 0.015499413 -0.08021006 0.07367363 0.04091216 0.008777358
0.02327872 0.005165696 0.09850202 0.013768002 0.041363664 -0.044394165 0.06506569 -0.00024906546
-0.03130064 -0.09697193 0.073896684 -0.07261416 -0.06967658 -0.054798793 -0.4594651 -0.25857595
0.0051354617 -0.027847521 0.028733052 -1.4901385 0.20712847 0.010765441 0.7831836 0.068602525
-1.4867053 0.4906117 0.08985951 -0.04940777 -0.032998428 1.1000276 -0.1720189 0.0044769123
-0.57465476 -0.033682212 0.58501095 1.14219 0.068567656 -0.09768623 0.38037798 1.2337929
0.5024125 0.0055795163 -0.5406888 0.002995111 1.1812791 1.5832958 0.008147359 -0.08271567
0.06917261 3.626776 -0.43467093 0.08396005 0.5132084 -0.030323714 4.5857964 -0.19833726
0.0126314685 -0.10079568 -0.0862812 3.00045 -0.20728783 0.06685934 -0.12291417 0.08694778
0.59795564 -0.1314766 0.04341074 -0.08553196 0.020015031 1.3170415 0.0029813794 -0.023323484
0.088339336 -0.045120284 -0.019949779 0.067359485 0.04980723 -0.032227673 0.10252208 0.030113451
-0.016214058 0.01438839 -0.076329306 -0.06883926 -0.3498513 -0.056117263 0.62672526 -0.054512583
0.004853368 -1.3471284 -2.0043173 0.012537569 0.05677896 -0.049543098 -1.1325463 0.31002516
0.031688742 -0.6783666 0.024256729 1.6527932 1.2776327 -0.05292911 -0.100903936 -0.024870247
-0.37221757 0.22995974 -0.054037634 0.015586503 0.43248412 0.39602548 0.10558782 0.020031787
-0.075816214 -0.09044877 2.12327 -0.09904356 -0.009939998 -0.11526879 0.02179917 2.6036007
0.41503513 0.06857189 -0.07094426 -0.022351585 4.02345 -0.5117699 -0.15447825 -0.05325622
0.09336945 1.9070854 0.31512737 0.015348256 0.06416734 0.014202982 1.6492455 0.019524049
0.019476093 0.30127338 0.02841004 -2.1889367 -2.2685947 0.046941392 0.101061724 -0.095918335
0.05324202 0.10242445 -0.044334028 0.051923208 0.042820074 -0.043948952 0.028800733 0.08643895
1.9247862 0.09963889 1.173122 -1.13867 0.043086477 -0.03905502 -0.013076723 0.91944844
-0.2670715 0.24532162 0.070864 -0.02696105 0.45398343 0.90064555 0.02124653 -0.0821168
0.06827419 2.8508928 -0.291533 -0.09414448 0.7334278 0.03594563 -0.32470012 -1.1825603
0.016722038 0.03634631 0.745129 0.060006905 -0.32476842 -0.079827905 0.5402699 -0.09338577
-0.6047982 0.14877087 0.06061911 0.101675056 0.019564845 1.8585879 -0.27841416 -0.07298775

layers.hidden.bias f4 [128]
00000000: b300 bcbc be43 bfbe 99ff be3d 10bd acbe
00000010: 77d8 893e a2c7 3abc 35f2 c1be fcc9 48be
00000020: bc1a fbbb 314f 7ebe 3edf c5bd 67d5 40bb
00000030: 0ad7 233c 60a5 9fbe c209 68be 2c17 d4be
00000040: a438 62be 4589 76be 3f76 31bd 53af cd3d
00000050: 0ad7 233c 3512 84bb 1df9 20bb 141c df3c
00000060: cda3 cf3d ddb0 65bc 7a1c dd3e b9c7 6cbc
00000070: 4ea7 eebb 5610 6bbc 3403 b2bc 7c4c 0e3f
00000080: 3da6 46be b24f 813d dbf0 e9bb d01d 5dbc
00000090: d412 b2bc a001 113f 6635 b3be 92f1 c23c
000000a0: ff33 24bd 6e48 b1bc ce1e d9be ecb1 e2be
000000b0: 4f3e b2bc 46e9 1fbd 27b2 61be 2d44 89bd
000000c0: 4145 703d a261 88bd b998 013b 2770 77be
000000d0: 7bc0 e938 50b6 95bc 805c 8e3d 4a6a 0dbc
000000e0: c571 35bd 73b4 bf3e e929 29be 6da1 94be
000000f0: d6b9 cabe 9ca2 c5bb 5b86 f43e c074 dfbe
00000100: 3529 ed3d afd1 f9bc d919 6dbe 5733 6fbc
00000110: 8885 873d 4d26 42bd 9ca7 32bb 98dc fabc
00000120: 4ec8 0dbd c4b8 0dbd d2e5 80be c640 dbbd
00000130: 8434 cbbb 0aa6 00bd 9456 bc3e b849 89ba
00000140: bc20 0f3f f936 cabc 87bd 2aba 056c 1cbe
00000150: b23c b0bc deae c1bd 23e8 aabc 9b09 99bc
00000160: 66c4 59bc 2d62 04bd d3b0 32be 1be9 60be
00000170: 50ee 12bd 8311 a1be e562 02bd 5128 2dbe
00000180: 6c84 10bd 4c61 693e e3b5 e43e 51b8 d4be
00000190: 542c 1bbc eb61 d8bb c9f3 0cbb 1b7d debc
000001a0: 91ef 68be 901c 0fbd c2b0 b4bc f6a9 fabc
000001b0: 72f8 9bbc cf0e 06bc 4d83 30bc ddbc 063f
000001c0: 7d85 08ba a46d 4cbe 5d40 b2bc 7f1d d9bc
000001d0: 7766 6ebc 39c0 87bc 6932 95be 031c e7be
000001e0: 0954 a13e 1dc1 e4bd 44fd fabb 1f37 67bc
000001f0: 144a ebbb 0ad7 233c aea9 27be af1c 92be
-0.022949552 -0.3735637 0.09326095 -0.33737993 0.26922962 -0.011400135 -0.37880102 -0.19608301
-0.007663099 -0.24834897 -0.09661721 -0.0029424073 0.01 -0.3118086 -0.22659972 -0.4142393
-0.22091919 -0.24075802 -0.04332566 0.10043206 0.01 -0.0040304908 -0.0024562546 0.027235068
0.101386644 -0.014019218 0.43185788 -0.0144519145 -0.007283128 -0.0143471565 -0.021730043 0.55585456
-0.19399352 0.06314029 -0.007139308 -0.013495877 -0.021737494 0.56643105 -0.35001677 0.02379683
-0.04008865 -0.021640982 -0.42406315 -0.4427637 -0.021758227 -0.039040826 -0.22040616 -0.067024566
0.058659796 -0.06659247 0.0019774868 -0.24163876 0.00011146158 -0.01827541 0.06951237 -0.008631298
-0.044297952 0.3744236 -0.16519894 -0.29029408 -0.39594907 -0.0060313474 0.47758755 -0.4364376
0.11580125 -0.030495493 -0.23154391 -0.014599643 0.06617266 -0.047399808 -0.0027260548 -0.030622765
-0.034614854 -0.034600034 -0.2517534 -0.10705714 -0.0062013287 -0.031408347 0.36784804 -0.001047424
0.55909324 -0.024684416 -0.0006513227 -0.15275581 -0.021513317 -0.094571814 -0.020862645 -0.018681338
-0.013291454 -0.03232019 -0.17450266 -0.21963923 -0.035871804 -0.31458673 -0.031832594 -0.1690991
-0.035282537 0.22791022 0.4467002 -0.41546872 -0.009471018 -0.0066034696 -0.0021507612 -0.027159264
-0.22747637 -0.03493935 -0.022056941 -0.030598622 -0.019039366 -0.008182242 -0.010773492 0.5263193
-0.00052078796 -0.199637 -0.021759206 -0.026503323 -0.014550797 -0.016571151 -0.29140022 -0.4513856
0.31509426 -0.11169646 -0.007659586 -0.014112263 -0.0071804617 0.01 -0.16373321 -0.2853751

layers.output.weight f4 [5, 128]
00000000: f058 f23e afe6 2240 8340 aa3e f76b 1740
00000010: 36e1 c0bf 4ddc 21bd 9d48 2d40 3a65 6440
00000020: 6dcf 1e3e 775a c23f 3fb4 4a40 e1a6 f7bd
00000030: 30cd 05bc 2cbf 433f 84aa 83c0 24f0 0b40
00000040: d1cb 4240 296f 6440 eca6 213f 9a08 70c0
00000050: 03c8 ebbd 40a0 a13d 6868 db3c 5d45 1fc0
00000060: 6b4f 513f a5a1 f63d b7a6 9e3e 3376 253e
00000070: 949a 1ec0 b06e 703d 4f03 e9bd 181a c83e
00000080: 3255 6340 c8ff 423f f9d3 47be 4727 44be
00000090: 38f6 27bd 6307 1b3f 9c3f 4d40 752e 903f
000000a0: 49d6 8fbd a8d1 ed3d ec50 6e40 5888 7740
000000b0: 6321 3abe cda7 99bd 222d 8a40 6d56 a53f
000000c0: 84cb 7b3f 0e88 8e40 f0b3 09bc f6ec 20c0
000000d0: ae20 153e 825c cebd 1321 803e 3840 783d
000000e0: 9280 2c40 d920 ad3e 9bc2 f13f 7403 8440
000000f0: 125a 0740 9e72 26be 52ab 333f c6fd 4040
00000100: 558a bf3e ca04 333f 1d67 cabf c20f 563e
00000110: 2804 683f 84d7 933f 786d 353e 2cb8 29be
00000120: e412 9d3b 12f3 12be a9bb 883f 9e39 0e40
00000130: a649 953d d19c 8a3f 2a80 423f 1e8c 3cbe
00000140: ccb8 333f d24f f53d 2e74 edbd cc29 6140
00000150: 8bd8 f0bd 6f3e 9540 6c79 953f 053d 493e
00000160: 34fb 2abd eb12 03bc c040 8640 7c9e 8340
00000170: c69b 0abe 28a9 6040 f586 3fbe 5648 7c40
00000180: e0e9 f53d 8ea1 dcbf 3a66 c33e 2a73 0d40
00000190: b003 153e 2a1d abbd f93e 07be 3337 db3d
000001a0: 21f4 8140 f0be a73e fa3a 89bd e086 18bd
000001b0: 15e9 cfbf dc6e fcbd 0cea 31be f0d6 d23e
000001c0: 4691 e6bd f6e3 5540 6ce0 0b3d c780 0ebe
000001d0: 1a43 03be 907f 9f3d 4f8a 8240 0246 4e40
000001e0: 5144 173f 4521 7440 f070 443d 9ddc 2d3f
000001f0: 0ed8 afbd 7097 00bd 2248 92be 62d5 d33f
00000200: c9a5 fb3f d82f 0c40 aa8d 843c 8c0f 1f40
00000210: 5db8 2ec0 c756 203e e365 3b40 c287 7340
00000220: 3c4c 203e 6803 c63e 4e40 7840 ab4d 54bc
00000230: d452 1c3e e9a8 893f 174a 8cc0 5cf6 1740
00000240: 6878 5340 9a73 1440 e42f bd3f 7a8a 66c0
00000250: 4847 e13d c868 80bd 40cb 74bd 8047 13c0
00000260: 9bdd 113d 5e67 a23d bb28 273f 2831 b0bd
00000270: 41be 3ec0 59e4 39be 54d4 f33d 5207 003f
00000280: 2e3e 5440 4921 f13f 08ae 8e3d a35e 22bd
00000290: 92c2 393e 7364 1b3f f8af 5c40 ff6f 2740
000002a0: cf43 193e 7e77 35be 9910 1d40 69db 7540
000002b0: 9522 253e b2cd ba3d 091b 8c40 ac34 3f3f
000002c0: bdf8 efbc c617 6d40 86d4 20be 2025 1ac0
000002d0: a4ec 28be 0188 3c3e 6c03 d13e 7a9d 023e
000002e0: cfdd 4340 54f8 413f 977f cb3f 0297 3740
000002f0: a739 f53f cfc7 37be 13dd 353f 96ba 2d40
00000300: 69f8 0b3e b495 c93f 4f95 debf 9ba2 3cbe
00000310: aa64 753f 650c d23e 804d 673b 9952 b8bd
00000320: 5486 02bd 85d4 7dbd 05ec 893f 34ac b93f
00000330: f6b2 4cbe cf57 623f bd04 373f 8c90 d03d
00000340: b782 083f 665c 473e c94d a63d fc4c 5940
00000350: 8737 ca3b 9961 d440 a192 303f 1eee 41be
00000360: 5a21 12be c01e 1bbe 836a 7340 52d3 9640
00000370: e4a8 e0bd 5b45 8f40 bf15 3a3d 91c7 9240
00000380: 2b67 babd d598 15c0 6cb5 163e 442e 0040
00000390: fc29 05bd 9cf8 4dbe 1f80 483e 5641 103d
000003a0: dc41 7940 2f4f ee3f 8c0a 18be 585e 1fbe
000003b0: 5a10 e3bf 15f8 a53d 59f9 573e 7cf2 163f
000003c0: 1cf8 4f3d 60f3 7240 202e 8e3b 05a7 803c
000003d0: bccb b1bd bc4f 38be e11a c340 2917 4e40
000003e0: bf44 3a3f e1f2 8b40 96c1 c3bd 2a52 cf3f
000003f0: 3b46 5fbc 80f4 bd3b 22a5 c7bf 111e 9d3f
0.4733348 2.5453298 0.33252344 2.3659647 -1.5068729 -0.039516736 2.707557 3.5686784
0.15508814 1.5183858 3.1672513 -0.120923765 -0.008166596 0.7646358 -4.114565 2.186532
3.04369 3.5692847 0.6314533 -3.750525 -0.115127586 0.078918934 0.026783183 -2.4886086
0.8176181 0.1204255 0.30986568 0.1615837 -2.4781847 0.05869931 -0.11377584 0.39082408
3.552075 0.7617154 -0.19514455 -0.19155608 -0.041006297 0.60558146 3.2070074 1.1264178
-0.070232935 0.116122544 3.723689 3.8676968 -0.18176799 -0.075027086 4.3180094 1.2917
0.98357415 4.454108 -0.008404717 -2.514463 0.14563248 -0.10076238 0.25025234 0.06060812
2.6953473 0.33814123 1.8887514 4.1254215 2.1148725 -0.1625466 0.7018329 3.015489
0.37410226 0.6992918 -1.5812718 0.20904449 0.9063134 1.1550145 0.1771754 -0.16574162
0.0047935117 -0.14350536 1.0682269 2.2222667 0.07289438 1.0829107 0.7597681 -0.18412825
0.7020385 0.11978115 -0.11594425 3.518176 -0.11760052 4.6638713 1.167768 0.19652183
-0.041743472 -0.008000116 4.195404 4.113096 -0.13535985 3.5103245 -0.18703826 3.941915
0.12007499 -1.7236803 0.3816393 2.210154 0.14552188 -0.08355172 -0.13207616 0.10703888
4.061051 0.3276286 -0.06700702 -0.037238 -1.6243006 -0.12325832 -0.17374438 0.4117961
-0.112581775 3.3420386 0.034149572 -0.13916312 -0.12818566 0.077880025 4.0793834 3.223023
0.5908862 3.8145306 0.047959268 0.67914754 -0.08586131 -0.031394422 -0.28570658 1.6549494
1.9659969 2.1904202 0.016180832 2.485324 -2.7300026 0.15658103 2.9280937 3.805161
0.15654081 0.38674474 3.8789248 -0.012957971 0.15265971 1.0754672 -4.384044 2.3744116
3.304224 2.3195558 1.478024 -3.602202 0.10999924 -0.062699854 -0.059764147 -2.301239
0.03561173 0.07929872 0.65296525 -0.08603126 -2.9803622 -0.18153514 0.11905733 0.5001117
3.3162951 1.8838283 0.069667876 -0.039641034 0.18140629 0.6070015 3.4482403 2.6162107
0.14967273 -0.17721364 2.454138 3.8415167 0.16126473 0.091212645 4.3783 0.74689746
-0.029293412 3.704576 -0.15706071 -2.408516 -0.16496521 0.18411256 0.40822923 0.12755385
3.0604131 0.75769544 1.5898312 2.8685918 1.9158219 -0.17947315 0.7104046 2.7145133
0.1366898 1.5748811 -1.7389315 -0.18421404 0.95856726 0.4102508 0.0035293996 -0.09000129
-0.031866387 -0.061970253 1.0775152 1.4505677 -0.19990143 0.88415235 0.71491605 0.1018382
0.53324455 0.19468841 0.08120305 3.3953238 0.00617117 6.636914 0.6897374 -0.18938491
-0.14270535 -0.15148449 3.803376 4.713296 -0.10969713 4.4772162 0.045430895 4.586861
-0.09101709 -2.3374531 0.14717644 2.0028238 -0.032510743 -0.20114368 0.19580124 0.03521856
3.8946447 1.8617915 -0.14847773 -0.15563333 -1.7739365 0.081039585 0.21091212 0.5896375
0.050773725 3.7961044 0.0043389946 0.015704641 -0.086814374 -0.17999166 6.097031 3.2201636
0.7276115 4.3733983 -0.09558408 1.619695 -0.013627584 0.005796969 -1.559727 1.22748

layers.output.bias f4 [5]
00000000: 9dbb bd3e a693 aa3e c858 b93e 0630 963e
00000010: f050 0a3e
0.370572 0.33315772 0.36200547 0.29333514 0.13507438
