results/models/2d_track/28_07_2023-23:33_model_e_r_1M_7.pt (torch_old, 218980 bytes, 4 tensors)

layers.hidden.weight f4 [128, 420]
000000 42 de 67 3d 49 08 c5 3d 70 cf 37 bd 26 8a 04 bd
       0.056608446 0.09620721 -0.044875562 -0.03235831
000010 fc 01 d7 3c 74 10 8f bc a1 69 a3 3d ef 24 ae 3d
       0.026246063 -0.0174639 0.079791315 0.08503138
000020 3a 30 57 bd 69 95 cb 3d a6 f6 64 3d 21 d5 b7 bd
       -0.052536227 0.09940607 0.055899285 -0.08976198
000030 c0 e3 b3 bc c1 4b a2 3d 2d a8 97 3d 9b e8 c3 3d
       -0.021959186 0.07924605 0.07405124 0.0956585
000040 52 58 27 3d 43 bc ac 3d 80 b3 a6 bc 69 91 3f bd
       0.040855713 0.084343456 -0.020349264 -0.046769533
000050 dd c8 a8 3d df 42 4c bd 24 32 be bd 45 30 cb 3d
       0.08241437 -0.04986846 -0.09286907 0.09921316
000060 38 fb 0f 3c 33 fb a9 3d f1 6c b8 bd ec 2d 1e bd
       0.008787923 0.082998656 -0.09005154 -0.038618013
000070 a7 09 a7 3d 3d ba 5c bd 86 ac 43 3d bc 70 f8 3c
       0.08156138 -0.05388855 0.047771953 0.030327193
000080 10 38 be 3b cd f4 c9 3d 50 73 50 bc 58 eb 20 bd
       0.005805023 0.09861145 -0.012722805 -0.03928694
000090 08 77 50 bc ac 89 aa 3c c0 12 31 3c 11 12 9a 3d
       -0.012723692 0.0208176 0.010807693 0.07522977
0000a0 88 02 70 bc 40 d5 1f 3c 98 ee 8f bd eb 6c 89 3d
       -0.014649041 0.009755433 -0.0702793 0.067102276
0000b0 07 45 8e 3d 64 16 d5 bd 44 a8 00 bd fa ae a7 bd
       0.0694676 -0.10404661 -0.03141047 -0.08187671
0000c0 7d 54 9c 3d 97 a7 50 bd 5c e5 f3 bc f3 b5 cf 3d
       0.07633302 -0.050941076 -0.029772453 0.10142126
0000d0 c9 1f c7 3d e3 26 57 bd 3b ff 8f bd 2f 71 be 3d
       0.097228594 -0.05252732 -0.07031103 0.09298932
0000e0 17 1a bd 3d 8e f4 09 3d 90 1f 39 3c 08 17 7f bc
       0.09233492 0.03368049 0.011299029 -0.015569456
0000f0 9a f3 d5 bd e5 3f cc 3d 00 78 79 bb dd dc 71 bd
       -0.10446854 0.099731244 -0.003806591 -0.059048522
000100 24 aa ef 3c 10 b0 f8 bb 98 e9 c9 bd 50 ef 22 bd
       0.029255934 -0.0075893477 -0.098590076 -0.039779007
000110 99 3d c2 3d d4 11 96 bd b2 9a 1f 3d d7 8c a7 bd
       0.09484405 -0.07327619 0.03896589 -0.0818116
000120 ad 34 b9 bd 90 f2 68 bc b3 6f c4 3d c5 21 83 3d
       -0.0904325 -0.014217988 0.095916174 0.064029254
000130 49 ae 8d bd c5 55 b2 3d 1c ce a7 be f1 76 c8 bf
       -0.06918008 0.087077655 -0.32774436 -1.5661298
000140 de 3b 1e 3d 80 96 b8 3b 2d 89 8f 3d f9 95 f9 3c
       0.038631313 0.0056331754 0.07008586 0.03046702
000150 df b5 82 bf a2 05 22 bd 00 c5 03 40 42 bc cc bd
       -1.0211753 -0.039556153 2.058899 -0.09996845
000160 ac fc a0 bf cc 13 b6 3f 85 a4 92 bd f1 e8 93 3d
       -1.2577109 1.4224792 -0.07160286 0.072221644
000170 5a 2c 30 3d 3b 0f 0e 40 74 a4 27 bf 9c 8d cb bd
       0.043011047 2.2196796 -0.6548531 -0.09939119
000180 ba bb 73 3f 80 8e 6d bd aa ac 59 3e 4d 79 81 be
       0.95208323 -0.057997227 0.21257272 -0.25287858
000190 76 30 0e 3d 6f e8 9c 3d 87 f4 4a 40 3b 75 24 c0
       0.034714185 0.07661521 3.1711748 -2.5696552
0001a0 39 a9 f5 3e ee ab 19 3d 35 38 9d 3f 17 f4 ac bd
       0.4798067 0.03751748 1.2282778 -0.08444994
0001b0 9e 2a cd bf 5b f9 e1 3f f5 df a9 bd ea 0e 10 3d
       -1.6028631 1.7654222 -0.082946695 0.035170473
0001c0 10 16 df bb 4b f6 77 c0 3a c0 83 bf 0e 00 09 bd
       -0.00680805 -3.8744075 -1.0293038 -0.033447318
0001d0 63 a3 98 be e1 ec c3 3d 09 ac 4e 3f 15 0e b5 be
       -0.29812154 0.095666654 0.80731255 -0.35362306
0001e0 fb f6 b2 3d 5b eb 78 bd 87 21 86 bd 8e a7 15 40
       0.08738514 -0.060771327 -0.065493636 2.3383517
0001f0 dc fe 90 bf 4b 9b 93 bd b8 d2 0e be c0 c5 3e bc
       -1.1327777 -0.07207354 -0.1394757 -0.011643827
000200 5c f6 00 40 f5 ed 2b be 86 89 5c 3d 3f 03 98 3d
       2.0150366 -0.16789992 0.05384209 0.07422494
000210 49 ca 93 3d 12 5a ae 3f 6d 86 72 be 8c 5c b1 bd
       0.07216317 1.3621237 -0.23684092 -0.0866023
000220 5a e1 64 3d 0d 2a a4 3d 55 b0 b2 3d 2f 99 b0 bd
       0.055878974 0.08015833 0.08725039 -0.086229675
000230 74 d5 fb bc 11 21 aa bd cc fc 8f 3c e9 b7 ad 3d
       -0.03074143 -0.08307088 0.017576598 0.08482344
000240 32 c7 1d 3d 68 8d 3a bd ff 50 b5 bd 42 aa 95 bd
       0.038520046 -0.04554501 -0.088533394 -0.07307865
000250 24 7a 38 c0 11 5c e0 bf d3 a3 a2 3e 4b e9 84 3d
       -2.8824549 -1.7528096 0.31765613 0.064898096
000260 ef ec 5a bd ce 2e 8c 3f 15 49 c9 3f 52 ec 75 3d
       -0.053448614 1.0951784 1.5725428 0.060039826
000270 73 22 7b bd 92 d2 5f 3d 60 f1 13 c0 88 cb 6d bf
       -0.06131215 0.054644175 -2.3116074 -0.9288869
000280 83 7d 78 bd 99 29 aa 3d f0 97 b5 bd 46 91 32 40
       -0.060666572 0.083087154 -0.088668704 2.7901168
000290 a0 19 f7 3f be 88 b1 bd 71 a5 93 bd 6c 6c 8f 3c
       1.9304695 -0.086686596 -0.0720929 0.017507754
0002a0 66 51 cf 3f 86 e5 27 be ec 76 31 bd 7a f2 08 3d
       1.6196716 -0.1639615 -0.043326303 0.03343437
0002b0 d6 39 19 40 19 e4 ab be 0e 85 65 3d e3 41 c3 3d
       2.394155 -0.33572462 0.056035094 0.09534051
0002c0 55 a0 be 3d 6e 68 10 3d a5 9f 9d c0 ef 82 9c bf
       0.09307925 0.035255842 -4.925738 -1.2227458
0002d0 51 04 3b bd 61 70 80 be 48 84 12 bd 56 ea b3 bf
       -0.045658413 -0.25085738 -0.035770684 -1.4055889
0002e0 7e a3 95 3f e4 b6 f6 3c b8 07 28 bc 14 75 82 3c
       1.1690519 0.030116506 -0.010255747 0.015924968
0002f0 7e 5a 33 c0 a7 27 95 bf 63 cd c1 3e 95 ac ba bd
       -2.8023982 -1.1652726 0.3785201 -0.09114949
000300 96 51 cc bd 79 4b e7 3e dc b9 a8 be 80 9f 46 ba
       -0.09976499 0.4517477 -0.329543 -0.0007576868
000310 bc 50 d9 bc 0f 24 96 3d 02 f0 3f 40 51 2c fa bf
       -0.026527755 0.073310964 2.999024 -1.9544774
000320 93 23 bb 3d b3 29 e5 3d 09 4c c8 3d 06 fb 4e 3e
       0.091376446 0.11189594 0.097801276 0.20212945
000330 a1 0c 44 3f 8d c3 9c 3d 43 31 b9 3d 68 5c a7 bc
       0.7658177 0.07654486 0.09042599 -0.020429805
000340 59 d1 8a bd b0 32 d5 3b de 65 8f bd f2 bd 42 3d
       -0.06778211 0.0065062866 -0.070018515 0.047544427
000350 8f 72 a7 3d 00 62 1e b9 64 12 97 bc 82 2e 45 3d
       0.08176147 -0.00015104562 -0.018441387 0.048140056
000360 1a cf c8 3f 90 72 c9 bd 37 68 c9 3f f3 d9 a7 3f
       1.5688202 -0.09836304 1.5734929 1.3113388
000370 4a 72 17 3d 11 2d 97 3d 66 56 78 3d ab 1b 34 bf
       0.03697423 0.073816426 0.06062927 -0.7035472
000380 f6 aa 0e c0 f8 29 4c 40 fe 82 a8 bd a8 35 89 bd
       -2.2291846 3.1900616 -0.0822811 -0.06699687
000390 e4 29 40 40 b9 fb a4 c0 f3 39 a9 3d 87 f6 44 bd
       3.0025568 -5.155728 0.08263006 -0.04808667
0003a0 b1 64 8f 3d 34 b8 cc 40 99 c4 6b c0 74 25 b5 3c
       0.07001627 6.3974857 -3.6838744 0.022112586
0003b0 06 88 87 bf 23 b7 98 bd 0e c3 8d 40 67 b9 06 40
       -1.0588386 -0.074568056 4.4300604 2.105066
0003c0 00 9c 9a b9 60 4c 91 3c 4e c5 a5 3f 3e 95 ca 40
       -0.00029489398 0.017736614 1.2950838 6.330718
0003d0 19 27 d9 bf d0 9c 19 bd a2 95 f3 3d da b1 0c 3d
       -1.6965057 -0.037503064 0.118937746 0.0343493
0003e0 a5 88 e4 40 ef 9a 95 3f 30 b9 f4 bc 1e 7d 00 bd
       7.1416802 1.1687907 -0.02987346 -0.03136932
0003f0 20 26 9e bd e9 da d2 bf f9 d8 b9 bf 19 56 5d bd
       -0.077221155 -1.6473056 -1.451934 -0.054037187

layers.hidden.bias f4 [128]
000000 3b 76 c1 bf 13 2a f0 be 2a 19 e3 bc cb 68 3e bc
       -1.5114206 -0.469071 -0.02772196 -0.011621664
000010 97 45 59 bf fe 3f bc be c7 84 b3 bb ad e0 46 bf
       -0.8487181 -0.36767572 -0.005478475 -0.7768658
000020 c4 ae ea be 6d ca 8a be d4 ed df be 70 6c 7c 3e
       -0.4583646 -0.27107564 -0.43736136 0.2465074
000030 f9 33 b8 be 23 a4 ad 3b 9a 8c 74 bd 65 48 bb bd
       -0.35977152 0.0052991076 -0.0597044 -0.091446675
000040 3c dd 8f bc f4 86 85 bc 60 06 45 be 3b 41 3f bd
       -0.017561547 -0.016299702 -0.19240713 -0.046693068
000050 f1 f8 c2 be a1 b7 19 bc b5 1b f3 be 9f ca b9 be
       -0.38080552 -0.009382159 -0.47482076 -0.362874
000060 ac 38 82 be 62 63 00 bd 5e 58 9c be 8e 5d c7 be
       -0.25433862 -0.03134478 -0.3053617 -0.38938564
000070 45 9c 09 bf a7 54 fd be aa f4 f9 be 4e be 09 3f
       -0.53754073 -0.49478647 -0.48819476 0.53806007
000080 7e a2 1c bf f6 80 e7 bc 07 3a a8 be 4f 38 de bd
       -0.61185443 -0.028259736 -0.3285677 -0.10850584
000090 85 46 ae be 04 1f d0 be 9e d7 bd bc f5 0b bc be
       -0.34038177 -0.40648663 -0.023174103 -0.36727872
0000a0 89 10 88 be 99 ae 07 bd ed 2c 69 bc 00 9e bb be
       -0.26575115 -0.033125494 -0.014231903 -0.36643982
0000b0 e7 48 1c bf b6 b9 15 bf 46 9e db 3e 71 46 4d bc
       -0.6104874 -0.584865 0.4289419 -0.012529002
0000c0 89 57 d5 be ea 28 fb 3d 4b f5 ff 39 c1 48 fb be
       -0.41668347 0.12263663 0.00048820148 -0.49078944
0000d0 28 c3 da 3e 54 8a ac bc 24 1a ab be 40 85 4b bf
       0.42727017 -0.021062054 -0.3341838 -0.795002
0000e0 8a 92 f7 be 00 8b 92 bb 15 bc 82 be 67 ee 19 bf
       -0.48353988 -0.0044721365 -0.2553412 -0.601294
0000f0 ba 6c e8 be 73 1e a7 be 86 ef f9 bc 83 1c 0b bf
       -0.45395452 -0.32640418 -0.030509721 -0.5434038
000100 05 28 f6 bc b7 07 3d bf 70 0d 83 be 8d 47 03 b8
       -0.03004838 -0.73839897 -0.2559619 -3.129947e-05
000110 0a d7 23 3c 4d 26 39 bd ea 8f 9a be 3d be 99 bc
       0.01 -0.045202542 -0.30187923 -0.01876747
000120 c7 93 ce be 9a dc eb bd 29 ad 28 bf dd 28 1b bd
       -0.4034712 -0.11516686 -0.6588922 -0.037880767
000130 f0 b7 dc bc 59 1e 11 bf fe 45 18 bf 70 e0 d2 be
       -0.026943177 -0.5668693 -0.594818 -0.41186857
000140 c0 b8 40 bf 2d 34 11 bf 20 94 10 bf 1a 8a a4 be
       -0.75281906 -0.5672024 -0.5647602 -0.32136613
000150 d3 7e 96 bf 51 6c 2a bf 25 f8 00 bf f6 7e 20 bd
       -1.1757454 -0.6657153 -0.5037864 -0.03918358
000160 9d 34 5c be 0b 54 66 bf 58 b0 ef bd c0 00 f3 bb
       -0.21504445 -0.8997199 -0.11703557 -0.007415861
000170 ab 3b 25 bf 89 95 f8 bb 4d 84 22 3f 4c 03 7e bc
       -0.6454417 -0.0075861854 0.63483125 -0.015503716
000180 13 41 ae be bc f7 88 3a ce a4 67 bf a1 db b6 be
       -0.34034023 0.0010449807 -0.90485847 -0.3571444
000190 75 bc 53 bf e1 a3 22 bd 67 18 a0 be a0 22 11 bf
       -0.8270944 -0.03970707 -0.31268618 -0.5669346
0001a0 52 79 12 bf 3b bd 23 bf 98 d7 e3 bc 65 28 7e bf
       -0.5721637 -0.6396062 -0.027812764 -0.9928039
0001b0 0d 7f bc be b6 2e 3a bf 84 f2 f5 bb 04 79 11 bd
       -0.36815682 -0.72727525 -0.0075057168 -0.0355158
0001c0 ad a3 23 be fa 33 80 bc 90 cd 21 bc ad e1 5b be
       -0.15980406 -0.015649784 -0.00987567 -0.21472807
0001d0 08 c4 c1 be e5 e2 ed bc cc 08 9d be ba 63 97 be
       -0.37844872 -0.029038856 -0.30670774 -0.29568273
0001e0 0a c6 53 bf 73 c7 78 bf 57 ac dc be 24 36 b0 be
       -0.8272406 -0.97179335 -0.43100235 -0.34416306
0001f0 66 b8 e2 be 27 f8 b6 be 6c 1e b6 be 3e 45 db 3c
       -0.4428131 -0.357362 -0.35570085 0.026766416

layers.output.weight f4 [5, 128]
000000 36 0c 14 c1 0c 85 1e 40 91 59 cc bd 33 53 a8 bc
       -9.252981 2.4768705 -0.09978021 -0.020547485
000010 8e e6 85 c0 e2 97 f3 40 f0 7d 41 be 15 5f f7 c0
       -4.184394 7.6122904 -0.18895698 -7.7303567
000020 49 37 0d 40 7e 1e b0 40 72 81 a3 40 d3 da 33 40
       2.2064993 5.503722 5.1095514 2.810231
000030 b3 5d 3d 40 ca fc ac bd 8b f7 4b c0 d4 40 5e c0
       2.958844 -0.08446653 -3.1869838 -3.4727068
000040 0a 9a b8 bc ac bd dc bd 93 6d 31 40 f2 62 ea 39
       -0.022534389 -0.107783645 2.7723129 0.00044705678
000050 eb d9 91 c0 2c 82 4b be 03 2d bc 40 ab c3 df 40
       -4.5578513 -0.19873875 5.8804946 6.9926353
000060 54 55 24 40 62 b7 27 be b1 a9 97 40 3f 70 72 40
       2.567708 -0.16378549 4.7394643 3.788101
000070 95 dc d9 c0 e5 7a ba c0 16 db 80 40 10 f6 c9 3f
       -6.8081765 -5.827502 4.026744 1.5778217
000080 f1 85 2a 41 c9 98 66 bd 6e 07 9d 40 bf bb a3 40
       10.657701 -0.05629805 4.907157 5.116668
000090 3b 44 ad 40 97 cc e3 40 3b ea 67 bd db f6 7f 40
       5.414579 7.1187243 -0.056619864 3.9994419
0000a0 7d 37 94 40 51 4f 0f 3e fa 97 00 bd 8c d6 a2 c0
       4.6317735 0.139951 -0.031394936 -5.08869
0000b0 4a bb a6 40 d3 1e c9 40 92 4d 78 3f b6 25 19 3e
       5.2103624 6.2850127 0.9699336 0.14955792
0000c0 8d 67 b4 40 6b 67 20 40 67 0e 62 bc de c6 c9 40
       5.6376405 2.5063121 -0.013797379 6.305526
0000d0 6b 5b a7 3f 70 b7 a9 3d d3 17 93 40 30 09 cc c0
       1.3074774 0.08286941 4.596658 -6.3761215
0000e0 e9 41 b8 40 d3 9d 0e 3e f9 16 61 c0 ef 37 8e c0
       5.7580457 0.13927393 -3.5170271 -4.444328
0000f0 b4 75 91 c0 bf eb 47 40 87 8c 72 bd b4 aa b7 c0
       -4.545618 3.1237638 -0.05921605 -5.739588
000100 8c ec 01 bd 07 4a f4 c0 29 a0 6e 40 7e 3f b4 bd
       -0.03171973 -7.6340365 3.7285254 -0.08801173
000110 4c f8 41 be b9 23 7c 3b 4e b9 a7 40 45 3d 63 3e
       -0.18942374 0.003847344 5.24137 0.22191341
000120 81 db 08 41 82 98 ad 40 b0 11 b4 c0 2c 84 34 3e
       8.55359 5.4248667 -5.627159 0.17628545
000130 30 98 a9 3d 6b 1d 95 40 c3 15 71 40 75 e8 62 c0
       0.082809806 4.659841 3.7669532 -3.545438
000140 7c 83 45 c0 da 92 d9 40 25 ec d1 40 ca 8f a5 40
       -3.0861502 6.799176 6.560076 5.1738024
000150 0f 87 90 c0 cf 7f b4 c0 a6 b3 a3 c0 62 6b 1a be
       -4.5164866 -5.6406016 -5.1156797 -0.15080026
000160 77 87 47 40 ef fb f7 c0 d1 4c 79 c0 df c4 2c be
       3.117643 -7.7495036 -3.8953135 -0.16871975
000170 4a b8 ef 40 78 05 cb 3d 2b 87 4f 40 c0 9f d3 3c
       7.491246 0.099131525 3.242625 0.02583301
000180 80 84 b5 40 5b 23 80 3c b5 a7 23 41 af ae 50 c0
       5.6724243 0.015641859 10.228444 -3.2606618
000190 55 8e a3 c0 03 f7 20 3e d6 0f 69 40 84 a4 a1 c0
       -5.1111245 0.15719227 3.6415915 -5.0513325
0001a0 a7 36 0b 41 02 b0 96 c0 5f ae b7 bd a8 ef 04 c1
       8.700843 -4.7089853 -0.089688055 -8.30851
0001b0 ac fc 77 c0 90 2b fc c0 4e 2c 7f bd a3 c6 27 bd
       -3.8747969 -7.8803177 -0.06229811 -0.04096092
0001c0 b8 38 a6 3f bd 55 f5 3d 93 b0 35 3e 9f a4 cf 40
       1.2986059 0.11979244 0.17743139 6.4888453
0001d0 27 3a 5e c0 15 99 df bd 4b ac c3 3f b0 e8 61 40
       -3.4722993 -0.1091787 1.5286955 3.529827
0001e0 d8 f9 e0 c0 8c 1d 8d c0 06 2c a5 40 d6 bb 87 40
       -7.0304985 -4.409857 5.161624 4.241679
0001f0 bc be d2 40 09 6f 6b 40 06 46 53 40 ba 65 84 c0
       6.585783 3.678652 3.301149 -4.137418
000200 aa 41 17 c1 ff f7 20 40 c0 69 30 3d e5 31 7b 3d
       -9.453531 2.5151365 0.0430696 0.06132688
000210 ef 47 b1 c0 bd eb d8 40 24 90 dc 3d 08 d0 f7 c0
       -5.540031 6.7787766 0.1076968 -7.7441444
000220 35 7d 07 40 16 d8 ac 40 bd 34 ad 40 71 b7 63 40
       2.117017 5.4013777 5.412688 3.5580714
000230 97 e2 45 40 85 a1 af 3c 46 03 76 c0 2c 0d 83 c0
       3.091955 0.021439323 -3.8439498 -4.095358
000240 25 6a eb bc da fb 78 bd 04 a0 25 40 6b 63 01 3e
       -0.028737137 -0.06078706 2.5878916 0.12635581
000250 d8 3c 8d c0 af 5a 3a be 5a 05 b6 40 40 9c ef 40
       -4.413677 -0.18198656 5.6881533 7.4878235
000260 f7 d4 1d 40 14 b0 a1 3c 3e 34 9c 40 2c 45 6c 40
       2.4661233 0.01973728 4.881377 3.691722
000270 d4 38 d1 c0 b2 3a b5 c0 fc 60 96 40 f5 f9 0b 40
       -6.538187 -5.663415 4.699339 2.1871312
000280 3d ad 2b 41 a7 1e 1c be 18 d3 9e 40 1c 2f b6 40
       10.7297945 -0.15246068 4.9632683 5.6932507
000290 b0 cc b2 40 42 c6 f4 40 c7 e2 f2 bd 3e 96 92 40
       5.5874863 7.6492014 -0.118596606 4.58084
0002a0 83 1b b7 40 2e da d2 bd 7e 88 1a 3e 7f 68 a6 c0
       5.7221084 -0.10295521 0.1509113 -5.200256
0002b0 90 d2 aa 40 d9 0c c3 40 1b 52 8e 3f e7 53 bf bd
       5.3382034 6.0953183 1.1118807 -0.09342175
0002c0 83 6c b0 40 63 e7 37 40 90 28 3d 3c fb b5 c8 40
       5.513246 2.8734977 0.011545315 6.2722144
0002d0 8f ff c2 3f fd 70 1f be fa f5 8f 40 d1 8c d2 c0
       1.523424 -0.15570445 4.4987764 -6.5796895
0002e0 81 fa b3 40 49 e6 1a 3d 0e 9e 8d c0 60 3e 94 c0
       5.624329 0.037817273 -4.425544 -4.632614
0002f0 e7 2b af c0 99 a6 4d 40 dd 3a 13 be e7 13 c2 c0
       -5.474109 3.2132933 -0.14377923 -6.0649295
000300 16 59 8b bd fa 53 e6 c0 63 0f 79 40 68 79 ae 3c
       -0.06804101 -7.197751 3.8915641 0.021298125
000310 9e db aa bd 65 31 a7 3c 2e e0 ac 40 e8 ff fc bd
       -0.0834267 0.020409295 5.4023657 -0.12353498
000320 8f 56 0b 41 3f c9 d1 40 96 78 b4 c0 9a 91 32 bd
       8.708632 6.555816 -5.63972 -0.043595888
000330 b4 cb 2f 3e 34 7e 95 40 28 ec 88 40 0f da 7f c0
       0.1716755 4.6716557 4.2788277 -3.9976842
000340 74 7b 5c c0 1a 87 f1 40 65 f1 d2 40 85 20 ad 40
       -3.445035 7.547742 6.591967 5.4102197
000350 cb 3f a9 c0 e8 8d af c0 75 d8 9f c0 50 5e 2b bc
       -5.289037 -5.4860725 -4.995173 -0.010459498
000360 f6 a5 45 40 0e e7 e5 c0 27 f6 9b c0 af 53 47 be
       3.0882545 -7.184455 -4.873798 -0.19465517
000370 26 50 ef 40 89 4d 92 3d ab e6 6e 40 34 eb 14 bd
       7.4785337 0.07143695 3.7328289 -0.03635712
000380 e8 2a ba 40 0e 4e 9c bd fb ca 20 41 5b 15 51 c0
       5.8177376 -0.07632075 10.049556 -3.2669284
000390 ac 97 a1 c0 8e 68 9d 3d a4 6e 63 40 d6 9b a4 c0
       -5.0497646 0.07685958 3.553628 -5.144023
0003a0 60 57 0c 41 cc a5 c1 c0 27 95 92 bd d4 7c 19 c1
       8.771332 -6.051489 -0.07157355 -9.592976
0003b0 58 5e 76 c0 f7 81 f8 c0 c4 97 87 3d 77 ce 03 3d
       -3.8495083 -7.765865 0.06620744 0.032179322
0003c0 cc 10 b3 3f cc 67 a6 3d f0 48 1a bc f3 5f cf 40
       1.3989501 0.081252664 -0.009416804 6.4804626
0003d0 0b 3e 68 c0 d7 7c b2 bc 2b 74 c7 3f 90 be 60 40
       -3.6287868 -0.021788044 1.5582327 3.511631
0003e0 40 d1 d2 c0 b3 40 aa c0 cc 28 a0 40 fe e5 90 40
       -6.588043 -5.320398 5.00498 4.528075
0003f0 b6 d5 cb 40 1e c5 71 40 15 70 60 40 41 81 aa c0
       6.3698378 3.777656 3.506841 -5.328278

layers.output.bias f4 [5]
000000 14 ea 8b 3f 4f 3a 5d 3f 43 cf b5 3e 48 fe 84 3e
       1.093081 0.86417097 0.3550969 0.2597525
000010 87 ca 31 3f
       0.6944966
