results/models/2d_track/28_07_2023-21:02_modell_100K_7_e_r.pt (torch_old, 218980 bytes, 4 tensors)

layers.hidden.weight f4 [128, 420]
00000000: e0f2 4bbc dc50 cd3c 4e97 2e3d 42be aabd
00000010: 2d33 b2bd 5e93 0abd 4f44 9f3d fb72 9a3d
00000020: d287 8cbd 83f7 bbbd 9c9e ac3c e483 0cbd
00000030: bec4 c2bd a036 a8bd de6b 523d c0aa 883b
00000040: 4aa3 5f3d 2c39 af3c a6d6 283d d0f8 2cbc
00000050: 40ec e8bc 782c 28bc 284d d2bc c8ad 4fbd
00000060: 711f a53d 701e c2bd 43a8 bcbd 3183 813d
00000070: 0a53 013d b2ae 0d3d 1000 a3bc 802a 033a
00000080: 1c7f a4bd 0673 143d 3268 84bd 6634 293d
00000090: 5003 33bc ba9a 413d a8ed 23bc ae77 2fbd
000000a0: f19e d03d de43 93bd 85a7 ae3d 847a b33c
000000b0: 4c3f b43c e895 00bc 72ae 9abd aec8 203d
000000c0: 900b b83b 38db 15bc affd cebd b71c b13d
000000d0: 84bd 60bd 45e6 a93d b0e1 9f3b 7086 ac3b
000000e0: 1710 d1bd e3ed b63d 0574 bfbd f051 74bc
000000f0: af53 893d 9c2e cabd a2af 643d f8e0 02bc
00000100: e25d 293d d60b c0bd a426 90bd d14d d0bd
00000110: 5b9a a83d 9fb3 c43d 6e3d 3e3d 500a 5bbc
00000120: 3241 033d f082 91bd ea90 04bd e2da 5d3d
00000130: 2bc9 973d 28bc b3bd 53aa 63bd 7c75 f5bd
00000140: 6005 8b3c 5a28 7c3d ec99 e8bc 7547 9f3d
00000150: df66 d4bd 0066 17bd 7902 a9bc 5160 9fbd
00000160: 27b4 aabd 2077 e9bd 84e5 983c 3873 4c3c
00000170: e482 c4bc 044d 453c b627 4d3d 2be9 85bd
00000180: 5ec7 64bd 72b5 3abd dfc4 c7bb 78d1 45bd
00000190: e0ae 6d3b 6e83 41bd 9a76 c2bd 187f e939
000001a0: 0315 da3c 48c3 273c 31db 4b3d d6ed a0bd
000001b0: d062 b13b 6e4d da3a 007a 0f3a 8458 81bc
000001c0: b346 813d 5c25 c83c 9fe8 efbd c9cd 833d
000001d0: 40b7 59bd 4016 17bb ced6 1abd 46ca dd3d
000001e0: a246 733d fa28 073d b473 c83c 90cc 9d3d
000001f0: 4bc7 c6bc 7d73 b93d a757 983c fa36 393d
00000200: 3730 833c 1177 c6bd 18e6 053c 92b9 90bd
00000210: bd9f 903d 02af 3d3d 4f01 b9bd 97f7 b33d
00000220: 233f d43d c55e d03d 822c 523d 20ed 8b3b
00000230: af7a 6bbd 6e5e 64bd 2cdc a33c 5f93 bc3d
00000240: 7c88 bcbd 62c7 673d f05a e5bc 0957 98bd
00000250: 9734 433c 3140 8ebd 449f 6b3b 5faf 853d
00000260: 9e80 113d 0a2f b53d 3469 f83c 45fb bc3d
00000270: ac67 ad3c 228e 08bd 2b4e 933d a8e7 ca3c
00000280: 4651 5fbd c729 3b3d 9c25 a1bd 5877 2fbd
00000290: 9612 43bd f691 183d 48bd 503c 248e dd3c
000002a0: 96b3 383d 2993 a13d c07e 8c3c f301 b33d
000002b0: 454b ef3c c542 9e3b 15ee 07be bcb5 e93c
000002c0: 284a 88bd d625 66bd 7473 d4bd 2faa f7bd
000002d0: 8838 2cbc 2294 f93c edbb 903d 44e1 39bd
000002e0: fa00 913d 47ce c2bd 94a7 d83c d820 d1bc
000002f0: 3f58 903d f32c a23d 8377 81bd 751d 963d
00000300: 4ce2 e83c e7cd adbd d7fa cdbc a1a9 cfbd
00000310: 424b afbd 008c 1bbd 8d6d b1bd b8b8 21bd
00000320: bfce 5abd a26e 15bd 90c2 d6bb d941 8b3d
00000330: 8066 2eba 46b1 493d 679b a83d f14e b23d
00000340: 4038 9f3c 306c d4bb 8019 55ba 1a33 12bd
00000350: 8603 b4bd 5e90 1fbd b02c 0c3c 00da 16ba
00000360: de04 9a3d b2d3 38bd b818 133a 7e37 cbbd
00000370: f1fa b33d 8b9f a7bd b4dc 09bd 4017 78bc
00000380: bb05 70bd ff22 9dbd b6ed a3bd 8243 84bd
00000390: 57de 90bd 07b0 9bbc 48e5 c2bc e24f 443d
000003a0: defb 563d 0a31 9fbc 3f6e a63d d1b9 973d
000003b0: 354c b33d e542 9abd e45a 773d ab9f debc
000003c0: 6ebb 733d f269 1d3d 48cf 68bd 14e7 f8bc
000003d0: 33d1 6ebd 0e85 0b3d b1d0 d6bd 60e8 01bb
000003e0: 76df 81bd fa90 dd3c ca00 793d c0f4 bb3a
000003f0: b412 e9bc e023 0cbe b655 bb3d c631 0a3d
-0.012448043 0.02506297 0.042624764 -0.0833707 -0.08701167 -0.033831947 0.07776701 0.07541462
-0.06861843 -0.091780685 0.021071725 -0.03430547 -0.09510182 -0.08213544 0.0513724 0.0041707456
0.054599084 0.021389566 0.04122033 -0.010557368 -0.028432965 -0.010264508 -0.025671557 -0.05070284
0.080626376 -0.09478462 -0.09211781 0.06323851 0.031573333 0.03459043 -0.01989749 0.00050035864
-0.08032057 0.036242507 -0.06465186 0.041309737 -0.010926083 0.0472667 -0.010005392 -0.042838745
0.10186566 -0.07190679 0.085280456 0.021909006 0.022002839 -0.00784824 -0.07552804 0.039253883
0.0056166127 -0.009146504 -0.1010698 0.08648055 -0.054868236 0.082958736 0.004879199 0.0052650496
-0.10208147 0.08932092 -0.09348301 -0.014912114 0.067054145 -0.09872171 0.05583156 -0.007988207
0.0413493 -0.093772575 -0.0703862 -0.10171092 0.08232566 0.096045725 0.046445303 -0.013369158
0.032044597 -0.071050525 -0.032364763 0.05416382 0.074114166 -0.08776122 -0.055582356 -0.11985299
0.016970336 0.06156192 -0.028393708 0.07777301 -0.103711836 -0.03696251 -0.020631062 -0.07782043
-0.083351426 -0.113996744 0.01866413 0.012478642 -0.023988195 0.012042288 0.0500867 -0.06538614
-0.055854194 -0.045583196 -0.006096467 -0.048295468 0.0036267564 -0.04724448 -0.09495278 0.00044535915
0.026621347 0.01023943 0.049769584 -0.078578636 0.0054133907 0.0016655156 0.00054731965 -0.015789278
0.06312313 0.024431877 -0.11714291 0.06435735 -0.053153276 -0.0023054034 -0.03780251 0.10829596
0.059393533 0.032998063 0.024469234 0.07705033 -0.024264952 0.09055231 0.018596483 0.045218445
0.016014202 -0.09690679 0.008172534 -0.07066645 0.07061718 0.04630948 -0.09033453 0.087874584
0.10363605 0.10174326 0.051311977 0.004270211 -0.057490047 -0.055754118 0.020002447 0.09207796
-0.0920572 0.05658663 -0.027997464 -0.07438476 0.011914394 -0.06945837 0.0035953084 0.0652759
0.03552305 0.088468626 0.030323602 0.09227613 0.021167599 -0.033338673 0.07192644 0.024768665
-0.054520868 0.04569414 -0.078685015 -0.042838424 -0.047625147 0.037248574 0.012740441 0.027045317
0.04509314 0.07889397 0.017150283 0.08740606 0.029210696 0.004829737 -0.13274415 0.02852904
-0.06654769 -0.056188427 -0.103735834 -0.12093007 -0.010511525 0.030466143 0.07067094 -0.045380846
0.070802644 -0.095120005 0.026447095 -0.025528356 0.070480816 0.0791873 -0.06321623 0.07329837
0.02842822 -0.084865384 -0.025144024 -0.10139776 -0.08559276 -0.03797531 -0.08663473 -0.039482802
-0.053419825 -0.03648246 -0.0065539554 0.06799669 -0.0006652847 0.049241327 0.08232766 0.08706463
0.019436002 -0.0064826235 -0.0008129105 -0.035693265 -0.087897345 -0.03895604 0.008555576 -0.00057545304
0.075204596 -0.045123763 0.00056112884 -0.09922694 0.08788098 -0.08184727 -0.033657745 -0.015142262
-0.058599215 -0.076726906 -0.08004324 -0.064581886 -0.07073658 -0.019004835 -0.02379097 0.047927745
0.052486293 -0.019432563 0.081264965 0.074084885 0.0875477 -0.0753229 0.060389414 -0.027175745
0.05950492 0.038431115 -0.056838304 -0.030383624 -0.058304977 0.034062438 -0.104890235 -0.0019822344
-0.0634145 0.02704667 0.060791768 0.0014339909 -0.028451301 -0.1368556 0.091472074 0.033738874

layers.hidden.bias f4 [128]
00000000: 3776 debb 7f3b b2bc 2d2c 833d b610 0bbd
00000010: 554b 49be edf5 34bd 497e 603e 099e 96bd
00000020: f3a0 01be ae8a 08be 12c1 87be f313 80bd
00000030: a0b6 343d b3ae 36bd 6a53 8d3e d718 09be
00000040: 6fec 50bd b29d 5f3e 5f20 ccbd f70f 16bc
00000050: 73a9 55be ce0a 703d 0ad7 233c adb6 9fbd
00000060: b273 bbbe ce3a b3bb 9c02 9ebe 495e 46be
00000070: 59cf 6c3e a408 953c 0cfb 323e e7b1 8c3e
00000080: 1060 cebd f3dd a6bd 04d4 38bd 10ee 04bd
00000090: 7581 70bc 7165 5ebd 4242 b2bc d397 38ba
000000a0: eedc 533d 0ad7 233c 400d a1bc 8c48 76be
000000b0: bd67 e2bb dc7f 05bd b6b5 a8be cd11 543e
000000c0: a9bc 45be b4f3 2dbd 61ca 38be a341 1abd
000000d0: 0b42 cb3b cb1c 593d 2b02 e9bd f2b6 6fbc
000000e0: c564 72bc 1549 b2bc 77bb 513e de25 783e
000000f0: 5017 3f3e 6d9e 57be a5cc bdbc c747 983d
00000100: 9403 04bd 51e7 8fbc f42d a0bb 7388 683e
00000110: 71f2 59be 5f32 383e 69c7 713d cd42 993e
00000120: 40ca 3a3e 657e 3b3e 0064 a3be b367 783c
00000130: be32 873d 0ea2 78bc d369 44be f96f 8c3e
00000140: 8065 90be 7149 9abc d2ad 923e 0cd3 17bc
00000150: ce3e 42be ff4d b2bc 1ce9 81bc 3a2c 03bc
00000160: 876b 90bd 1b22 093e 6613 24be 7210 62b8
00000170: 56c2 b6bb f4c1 2cbc d744 5cbc 8a8d 16bc
00000180: b7e8 05be 2f9f 8dbd b933 cd3d 7cf9 a13e
00000190: 3cda aebe 086c 14be 56d1 a7be f140 70bd
000001a0: 5fa2 b2bd c6f8 b1bc 49d8 423e 5e5a fabd
000001b0: abea d7bd e750 763e b921 87be 3820 73bc
000001c0: ed6b 553e 6c3f 1a3d 4a87 83be fc0e 01bd
000001d0: aba8 0cbd 20c4 233e 5abb eabd dedd 98be
000001e0: cff0 323e 7ded 14bd b082 3a3e 8ba0 94bc
000001f0: 83bc ddbd 7e71 553e 3dd7 ddbc 8afb 67be
-0.0067889947 -0.021756886 0.0640491 -0.033951484 -0.19657643 -0.044179846 0.21923174 -0.073543616
-0.12659054 -0.13334152 -0.26514488 -0.06253805 0.044119477 -0.0446002 0.27602702 -0.13388382
-0.05100673 0.218375 -0.09967112 -0.00915908 -0.20865421 0.058604054 0.01 -0.077985145
-0.36611706 -0.0054696565 -0.30861366 -0.19371904 0.23125972 0.018192597 0.1747858 0.2747948
-0.10076916 -0.08147802 -0.04512407 -0.032453597 -0.014679302 -0.05429596 -0.02176011 -0.00070416665
0.051724367 0.01 -0.019659638 -0.24051112 -0.006909339 -0.03259264 -0.32951134 0.20709915
-0.1931025 -0.04246874 -0.18045951 -0.037660252 0.0062029413 0.053005975 -0.11377367 -0.01463102
-0.014794533 -0.021763364 0.20481668 0.24233195 0.18661237 -0.21056528 -0.023168871 0.074355654
-0.032229975 -0.017566355 -0.0048882905 0.22708301 -0.2128389 0.17987965 0.059028063 0.29933777
0.18241215 0.18309934 -0.3191223 0.015161443 0.06601475 -0.015175356 -0.19180994 0.27429178
-0.28202438 -0.018833848 0.2864824 -0.009266626 -0.1896927 -0.021765707 -0.015858226 -0.00800615
-0.07051759 0.13391916 -0.16023025 -5.3897915e-05 -0.005577366 -0.010544289 -0.013444147 -0.009189019
-0.13077055 -0.069151275 0.10019631 0.31635654 -0.34150875 -0.14494336 -0.32776898 -0.058655683
-0.08722376 -0.02172507 0.19027819 -0.122242674 -0.10542806 0.240543 -0.26392916 -0.0148392245
0.20841952 0.03765814 -0.25689155 -0.03150843 -0.03434054 0.15992785 -0.11461516 -0.2985677
0.17474674 -0.0363593 0.18213916 -0.01814296 -0.108269714 0.20844075 -0.027080173 -0.22654548

layers.output.weight f4 [5, 128]
00000000: 1abe db3d 4ce7 1ebe d8ac 8e40 8aff 3ebe
00000010: a00f f13f 7179 4b40 c2a8 943e 2dfd 7e40
00000020: ed53 6ac0 e65c 44c0 2b1e 8d40 1962 9140
00000030: 4acc 8440 d827 3240 2505 d63e b25a 85c0
00000040: cbff 013e b5c0 a13e ffba 3c40 3266 d43d
00000050: b98e a53f cba8 dbbf 6470 40be e76b 86c0
00000060: 6348 8ac0 839f 63be beeb 9540 7cf7 8340
00000070: 0bd1 a03e a243 14c0 f6b7 3dc0 80c4 0d3f
00000080: 5a2d 58c0 dee5 f73e 3942 9040 14e6 023e
00000090: e476 4540 629f 6540 5972 e1bd 21d1 1ebe
000000a0: 4f3e 4140 68b5 153d a779 1d3e a387 3740
000000b0: da06 b5be bc27 ec3d c48e 2bc0 9376 9c3e
000000c0: 8586 57c0 c015 4abd 72c7 2840 f745 e8bd
000000d0: 8479 eebd 40e8 42c0 972e 8e40 9662 ca3c
000000e0: 8b86 4bbe 3c88 d7bd c693 a43e b3c4 cf3e
000000f0: b400 db3e 3534 5340 e198 33c0 bfa4 9fc0
00000100: cc27 2ebd 9c54 31be 4069 983d 89b2 803e
00000110: ddb9 1140 bfa6 e63e 387c 3dc0 43ba 9d40
00000120: e977 a43e 568e c23e d7e2 60c0 3b01 1a40
00000130: 57b1 4d40 8421 25bd dcac 2d40 49d8 b23e
00000140: c90a 96c0 4c8a 70be 6e55 dc3e c071 02be
00000150: 18b5 3fc0 6418 d93d f0c0 55bd 307d d53d
00000160: f696 1e40 f000 3340 a197 a240 0bd3 6fc0
00000170: d42d 333e 1ece b5bd 9314 963d 1dfb 48c0
00000180: 96f2 8ec0 c309 8bc0 cfa4 7640 d73b 0c3f
00000190: 32b6 10c0 6c61 c640 d1c9 7b40 8949 6740
000001a0: 9c2c 8bc0 e9f4 4540 1d07 693e 878f 8dc0
000001b0: 1eea 76c0 a81e 103f 1e75 8d40 13da e73b
000001c0: c9fc 8e3e e57b 9340 d9b6 9040 adf2 6cc0
000001d0: 35d6 eebd 2357 d83e 1c07 58c0 8342 6140
000001e0: aab1 b73e 58a2 2c3e da75 a33e 167f 04be
000001f0: bddd 4ec0 46d5 ed3e d415 8a3d 2282 2840
00000200: 087a 54bd ac75 34be 2b85 8140 99bc 0abe
00000210: 7024 0040 6739 7940 493a 783e ef46 7f40
00000220: b15c 5bc0 2d00 4bc0 77dc 9940 71b5 9640
00000230: 7eb8 8d40 cefe 3b40 920e 9f3e 7e37 7ac0
00000240: 4d77 02be b751 b33e 4d25 0e40 877f 32be
00000250: 342b a03f 68b8 f7bf c09b 073e 5993 69c0
00000260: d032 88c0 0c8c 9fbd 4087 9a40 7999 9140
00000270: 2c5c b13e 5999 29c0 69ac 49c0 2b0a 1b3f
00000280: 6b21 47c0 090a 043f b43f a240 f0a4 a3bd
00000290: f386 3f40 09ba 5b40 c293 0f3e 0a77 91bd
000002a0: 46d6 4240 b4b8 ee3d b8d5 09be 8f35 3540
000002b0: 28f5 16bf d9d0 67be 1adf 30c0 0e51 943e
000002c0: 26b6 67c0 5119 453e 068d 2240 64f1 30be
000002d0: 554a 7fbc 71ba 39c0 3e33 a140 d1f4 51be
000002e0: 63c6 26be 342d aa3d 00ec 153f bd18 e53d
000002f0: 3599 423e a68f 5a40 b9ff 23c0 bef8 95c0
00000300: 71fb 6f3c c7e2 25bd 98ed c43c 71ad b53e
00000310: d18b 1040 094b 053f af63 3cc0 a67e a040
00000320: 99a1 af3e 23b9 023f a5be 5ac0 9d8f 2240
00000330: 1d01 4740 64f0 063d 4ab5 3540 7846 fb3e
00000340: 3b9e 87c0 e853 e43d 8e61 7b3e 1e6e 81bd
00000350: 18fb 4ac0 1b8c 56bd 4038 233c 9124 ec3d
00000360: 9e41 3d40 85bc 3d40 d92c a040 da01 70c0
00000370: 80dc 23be 205a a93c eee8 de3d e4e5 39c0
00000380: a5c4 97c0 c6eb 9bc0 a40b 8340 15b6 ac3e
00000390: e227 0cc0 1179 bd40 4329 6a40 7d46 7040
000003a0: a8a4 85c0 9097 4340 4f93 9d3e 9c2d 88c0
000003b0: c67a 6cc0 401a a83e 5e1a 8940 3966 fbbd
000003c0: 7893 0c3f 0b99 9140 523f 8f40 7016 54c0
000003d0: d8ec 1e3c 0193 653e 49a0 60c0 dbdb 6c40
000003e0: 8a68 003f 99ac 85bd 7adf 2b3f fd4b 35be
000003f0: eb81 1ec0 337e 943e 6a5d 403e e2da 2440
0.10729618 -0.1551792 4.458599 -0.18652168 1.8832893 3.1792872 0.29035002 3.9842026
-3.6613724 -3.06817 4.4099326 4.543225 4.1499376 2.7836819 0.418008 -4.167321
0.12695234 0.31592336 2.9489133 0.10371055 1.293418 -1.7160887 -0.18792874 -4.2006717
-4.3213363 -0.22228818 4.685027 4.1239605 0.31409487 -2.316628 -2.964353 0.5537796
-3.377768 0.48417562 4.508084 0.1278308 3.0853815 3.587853 -0.11008138 -0.15509464
3.019428 0.036549956 0.15378438 2.8676536 -0.3535679 0.11531016 -2.6805887 0.30559215
-3.3675854 -0.04933715 2.6371732 -0.1134147 -0.11644271 -3.0454254 4.443187 0.024705213
-0.19875543 -0.105240315 0.32143992 0.40579757 0.42773974 3.3000615 -2.806206 -4.9888606
-0.042518422 -0.17317432 0.0744195 0.25136212 2.2769692 0.45049092 -2.9607067 4.928987
0.32122734 0.3799922 -3.5138452 2.406325 3.213949 -0.040315166 2.7136755 0.34930637
-4.6888165 -0.23490256 0.43033928 -0.12738705 -2.995428 0.10600355 -0.052185953 0.10424268
2.477964 2.7969322 5.0810094 -3.747256 0.17497951 -0.08877204 0.07328143 -3.1403267
-4.4671125 -4.3449416 3.853809 0.5477881 -2.2611203 6.1993923 3.934193 3.6138632
-4.3491955 3.0930731 0.2275662 -4.4237704 -3.8580394 0.5629678 4.4205465 0.007075557
0.27927235 4.608874 4.5223203 -3.7023118 -0.116619505 0.4225398 -3.375434 3.5196846
0.35877734 0.16858804 0.3192585 -0.12939104 -3.2322838 0.46451777 0.06742445 2.6329427
-0.05187419 -0.17623013 4.047506 -0.13548507 2.002224 3.8941286 0.24240984 3.9887044
-3.4275324 -3.1718857 4.808162 4.7096486 4.428771 2.937427 0.31065804 -3.909637
-0.12740822 0.3502328 2.2210267 -0.1743146 1.2513185 -1.9353151 0.13243008 -3.6496184
-4.2562027 -0.07790384 4.82901 4.5499845 0.34640634 -2.6499846 -3.151148 0.6056239
-3.1114147 0.5157781 5.0702763 -0.07990444 2.9926116 3.4332297 0.14021209 -0.07102783
3.0443282 0.11656323 -0.13460433 2.831394 -0.5896783 -0.22638263 -2.763617 0.2896809
-3.6204925 0.19247939 2.5398574 -0.17279583 -0.015581687 -2.9020045 5.037505 -0.20503546
-0.16286616 0.08309403 0.5856323 0.11186359 0.19003756 3.4150176 -2.562483 -4.686614
0.014647351 -0.040499475 0.024039075 0.35483888 2.2585337 0.5206762 -2.9435842 5.01546
0.34302977 0.51063746 -3.417886 2.5400155 3.109443 0.032944098 2.83919 0.490772
-4.2380652 0.11148816 0.24548933 -0.06319831 -3.1715755 -0.05237971 0.0099621415 0.11530412
2.95713 2.9646313 5.0054746 -3.750113 -0.16002083 0.020672858 0.108842716 -2.9046564
-4.7427545 -4.872531 4.095171 0.33732668 -2.1899343 5.9210286 3.6587684 3.7543023
-4.1763496 3.0561256 0.3077645 -4.2555676 -3.6949935 0.32832527 4.2844687 -0.12275357
0.5491252 4.549932 4.4764795 -3.3138695 0.009700023 0.22419359 -3.509783 3.700919
0.50159514 -0.06527061 0.67137873 -0.17704768 -2.4766796 0.29002532 0.18785635 2.5758595

layers.output.bias f4 [5]
00000000: c0b7 b63e c67b 803e 3613 283e fec4 9f3e
00000010: 500e 943e
0.35687065 0.25094432 0.16413578 0.3120498 0.2891717
