results/models/2d_track/28_07_2023-13:40_model_1M_steps_no_exp_replay.pt (torch_old, 218980 bytes, 4 tensors)

layers.hidden.weight f4 [128, 420]
0.010370374 0.048618548 -0.006424047 -0.071666315 -0.07280259 0.04407201 0.0025285706 0.08938389
-0.079757445 -0.022501193 0.013781108 -0.029682763 -0.031828582 -0.0069380477 0.02275481 0.040492825
0.056385554 -0.071241595 -0.04464506 -0.06067805 0.016322456 0.08897189 -0.08295932 -0.000598751
0.09404408 0.010042191 -0.005397424 -0.045214724 0.08042882 -0.024306111 -0.07251538 -0.05415904
-0.03191647 -0.10070335 0.09649948 0.020750813 0.0054876804 -0.07139349 -0.058190357 -0.062621355
-0.0020721033 0.058215566 0.0008748323 0.083518185 0.045701243 -0.076085195 0.07237641 -0.0010312125
-0.04296418 0.0046707913 -0.025704704 0.027788691 -0.0114979595 0.061142586 0.076999225 -0.055198487
-0.050894998 -0.043609317 -0.015571296 -0.03731806 -0.08288115 -0.1005282 -0.024575047 -0.06087375
-0.023160443 -0.042774692 0.086176254 0.09238873 -0.035925664 -0.0132918805 0.06054727 -0.053903043
-0.012079984 0.0013923422 -0.008813381 0.04158651 0.037023596 -0.08260953 2.462823 -1.2201798
0.031530805 -0.08560852 -0.084006846 -0.62237304 -0.98328084 -0.07196337 1.9818496 -0.018834785
2.3335683 1.4394016 0.02149386 0.054602854 0.031026728 1.4015555 -1.2096664 -0.07618893
2.605578 -0.023163319 3.747367 2.7454875 -0.0608965 0.06917141 2.4157567 3.763175
0.80524176 -0.062452022 1.8277972 -0.013210751 4.0447464 2.027161 0.037774302 -0.014032409
0.0010140985 3.0576546 -1.733814 -0.014132135 0.98697674 -0.0015140697 3.059109 -1.4617559
0.083803184 0.10421943 0.009401083 2.4396853 -1.2038461 -0.088077255 -0.19046244 -0.04626109
2.359528 -2.1146512 0.08385434 -0.053230785 -0.042021327 3.0123432 -1.5036885 0.008496776
-0.10336325 -0.017678447 -0.01668223 -0.0076591447 -0.058784116 0.037167855 -0.052407034 -0.093797155
-0.10027726 -0.024454214 0.0062116534 -0.063550495 2.1520457 -1.5342534 0.5643351 -0.017849058
-0.028489046 3.2038941 0.5732721 0.098371156 -0.0057557076 -0.07212331 0.8387702 -1.247468
-0.0619539 1.2815514 0.036296003 5.4554105 1.1286123 0.050745808 -0.02380018 0.03661611
2.6509252 0.28804094 0.047424935 -0.011223912 2.7774885 3.977536 0.7362095 0.092245616
0.04874403 -0.0016548336 3.8803113 -0.63599664 -0.05464423 1.4175583 0.039673604 7.150106
1.5045621 -0.06947699 0.07903495 0.014630407 4.0358853 -1.5387212 0.06636269 -0.041882545
-0.06837042 6.054771 0.537734 0.018901058 0.0930487 -0.029066473 3.1556158 -1.4979769
0.083905704 -0.41630644 0.057278596 2.3660038 -2.2371871 0.085694544 0.035907336 -0.09495408
0.016399354 -0.089402094 0.060523547 0.059854902 0.008795448 0.032081924 0.022018991 -0.019268408
2.4120848 0.081766 1.9816315 -0.25136262 0.07841358 -0.0027025938 -0.05381059 1.4736155
-1.4427621 0.50368065 0.003928855 0.06315374 3.9166777 1.5357354 -0.04066626 0.008061856
0.075272776 2.684214 -1.5092366 0.057675548 2.9000888 0.10043839 5.1448894 2.3140097
-0.097719654 -0.03254766 2.553605 3.967574 1.0702547 0.07836019 2.2165964 -0.10440986
4.3035555 1.6462929 -0.08989712 0.029374696 -0.08139573 5.759416 -1.8380324 -0.019637719
00000000: 80e8 293c 3e24 473d d080 d2bb cac5 92bd
00000010: 8619 95bd da84 343d 60b6 253b e70e b73d
00000020: df57 a3bd 6c54 b8bc 28ca 613c 4429 f3bc
00000030: b05e 02bd 9058 e3bb 4c68 ba3c cedb 253d
00000040: 8af4 663d 1de7 91bd bddd 36bd 8c89 78bd
00000050: acb6 853c e536 b63d 93e6 a9bd 80f5 1cba
00000060: 2f9a c03d 0088 243c e0dc b0bb 1333 39bd
00000070: ddb7 a43d 9c1d c7bc f282 94bd dfd5 5dbd
00000080: d8ba 02bd 8f3d cebd 85a1 c53d 9cfd a93c
00000090: 00d2 b33b c036 92bd 0359 6ebd a03f 80bd
000000a0: 20cc 07bb 7273 6e3d 0055 653a 950b ab3d
000000b0: 3a31 3b3d 8ed2 9bbd 153a 943d c029 87ba
000000c0: 35fb 2fbd 700d 993b ac92 d2bc 1ca5 e33c
000000d0: f061 3cbc a670 7a3d c5b1 9d3d cf17 62bd
000000e0: 4677 50bd af9f 32bd c01e 7fbc d2da 18bd
000000f0: 98bd a9bd bbe1 cdbd 9c51 c9bc c156 79bd
00000100: f8ba bdbc 8434 2fbd 2d7d b03d 4d36 bd3d
00000110: ca26 13bd 30c6 59bc 6a00 783d 70c9 5cbd
00000120: 20eb 45bc 407f b63a 0066 10bc 9e56 2a3d
00000130: 0ea6 173d 2f2f a9bd e49e 1d40 da2e 9cbf
00000140: 7226 013d 8553 afbd c80b acbd d753 1fbf
00000150: 4bb8 7bbf 8861 93bd 3fad fd3f 684b 9abc
00000160: 2f59 1540 503e b83f e413 b03c 3ea7 5f3d
00000170: c42b fe3c 2c66 b33f 59d6 9abf f108 9cbd
00000180: cac1 2640 00c1 bdbc dcd4 6f40 11b6 2f40
00000190: 9c6e 79bd bda9 8d3d c29b 1a40 dcd7 7040
000001a0: 5324 4e3f b1cd 7fbd 42f5 e93f e871 58bc
000001b0: 906e 8140 01bd 0140 3ab9 1a3d 30e8 65bc
000001c0: 80eb 843a 9db0 4340 9eed ddbf 788a 67bc
000001d0: 82aa 7c3f c073 c6ba 71c8 4340 d11a bbbf
000001e0: 01a1 ab3d ff70 d53d 0007 1a3c ce23 1c40
000001f0: a117 9abf d961 b4bd 9608 43be 457c 3dbd
00000200: 8202 1740 7256 07c0 d3bb ab3d 8608 5abd
00000210: 8e1e 2cbd 3bca 4040 dd78 c0bf 1036 0b3c
00000220: 1db0 d3bd 64d2 90bc 2ca9 88bc 90f9 fabb
00000230: 9dc7 70bd 523d 183d c2a8 56bd b918 c0bd
00000240: 2a5e cdbd 3454 c8bc 208b cb3b c326 82bd
00000250: 1ebb 0940 6a62 c4bf 4478 103f 3038 92bc
00000260: dc61 e9bc 9a0c 4d40 f6c1 123f d176 c93d
00000270: 609a bcbb 63b5 93bd a5b9 563f 08ad 9fbf
00000280: 5fc3 7dbd e009 a43f 1eab 143d b992 ae40
00000290: 5e76 903f d6da 4f3d 98f8 c2bc c6fa 153d
000002a0: c2a8 2940 1a7a 933e a640 423d 80e4 37bc
000002b0: 5fc2 3140 f38f 7e40 3a78 3c3f 45eb bc3d
000002c0: d2a7 473d 00e7 d8ba 0557 7840 add0 22bf
000002d0: a1d2 5fbd 8d72 b53f ca80 223d abcd e440
000002e0: 7e95 c03f f449 8ebd 13dd a13d 60b4 6f3c
000002f0: f925 8140 d1f4 c4bf 29e9 873d 088d 2bbd
00000300: ca05 8cbd afc0 c140 efa8 093f 64d6 9a3c
00000310: 5190 be3d d01c eebc 9cf5 4940 b5bd bfbf
00000320: c1d6 ab3d 1e26 d5be f69c 6a3d 9b6c 1740
00000330: 132e 0fc0 9f80 af3d 9213 133d 4977 c2bd
00000340: f057 863c 7218 b7bd 8ae7 773d 6a2a 753d
00000350: c81a 103c 5668 033d 2c61 b43c c8d8 9dbc
00000360: 995f 1a40 ef74 a73d 1aa6 fd3f 9ab2 80be
00000370: 4d97 a03d 001e 31bb 7e68 5cbd 6f9f bc3f
00000380: 6eac b8bf 37f1 003f a0bd 803b bf56 813d
00000390: d9aa 7a40 fa92 c43f aa91 26bd e015 043c
000003a0: 9d28 9a3d 2aca 2b40 aa2e c1bf 323d 6c3d
000003b0: 0e9b 3940 a5b2 cd3d efa2 a440 bc18 1440
000003c0: 3e21 c8bd b250 05bd 446e 2340 bbec 7d40
000003d0: 1bfe 883f 4f7b a03d b7dc 0d40 d6d4 d5bd
000003e0: bab6 8940 bab9 d23f fb1b b8bd 34a3 f03c
000003f0: ceb2 a6bd 234d b840 a544 ebbf 48df a0bc

layers.hidden.bias f4 [128]
-1.1227411 -0.87701494 -0.7514266 -0.9850883 -0.040314697 -0.031697422 -0.035766687 -0.009351903
-0.055219267 -0.022153348 -0.91976035 -0.92131996 -0.8069618 -0.037163854 -0.6253625 -0.030179765
-0.06822779 -0.87013197 0.01 -0.89074093 -0.021416623 -1.0758036 -0.0042311396 -0.02875816
-0.42888024 -0.011764099 -0.88504326 -0.049376253 -1.0469148 0.01 -0.032086365 -0.71283674
-0.0058419453 -0.90398586 -0.019683644 -0.041570693 -0.021765817 -0.033631966 -0.031238642 0.06162009
-0.88395005 -0.464052 -0.9685167 -0.94735193 -0.10131384 -0.03412989 -0.85829103 -0.014565166
-0.8676033 -0.90654373 -0.0422798 -0.039023954 0.07687574 -0.9488958 -0.61938745 -0.83702546
-0.94956434 -0.010567046 -1.0085236 -0.92506576 -0.043398526 -0.027614681 -0.03726054 -1.0203327
-0.0061970586 -0.7119983 -0.92147505 -0.86811125 -0.07147587 -0.040547334 -1.0328823 -0.035434872
-1.0235538 0.01 -0.0108179655 0.85245824 -0.002671588 -0.035531957 -0.028358864 -0.026983766
-0.6116598 -1.0462439 -0.5614578 -0.013219207 -0.021638187 -0.046610624 -0.98374665 -0.832314
-0.88440484 -0.01398878 -1.1131468 -0.9217374 -0.92175025 -0.004701467 -0.040537864 -1.0120643
-0.88729614 -0.016988026 -0.010171438 -0.89202 0.01 -0.9743604 -0.680281 -0.8823669
-0.011130734 -0.032650705 -1.0695843 -0.017257694 -0.84652114 -0.9988508 -0.9221746 -1.0302402
-0.6506178 -0.021328727 -0.74294394 -0.7799538 0.021212904 -0.8249899 -0.039450195 -0.01388725
-0.03297037 -0.021823183 -0.8761055 -0.8872794 -0.9129797 -0.88192534 -0.881296 -0.020186046
00000000: fbb5 8fbf 0d84 60bf 7e5d 40bf bf2e 7cbf
00000010: 0621 25bd 28d5 01bd 1780 12bd b938 19bc
00000020: 992d 62bd f07a b5bc 6a75 6bbf a0db 6bbf
00000030: 0c95 4ebf 2039 18bd c217 20bf 8e3b f7bc
00000040: 03bb 8bbd f8c0 5ebf 0ad7 233c 9907 64bf
00000050: ea71 afbc efb3 89bf 5fa5 8abb 3c96 ebbc
00000060: 3196 dbbe 35be 40bc 3292 62bf c13e 4abd
00000070: 4e01 86bf 0ad7 233c fe6c 03bd 787c 36bf
00000080: ca6d bfbb 9e6b 67bf 983f a1bc 0846 2abd
00000090: 3a4e b2bc acc1 09bd 2ee8 ffbc 5965 7c3d
000000a0: 8d4a 62bf 3998 edbe b6f0 77bf a885 72bf
000000b0: a17d cfbd c9cb 0bbd f6b8 5bbf bca2 6ebc
000000c0: 401b 5ebf 4013 68bf 952d 2dbd 95d7 1fbd
000000d0: 0771 9d3d d6ea 72bf 2d90 1ebf 4d47 56bf
000000e0: a616 73bf 6721 2dbc 4d17 81bf 1cd1 6cbf
000000f0: a7c2 31bd 2f38 e2bc 829e 18bd 439a 82bf
00000100: b210 cbbb 8545 36bf cae5 6bbf 8a3c 5ebf
00000110: f161 92bd f614 26bd 7d35 84bf 2824 11bd
00000120: d003 83bf 0ad7 233c d63d 31bc b43a 5a3f
00000130: cf15 2fbb f589 11bd d950 e8bc 0f0d ddbc
00000140: bd95 1cbf 52eb 85bf b3bb 0fbf 5f95 58bc
00000150: 9142 b1bc c8ea 3ebd d2d6 7bbf 8812 55bf
00000160: 5b68 62bf 3231 65bc 987b 8ebf fbf6 6bbf
00000170: d3f7 6bbf c40e 9abb 080b 26bd 538b 81bf
00000180: d725 63bf 792a 8bbc 1aa6 26bc 6c5b 64bf
00000190: 0ad7 233c af6f 79bf e526 2ebf cce2 61bf
000001a0: af5d 36bc bfbc 05bd 23e8 88bf 0260 8dbc
000001b0: 9cb5 58bf b0b4 7fbf a213 6cbf e9de 83bf
000001c0: e38e 26bf 95b9 aebc 9331 3ebf 0dab 47bf
000001d0: afc6 ad3c 8a32 53bf 8796 21bd 5987 63bc
000001e0: f00b 07bd 88c6 b2bc 7348 60bf be24 63bf
000001f0: 0ab9 69bf dcc5 61bf 9d9c 61bf 355d a5bc

layers.output.weight f4 [5, 128]
2.209436 1.1876507 2.0682857 2.3608916 0.113485396 0.0702374 0.053563457 -0.08510252
-0.18064521 0.1677488 1.2166498 3.9512737 1.8460275 -0.15738873 3.3660738 -0.028590837
0.050774395 1.0236555 -0.006061375 1.066814 0.15540582 3.3275108 0.08887792 -0.023618935
1.9914289 -0.0457948 1.1301606 -0.11614558 3.100002 0.043702573 0.20303099 1.6230226
-0.054766573 1.0589609 -0.18330108 -0.0711837 -0.124785185 0.06394076 -0.12554179 -0.7211106
1.0794207 3.393558 3.4530056 1.5771971 2.7699244 -0.018835353 2.0156584 -0.12507121
0.8916906 0.9282425 0.101640455 0.029730558 -0.5046714 1.7312896 1.7482102 0.9444725
2.4130673 0.113323525 2.5313716 0.9444692 -0.051844146 -0.100986496 0.018776357 1.871086
0.19417417 1.4311818 2.103513 1.1440706 0.17231025 -0.07077582 1.844496 -0.019184664
1.2085431 0.0058868974 0.106791794 -1.1706368 -0.15870425 0.21153885 -0.17150596 0.05434051
1.7218395 2.1841063 1.6909916 -0.03193971 0.15978228 0.018477768 3.1680644 1.9631011
1.0478938 -0.10801256 1.5110682 3.2557113 1.2688643 0.080801934 -0.14529963 2.4108844
1.114823 0.05297345 0.091445714 1.0689719 -0.18954593 3.5492272 1.4641798 1.064156
-0.16862321 -0.1505712 0.67289394 0.11867405 1.4847598 2.1811056 2.1585329 3.3883524
1.9422017 -0.10022629 1.7494657 1.8668914 -0.7161897 0.6292224 0.03996079 0.23234677
-0.024170019 -0.11432399 1.0117462 2.2247856 1.0960287 1.327095 1.0930183 0.0023606257
2.2579947 0.9028425 1.2416706 2.4247694 0.08670388 -0.012005292 -0.1169614 -0.08934786
0.060919955 -0.08560387 1.2185782 3.9030037 2.1513937 0.14839062 2.5482712 0.21232131
0.18183349 1.086016 0.024347365 0.88521713 0.074653804 2.2122238 0.07152051 0.23728743
3.564965 -0.19426182 0.8613959 0.17606595 3.4472065 0.046697944 -0.15157345 1.6853364
-0.13271786 0.7330468 -0.15859912 -0.01224522 -0.07765439 -0.051079832 0.18247616 -0.74371976
0.8769833 4.4812317 3.6459067 1.7845933 2.1898196 0.04307726 2.184084 -0.03754832
0.9460171 0.9077957 -0.0115514435 -0.066553205 -0.8598625 1.6643844 1.5835519 1.1125109
2.4206593 0.0040301243 2.5047123 1.1180952 -0.13079055 0.19814628 -0.2527783 1.8165118
-0.038361087 2.3100297 2.1125946 1.2174051 0.069375664 -0.1050627 1.8198601 -0.21210787
0.9590655 0.018666 0.011195824 -1.1159885 0.09700355 0.0063701686 -0.12811343 -0.13912818
1.3512307 1.9605559 1.7054718 0.15356204 0.054359544 -0.09894217 2.357227 2.157317
0.95022905 -0.13486764 0.9328156 3.5642722 1.5707464 0.07947135 -0.18210225 2.4628744
0.9061324 0.01626107 -0.10766681 1.0951189 -0.078406036 3.0489902 1.6965863 0.9168876
-0.09271379 -0.16677016 1.9505132 0.08259079 1.9674171 1.824951 1.129563 1.7863575
1.4827666 0.08527453 2.2114942 2.1773224 -1.1904103 2.2178838 -0.058173947 -0.15421176
-0.069510065 0.09142059 0.9892386 1.4541771 1.257691 1.3488125 0.9673616 -0.098261505
00000000: 6667 0d40 f004 983f cb5e 0440 d918 1740
00000010: 086b e83d a0d8 8f3d 5b65 5b3d 3b4a aebd
00000020: 0ffb 38be 57c6 2b3e 2ebb 9b3f abe1 7c40
00000030: a14a ec3f 832a 21be c16d 5740 5537 eabc
00000040: d0f8 4f3d 2507 833f 809e c6bb 5c8d 883f
00000050: b422 1f3e f0f5 5440 a005 b63d 7f7c c1bc
00000060: 24e7 fe3f 5493 3bbd 1aa9 903f bcdd edbd
00000070: 6f66 4640 7801 333d 5be7 4f3e 34bf cf3f
00000080: ea52 60bd 088c 873f 47b3 3bbe c2c8 91bd
00000090: 608f ffbd 60f3 823d 078e 00be b49a 38bf
000000a0: 752a 8a3f 0e30 5940 0bfe 5c40 98e1 c93f
000000b0: 7146 3140 994c 9abc 8c00 0140 ab12 00be
000000c0: d645 643f 4da1 6d3f df28 d03d 808d f33c
000000d0: 2532 01bf e69a dd3f 5ac5 df3f f3c8 713f
000000e0: b26f 1a40 2a16 e83d fe01 2240 bcc8 713f
000000f0: 875a 54bd 02d2 cebd e0d0 993c bf7f ef3f
00000100: 98d5 463e f730 b73f f59f 0640 e870 923f
00000110: 1972 303e eaf2 90bd 7218 ec3f 2829 9dbc
00000120: 8ab1 9a3f e0e6 c03b a8b5 da3d 6dd7 95bf
00000130: 5e83 22be a49d 583e 429f 2fbe 2894 5e3d
00000140: 3d65 dc3f 66c8 0b40 6a72 d83f 37d3 02bd
00000150: f79d 233e b05e 973c 91c1 4a40 e646 fb3f
00000160: 6221 863f b035 ddbd af6a c13f 935d 5040
00000170: 256a a23f 7c7b a53d 6dc9 14be ee4b 1a40
00000180: 85b2 8e3f b0fa 583d e447 bb3d 12d4 883f
00000190: 5418 42be 8a26 6340 3e6a bb3f 4436 883f
000001a0: 90ab 2cbe 562f 1abe c742 2c3f 610b f33d
000001b0: 9c0c be3f 3c97 0b40 6725 0a40 c4da 5840
000001c0: 119a f83f 7143 cdbd 7eee df3f 4cf6 ee3f
000001d0: 3558 37bf b814 213f edad 233d 50ec 6d3e
000001e0: 3400 c6bc b222 eabd e680 813f e362 0e40
000001f0: ab4a 8c3f 40de a93f 06e8 8b3f bab4 1a3b
00000200: fc82 1040 b020 673f 10ef 9e3f 6c2f 1b40
00000210: ce91 b13d d8b1 44bc 7589 efbd 03fc b6bd
00000220: 3487 793d 1551 afbd 5ffa 9b3f d0ca 7940
00000230: 6fb0 0940 b6f3 173e e016 2340 c26a 593e
00000240: 8f32 3a3e 9302 8b3f 2074 c73c 979d 623f
00000250: 18e4 983d 1395 0d40 5879 923d 7afb 723e
00000260: 6328 6440 92ec 46be 7184 5c3f a24a 343e
00000270: 089f 5c40 5846 3f3d 1236 1bbe 1ab9 d73f
00000280: 31e7 07be f5a8 3b3f cf67 22be 2da0 48bc
00000290: 4409 9fbd 1639 51bd 08db 3a3e 6b64 3ebf
000002a0: fa81 603f 4066 8f40 8956 6940 8e6d e43f
000002b0: 0126 0c40 c871 303d 08c8 0b40 44cc 19bd
000002c0: 2d2e 723f 4d65 683f 4442 3dbc 0c4d 88bd
000002d0: f31f 5cbf 8c0a d53f d4b1 ca3f c266 8e3f
000002e0: 15ec 1a40 220f 843b 354d 2040 be1d 8f3f
000002f0: f5ed 05be dce6 4a3e 286c 81be 7583 e83f
00000300: 8420 1dbd 87d7 1340 c034 0740 eed3 9b3f
00000310: d414 8e3d 1d2b d7bd 2df1 e83f ce32 59be
00000320: 5185 753f 70e9 983c b06e 373c b6d8 8ebf
00000330: cca9 c63d d9bc d03b 2b30 03be 9e77 0ebe
00000340: 21f5 ac3f 7ff3 fa3f e64c da3f 5e3f 1d3e
00000350: 1da8 5e3d 31a2 cabd cfdc 1640 7b11 0a40
00000360: 3642 733f be1a 0abe 01cd 6e3f 091d 6440
00000370: 380e c93f e0c1 a23d 0379 3abe bc9f 1d40
00000380: 4bf8 673f ef35 853c 6b80 dcbd db2c 8c3f
00000390: 5893 a0bd a822 4340 bd29 d93f 25b9 6a3f
000003a0: bae0 bdbd ccc5 2abe 6baa f93f 5c25 a93d
000003b0: 53d4 fb3f ff97 e93f 8595 903f 5da7 e43f
000003c0: 4ccb bd3f 6aa4 ae3d 1f89 0d40 4059 0b40
000003d0: 5d5f 98bf cff1 0d40 ce47 6ebd b0e9 1dbe
000003e0: 4b5b 8ebd b83a bb3d be3e 7d3f 7a22 ba3f
000003f0: 05fc a03f e3a5 ac3f 03a5 773f 543d c9bd

layers.output.bias f4 [5]
1.4820831 1.2171923 0.4684171 2.044325 1.1932539
00000000: e6b4 bd3f f5cc 9b3f 5ed4 ef3e 39d6 0240
00000010: 8bbc 983f
