results/models/2d_track/28_07_2023-19:24_model_500K_e_r_99.pt (torch_old, 218980 bytes, 4 tensors)

layers.hidden.weight f4 [128, 420]
0.041913517 -0.043227922 0.043082617 0.036353476 -0.100135334 0.0784818 0.029828288 -0.07903423
0.05917289 0.095981814 0.059658848 0.016555734 -0.088268235 -0.074327625 -0.084267825 -0.1016956
0.014927447 0.09683233 -0.02299811 -0.07176629 0.055915587 0.05911217 -0.0028210431 0.069543995
0.07796333 -0.052046895 -0.023291364 -0.08435939 -0.04060041 -0.0014983267 -0.08081269 0.011492439
0.043199115 -0.085382394 -0.08741547 0.09109091 7.7575445e-05 0.08867737 0.09105872 -0.083239935
0.06458042 -0.021291442 -0.06206072 0.002571866 0.010771319 0.0103557035 0.019381009 -0.09532358
-0.094633795 0.0236784 -0.025656365 0.053093158 -0.09410778 -0.00548546 0.019360572 -0.093465835
-0.008370794 0.059402145 0.103052504 -0.007830091 -0.039568566 -0.022482067 0.08044476 -0.082220726
-0.065639205 0.025253586 0.000636898 -0.0998656 -0.019880928 -0.043566 -0.08215454 -0.051129814
-0.04369803 0.09633406 0.08845038 0.034076326 -0.09078565 -0.08658387 -1.1997621 -0.4697298
0.003079854 -0.0343612 0.07479883 -2.8182619 0.24373156 0.06645847 -0.24266315 -0.08781494
3.1265554 0.19797121 0.1038805 -0.06902842 0.059094094 3.3809845 -0.5174894 -0.025160573
0.6013131 -0.07306322 2.8825533 -0.91377175 0.003576234 0.104381435 -0.42813328 5.312977
-1.3464632 -0.004173368 1.6474582 -0.031744845 1.063786 -2.2194839 0.098531745 0.009613894
0.013449661 2.4281566 -0.005177303 0.094246335 -0.09024674 0.009251125 0.43154678 -2.217133
-0.055675745 -0.009553969 0.062022872 2.314405 -0.5256033 -0.0774049 0.0013481685 0.045792945
2.5142982 -1.5536284 0.0423835 0.038778223 0.041714005 1.4513927 -0.3749567 -0.10091059
0.030492626 -0.013249993 0.101621725 0.090196155 0.02266892 0.026049428 -0.035831213 -0.048156496
-0.032872953 0.072774775 -0.034389727 0.009544179 -1.9407274 0.0267016 0.108331464 -0.048895378
-0.056299392 2.489782 3.6933808 -0.032533035 0.026549108 0.037554838 3.4442954 -0.4871225
0.059589423 -0.88445723 0.02753929 2.9457865 1.4481629 0.07617935 -0.024224259 -0.062435247
0.59850097 -0.32829717 -0.026424281 -0.091133386 0.81141835 -0.4114729 0.38157302 -0.03786543
0.057885297 0.076229714 1.1367779 -0.41829205 0.02065932 0.48136765 -0.047688346 -0.5726771
-2.8064659 0.09154718 -0.021975636 0.061040618 3.9813795 -0.4162926 -0.8972839 0.02890981
-0.017490827 4.9611216 2.3530092 0.08250811 -0.09730383 -0.019567288 5.4840193 -0.77658033
0.09854571 0.8837386 0.09073966 2.9453778 -0.90380484 0.022388034 0.020120151 0.064472206
0.102748044 -0.03808192 -0.06948143 -0.0026702434 -0.029170796 -0.08831777 -0.049738 0.048872016
1.5426322 0.007862404 -6.3758407 -1.3664623 -0.05167428 -0.037920453 0.059332408 -0.72679716
-0.4084879 -2.401038 -0.048125587 0.055151395 2.77899 2.3879933 0.075568296 -0.012537673
-0.058418587 -2.325418 0.17387506 0.08407452 -0.7773747 0.07393182 3.508529 5.0388827
-0.08235176 0.025295503 0.7879779 2.7616277 0.5361211 -0.015546292 0.22027712 -0.041000716
2.5119243 1.826787 -0.050520375 0.00931596 -0.01065065 1.124456 -0.40810916 0.040631466
00000000: 82ad 2b3d c30f 31bd 6677 303d 62e7 143d
00000010: c113 cdbd 11bb a03d 745a f43c b3dc a1bd
00000020: 465f 723d 1d92 c43d d65c 743d e49f 873c
00000030: fac5 b4bd 1539 98bd 9c94 acbd c845 d0bd
00000040: 4092 743c 0750 c63d 8866 bcbc 34fa 92bd
00000050: be07 653d 9a1f 723d 40e1 38bb 156d 8e3d
00000060: 3dab 9f3d 202f 55bd 88cd bebc 9ec4 acbd
00000070: 9e4c 26bd 8063 c4ba 2081 a5bd c84a 3c3c
00000080: 8ef1 303d f7dc aebd e206 b3bd df8d ba3d
00000090: 00b0 a238 7b9c b53d ff7c ba3d b379 aabd
000000a0: bd42 843d 646b aebc 6233 7ebd c08c 283b
000000b0: 307a 303c f8aa 293c ecc4 9e3c 0239 c3bd
000000c0: 5dcf c1bd 34f9 c13c 4c2d d2bc 3678 593d
000000d0: 94bb c0bd 60bf b3bb 109a 9e3c 046b bfbd
000000e0: a825 09bc aa4f 733d 310d d33d c849 00bc
000000f0: a612 22bd 502c b8bc 39c0 a43d 5763 a8bd
00000100: d96d 86bd 9ce0 ce3c 80f5 263a 5686 ccbd
00000110: 54dd a2bc 4372 32bd a440 a8bd 7f6d 51bd
00000120: b5fc 32bd cb4a c53d 7925 b53d 9e93 0b3d
00000130: d4ed b9bd e252 b1bd ce91 99bf 6d80 f0be
00000140: 60d7 493b 54be 0cbd 2130 993d 675e 34c0
00000150: c494 793e 611b 883d b07c 78be 52d8 b3bd
00000160: 7c19 4840 f7b8 4a3e 4dbf d43d c65e 8dbd
00000170: a60c 723d 0d62 5840 2f7a 04bf 8c1d cebc
00000180: a8ef 193f 2ba2 95bd c17b 3840 f2ec 69bf
00000190: 405f 6a3b efc5 d53d 4934 dbbe e803 aa40
000001a0: e858 acbf c0c0 88bb e9df d23f e206 02bd
000001b0: 242a 883f 060c 0ec0 03cb c93d 9883 1d3c
000001c0: f85b 5c3c eb66 1b40 5ea6 a9bb 3904 c13d
000001d0: 48d3 b8bd 0892 173c b3f3 dc3e 82e5 0dc0
000001e0: 400c 64bd 4088 1cbc b20b 7e3d 361f 1440
000001f0: f08d 06bf 7686 9ebd 07b5 b03a 6291 3b3d
00000200: 43ea 2040 4cdd c6bf 529a 2d3d ead5 1e3d
00000210: 4edc 2a3d 3cc7 b93f 53fa bfbe 36aa cebd
00000220: accb f93c 8016 59bc 0d1f d03d c3b8 b83d
00000230: 2cb4 b93c 9c65 d53c c0c3 12bd bf3f 45bd
00000240: caa5 06bd f10a 953d 3edc 0cbd 305f 1c3c
00000250: c169 f8bf 50bd da3c e3dc dd3d 8546 48bd
00000260: 319a 66bd 9758 1f40 5a60 6c40 5c41 05bd
00000270: 847d d93c 1ad3 193d 566f 5c40 1f68 f9be
00000280: 0a14 743d ca6b 62bf 149a e13c c487 3c40
00000290: 675d b93f eb03 9c3d f471 c6bc 1abc 7fbd
000002a0: 5c37 193f 9116 a8be bc77 d8bc 24a4 babd
000002b0: 1db9 4f3f 93ac d2be 8a5d c33e c818 1bbd
000002c0: 2219 6d3d 531e 9c3d f081 913f 602a d6be
000002d0: bc3d a93c d275 f63e db54 43bd f79a 12bf
000002e0: 239d 33c0 177d bb3d 4006 b4bc ba05 7a3d
000002f0: ecce 7e40 4e24 d5be 66b4 65bf 44d4 ec3c
00000300: ec48 8fbc 82c1 9e40 b497 1640 03fa a83d
00000310: 3b47 c7bd 944b a0bc 167d af40 f8cd 46bf
00000320: 55d2 c93d b13c 623f b7d5 b93d 1281 3c40
00000330: c15f 67bf 1c67 b73c 04d3 a43c 010a 843d
00000340: 916d d23d cafb 1bbd 484c 8ebd 40ff 2ebb
00000350: 98f7 eebc f2df b4bd 13ba 4bbd 062e 483d
00000360: f974 c53f 50d1 003c e306 ccc0 3de8 aebf
00000370: 69a8 53bd 7a52 1bbd 8a06 733d 610f 3abf
00000380: 5325 d1be 9baa 19c0 561f 45bd 6ee6 613d
00000390: f9da 3140 e2d4 1840 8dc3 9a3d d06a 4dbc
000003a0: 5448 6fbd a6d3 14c0 4e0c 323e 432f ac3d
000003b0: 0702 47bf 9169 973d bd8b 6040 873e a140
000003c0: 0aa8 a8bd 8438 cf3c ebb8 493f 82be 3040
000003d0: 3b3f 093f e0b5 7ebc 5390 613e 5ef0 27bd
000003e0: 5ec3 2040 28d4 e93f 74ee 4ebd f8a1 183c
000003f0: 1080 2ebc 2dee 8f3f aff3 d0be 2e6d 263d

layers.hidden.bias f4 [128]
-0.3340166 -0.009567057 -0.6871494 -0.015544533 -0.011207717 -0.4059626 -0.4983956 -0.0024275652
-0.033433586 -0.5630713 -0.3192348 -0.15740784 -0.38547772 -0.021951698 -0.43292114 -0.005676877
-0.4575116 -0.027767092 -0.4256541 -0.6691959 -0.40954873 -0.7312757 -0.4755162 -0.006202159
-0.43204048 -0.026217304 -0.6264589 -0.20263432 -0.012483327 -0.89981157 -0.6877775 -0.07957745
-0.5785651 -0.0052516684 -0.24907412 -0.029417826 -0.61317945 0.90642935 -0.016939249 -0.020657325
-0.47203657 -0.6222667 -0.009158208 -0.072706535 -0.5746575 -0.025377542 -0.030037941 -0.382874
0.78525245 -0.83821356 -0.03178739 -0.03013435 -0.04314253 -0.01316755 -0.7292174 -0.00884541
-0.344844 -0.037253644 -0.6846498 -0.8336601 -0.3706861 -0.7015658 0.60413283 -0.021765385
-0.52492696 -0.02388688 -0.66740173 -0.66704035 -0.029278854 -2.2931887e-05 -0.3956921 -0.28700855
-0.044488523 -0.39524317 -0.5115568 -0.489879 -0.0032770867 -0.008468162 -0.6180715 -0.027754761
-0.611124 0.9120589 -0.017983528 -0.6271222 -1.0451423 -0.039411437 -0.31309393 -0.028384306
-0.5742216 -0.033080667 -0.37046725 -0.78356254 -0.032201875 -0.8406478 -0.048344016 1.1173916
0.40483373 -0.028519798 -0.028266102 -0.03522657 -0.7793134 -0.041253645 -0.7496342 0.76025164
-0.019761503 -0.88651747 -0.33544827 -0.43756953 -0.6801 -0.3213282 -0.02070339 -0.008532261
-0.005041024 -0.5068322 -0.049217053 0.2094609 -0.59214056 -0.041590393 -0.4702141 0.37458274
0.13794844 -0.5541124 -0.32573682 -0.024214566 -0.29799464 -0.020264223 -0.019859534 -0.03890168
00000000: 3904 abbe 25bf 1cbc 06e9 2fbf 7fae 7ebc
00000010: 92a0 37bc 54da cfbe b52d ffbe c917 1fbb
00000020: a8f1 08bd 7125 10bf be72 a3be 852f 21be
00000030: 565d c5be 0cd4 b3bc d7a7 ddbe 1905 babb
00000040: f63e eabe d077 e3bc 56ef d9be 6c50 2bbf
00000050: 5fb0 d1be e234 3bbf dc76 f3be 7b3b cbbb
00000060: 6934 ddbe acc5 d6bc 9c5f 20bf 5f7f 4fbe
00000070: de86 4cbc 0d5a 66bf 3012 30bf 81f9 a2bd
00000080: d81c 14bf 3016 acbb 490d 7fbe a7fd f0bc
00000090: 54f9 1cbf c10b 683f 2ec4 8abc 8d39 a9bc
000000a0: c7ae f1be df4c 1fbf 4f0c 16bc 2ae7 94bd
000000b0: c11c 13bf 90e4 cfbc 2112 f6bc 1008 c4be
000000c0: 4e06 493f 2a95 56bf 7f33 02bd 50dc f6bc
000000d0: 39b6 30bd b5bc 57bc fead 3abf 57ec 10bc
000000e0: 658f b0be 4797 18bd 3645 2fbf c06a 55bf
000000f0: 92ca bdbe d199 33bf 73a8 1a3f 524d b2bc
00000100: 9d61 06bf 6bae c3bc d7da 2abf 28c3 2abf
00000110: 35da efbc da5d c0b7 2898 cabe c9f2 92be
00000120: 9939 36bd 505d cabe 63f5 02bf 6cd1 fabe
00000130: 64c4 56bb 0cbe 0abc ef39 1ebf f45d e3bc
00000140: 9f72 1cbf b17c 693f 3152 93bc 158b 20bf
00000150: 39c7 85bf e36d 21bd d94d a0be 3486 e8bc
00000160: 3000 13bf 987f 07bd e2ad bdbe 8e97 48bf
00000170: 1de6 03bd b234 57bf 6004 46bd b006 8f3f
00000180: 5e46 cf3e 5aa2 e9bc 508e e7bc bc49 10bd
00000190: 1581 47bf 95f9 28bd 07e8 3fbf da9f 423f
000001a0: e0e2 a1bc cff2 62bf e0bf abbe 1d09 e0be
000001b0: 091b 2ebf 2185 a4be 289a a9bc e5ca 0bbc
000001c0: 2d2f a5bb c1bf 01bf d297 49bd eb7c 563e
000001d0: 8696 17bf b05a 2abd e7bf f0be 4fc9 bf3e
000001e0: 5b42 0d3e 4fda 0dbf fac6 a6be a05d c6bc
000001f0: c192 98be 2801 a6bc 76b0 a2bc 5e57 1fbd

layers.output.weight f4 [5, 128]
7.340283 -0.19634888 5.258833 0.18296586 -0.07010892 1.265146 1.6174455 -0.20854118
0.19735721 5.475564 6.29412 7.7187014 1.688832 -0.031897828 1.4843565 -0.1239486
2.3361924 -0.030811891 2.171567 6.1501427 2.1441348 7.6177764 7.7573094 0.13831441
6.0477085 -0.13897443 10.549691 10.519373 -0.17316698 5.688159 5.149318 6.554031
9.101871 0.03268343 -5.975482 -0.006286174 3.6667323 -1.8764586 0.014814092 -0.17055255
1.244603 10.673862 -0.13956425 5.079337 4.402443 -0.028443811 -0.15830652 2.2964282
-2.4089155 5.807758 -0.042720005 -0.0036522602 -0.12979534 0.084900446 8.498819 0.086389124
0.5912064 -0.036101915 3.34717 6.466259 -6.934741 7.6900887 -2.6727123 -0.009322926
3.7090552 0.012635976 4.5186987 9.702583 0.009265068 -0.09600865 2.2689993 6.8230276
-2.122836 1.8672514 3.6021667 9.5019865 5.217172 -0.009975746 4.0844088 0.17463005
8.623761 -5.8371396 -0.054554015 3.36267 8.012634 0.10599451 8.462275 -0.018061541
6.503945 -0.05284694 7.131544 6.906174 0.03324521 8.333472 -0.15174356 -3.7669806
-1.6993937 -0.07469136 -0.069884114 -0.08622343 6.261584 0.16441157 7.814039 -1.2141358
-0.050909396 8.142836 0.5703792 2.7774234 6.153846 -2.928289 -0.03664498 0.18025826
-0.111083716 3.9804113 -0.007160964 3.4777045 3.5017517 -0.16371854 3.9355214 -2.3543043
-1.7761036 7.956011 1.0839527 -0.1087923 8.233212 0.021601066 0.058608443 0.1462887
6.3696585 -0.0670582 5.204099 -0.05619988 -0.08752402 1.2989154 1.6703253 -0.14067866
0.09297177 5.3632927 5.5586843 8.837061 1.7291474 -0.11383431 1.4277526 -0.17150539
2.2512562 -0.00093491713 2.6018956 6.057739 2.0162516 7.1468835 7.627518 -0.0067880484
4.203659 -0.18848205 10.382717 10.761367 -0.00091313425 6.4561243 5.4139214 5.466928
10.755272 0.043789174 -6.2407594 -0.011490049 3.8732924 -3.4112585 0.060332842 0.07589302
1.2211744 8.7286005 -0.02878522 6.483441 4.2185407 0.20417948 -0.1139166 2.2006218
0.57368505 6.062261 -0.08017258 0.104819976 0.13618521 0.13772774 8.86682 -0.1385003
0.69227594 -0.10484388 3.4451945 6.1875014 -6.3788276 7.796521 -2.990315 -0.16820574
3.7673914 0.06960695 4.4547653 7.8296647 -0.0753893 -0.20035876 2.2637832 4.779286
-1.2670617 1.8864965 3.648156 9.755634 6.004243 0.1870107 4.2991033 0.15233335
8.944652 -8.085599 -0.20182402 3.4992146 8.491024 -0.13587922 8.7827 -0.20785569
6.547963 -0.111095436 7.8311605 7.92652 -0.16181466 9.222814 -0.09269495 -4.4869003
-3.0233655 -0.2426396 -0.0024316392 0.027677508 6.1373982 -0.1679249 7.0284967 -0.56839204
-0.08025256 6.93884 0.56834614 2.650693 6.203367 -2.9539506 -0.18665312 -0.19713305
-0.19149318 4.107002 -0.04058563 3.5319784 3.371015 -0.050300207 2.9325485 -4.34701
-2.6150765 9.231291 1.0472279 -0.14447722 9.602046 0.017488154 0.17423397 0.08544186
00000000: 99e3 ea40 ae0f 49be 5c48 a840 675b 3b3e
00000010: 4495 8fbd 4ef0 a13f 7408 cf3f d28b 55be
00000020: 0218 4a3e d237 af40 6e69 c940 9aff f640
00000030: a62b d83f 4ca7 02bd 65ff bd3f c3d8 fdbd
00000040: 2d84 1540 3869 fcbc f4fa 0a40 f8cd c440
00000050: 8139 0940 d3c4 f340 e13b f840 4ba2 0d3e
00000060: d486 c140 504f 0ebe 89cb 2841 5a4f 2841
00000070: af52 31be 6605 b640 37c7 a440 9fba d140
00000080: 43a1 1141 0fdf 053d 2637 bfc0 40fc cdbb
00000090: beab 6a40 cc2f f0bf ceb6 723c 54a5 2ebe
000000a0: 274f 9f3f 24c8 2a41 eee9 0ebe ee89 a240
000000b0: d0e0 8c40 ff02 e9bc 1b1b 22be aef8 1240
000000c0: ac2b 1ac0 27d9 b940 2cfb 2ebd c25a 6fbb
000000d0: 12e9 04be 49e0 ad3d 2afb 0741 c8ec b03d
000000e0: 4d59 173f 9adf 13bd 0938 5640 98eb ce40
000000f0: 66e9 ddc0 3515 f640 b80d 2bc0 30bf 18bc
00000100: 2961 6d40 2007 4f3c 2e99 9040 c83d 1b41
00000110: 83cc 173c 2fa0 c4bd 4937 1140 3e56 da40
00000120: 8cdc 07c0 1802 ef3f e689 6640 2308 1841
00000130: 13f3 a640 5071 23bc 7ab3 8240 38d2 323e
00000140: edfa 0941 d9c9 bac0 0874 5fbd fc35 5740
00000150: c033 0041 a613 d93d 7a65 0741 ccf5 93bc
00000160: 5120 d040 0876 58bd 9c35 e440 61ff dc40
00000170: 212c 083d e755 0541 aa62 1bbe 3616 71c0
00000180: bc85 d9bf c9f7 98bd 671f 8fbd e995 b0bd
00000190: e55e c840 825b 283e 9c0c fa40 cd68 9bbf
000001a0: 5f86 50bd 0e49 0241 5f04 123f 4ec1 3140
000001b0: 4eec c440 1669 3bc0 0c19 16bd 9f95 383e
000001c0: dc7f e3bd 0fbf 7e40 85a6 eabb b692 5e40
000001d0: b31c 6040 d5a5 27be 95df 7b40 ecac 16c0
000001e0: 5d57 e3bf a497 fe40 f6be 8a3f 7fce debd
000001f0: 3dbb 0341 b8f4 b03c 680f 703d b4cc 153e
00000200: 3ed4 cb40 cf55 89bd fb87 a640 d831 66bd
00000210: cb3f b3bd dc42 a63f 38cd d53f 110e 10be
00000220: fc67 be3d 18a0 ab40 bee0 b140 9a64 0d41
00000230: b454 dd3f f621 e9bd 99c0 b63f 1c9f 2fbe
00000240: 9514 1040 3a15 75ba 7585 2640 ffd8 c140
00000250: 440a 0140 45b3 e440 a114 f440 476e debb
00000260: 6084 8640 7001 41be 9c1f 2641 8f2e 2c41
00000270: 675f 6fba 9298 ce40 d83e ad40 13f1 ae40
00000280: 9815 2c41 475c 333d 4db4 c7c0 c240 3cbc
00000290: 06e4 7740 0f52 5ac0 921f 773d cd6d 9b3d
000002a0: 714f 9c3f 59a8 0b41 fbce ebbc 5978 cf40
000002b0: 49fe 8640 6d14 513e 1b4d e9bd fdd6 0c40
000002c0: 06dd 123f 0bfe c140 8631 a4bd dbab d63d
000002d0: 2374 0b3e 8008 0d3e 7fde 0d41 06d3 0dbe
000002e0: ff38 313f 63b8 d6bd 117e 5c40 0300 c640
000002f0: 5b1f ccc0 1a7d f940 5261 3fc0 203e 2cbe
00000300: f11c 7140 178e 8e3d 708d 8e40 9d8c fa40
00000310: b565 9abd d92a 4dbe d3e1 1040 e9ef 9840
00000320: 142f a2bf b878 f13f 637b 6940 1417 1c41
00000330: c222 c040 bc7f 3f3e 4192 8940 46fd 1b3e
00000340: 4b1d 0f41 9d5e 01c1 f5aa 4ebe 22f3 5f40
00000350: 3cdb 0741 ec23 0bbe f085 0c41 1fd8 54be
00000360: ea88 d140 0186 e3bd de98 fa40 0da6 fd40
00000370: beb2 25be a590 1341 dad6 bdbd b094 8fc0
00000380: d27e 41c0 8476 78be 235c 1fbb f1bb e23c
00000390: 9165 c440 81f4 2bbe 72e9 e040 2482 11bf
000003a0: 745b a4bd fa0a de40 227f 113f f4a4 2940
000003b0: fc81 c640 870d 3dc0 ff21 3fbe 3fdd 49be
000003c0: ca16 44be 8f6c 8340 1e3d 26bd ef0b 6240
000003d0: b6be 5740 9707 4ebd e0ae 3b40 b51a 8bc0
000003e0: 6a5d 27c0 5eb3 1341 900b 863f d6f1 13be
000003f0: fba1 1941 5143 8f3c 646a 323e 24fc ae3d

layers.output.bias f4 [5]
-0.7046891 0.38893035 0.1922931 -0.23674552 -0.16618755
00000000: 8166 34bf e121 c73e 7be8 443e 6b6d 72be
00000010: 122d 2abe
