results/models/2d_track/29_07_2023-08:12_model_old_eps_upd_e_r_1M_99.pt (torch_old, 218980 bytes, 4 tensors)

layers.hidden.weight f4 [128, 420]
0	0x3d2f3032	0.042770572
1	0x3da880a7	0.082276635
2	0xbdd646a5	-0.10462693
3	0x3bf4f510	0.007475503
4	0xbd1e6380	-0.03866911
5	0x3bfcf900	0.007720113
6	0x3dada999	0.08479614
7	0x3bf827c0	0.007573098
8	0xbca018ac	-0.019543014
9	0xbd49f8ee	-0.049309663
10	0xbdc092ac	-0.094029754
11	0x3dd30571	0.10303772
12	0xbd71de51	-0.059049908
13	0x3d847005	0.064666785
14	0x3d93a37d	0.07208917
15	0xbd7b7043	-0.061386358
16	0x3dc50465	0.09619979
17	0xbcd95e98	-0.026534364
18	0x3da9f293	0.082982205
19	0x3bd1e3c0	0.0064053237
20	0xbc784438	-0.015152983
21	0x3dd0d7bf	0.101974
22	0x3d81bf17	0.063352756
23	0xbd630538	-0.0554249
24	0xbdbf848d	-0.09351454
25	0x3bc659a0	0.0060531646
26	0xbd56c62d	-0.05243509
27	0xbd7f419c	-0.06231843
28	0x3d91b20f	0.0711404
29	0xbd8fe1be	-0.07025479
30	0xbc8bd410	-0.017068893
31	0x3b2526c0	0.0025200099
32	0x3d456a32	0.04819698
33	0x3d5b71fa	0.053575493
34	0x3d2f0756	0.042731605
35	0xbda159cf	-0.07878458
36	0xbc7f0ca0	-0.015566975
37	0x3d96794d	0.07347355
38	0x3c6a22d0	0.0142905265
39	0xbd8f1171	-0.069857486
40	0xbc73c4c8	-0.014878459
41	0xbc4baf68	-0.012431957
42	0xbd91dba6	-0.07121973
43	0xbdd4059c	-0.103526324
44	0x3d22180e	0.03957372
45	0xbbcc6100	-0.0062371492
46	0xbda0dd78	-0.07854742
47	0x3d00a66e	0.03140872
48	0x3c19e228	0.009392299
49	0x3d88de1f	0.06682991
50	0x3daa0263	0.083012365
51	0xbdc1a9ee	-0.0945624
52	0xbccd65d4	-0.02507297
53	0xbd52a642	-0.051428087
54	0xbda8f882	-0.08250524
55	0x3dc85a8f	0.09782898
56	0x3d585292	0.05281312
57	0x3b829890	0.003985472
58	0x3dc15389	0.09439761
59	0xbb1ef240	-0.002425328
60	0x3ade9940	0.0016982928
61	0xbc9b07f4	-0.01892469
62	0xbca39c80	-0.019972086
63	0x3d8fe489	0.070260115
64	0x3dace555	0.08442179
65	0x3d602d22	0.054730542
66	0x3dc066bb	0.09394594
67	0x3c95f980	0.018307447
68	0x3d06347a	0.03276489
69	0xbd857b7e	-0.06517695
70	0x3d8f237b	0.06989189
71	0xbd6e8eb7	-0.058241572
72	0xbd642da1	-0.055707578
73	0xbdc2554b	-0.094889246
74	0x3d1616ca	0.036642827
75	0x3c4d3f70	0.012527332
76	0x3dc9ea8b	0.09859189
77	0x3d993f69	0.07482798
78	0x40094e7f	2.145416
79	0xbf8b9df6	-1.0907581
80	0xbd20e298	-0.039278597
81	0x3d9ad975	0.07561008
82	0xbd9d5641	-0.07682467
83	0x400158c6	2.0210433
84	0xbf856e02	-1.0424197
85	0xbd027ba0	-0.03185618
86	0x3fc38b40	1.5276871
87	0x3c313cb8	0.010817699
88	0xbeb3e50e	-0.35135692
89	0xc011853f	-2.2737577
90	0xbc876414	-0.016527213
91	0x3caa78cc	0.020809554
92	0xbce7f4e8	-0.028315023
93	0xbccaa532	-0.024736974
94	0xbf694b15	-0.9113019
95	0x3c31ae30	0.010844752
96	0x3f5b63af	0.8569898
97	0xbdb12a7e	-0.08650683
98	0xbd71a999	-0.05899963
99	0xbf5ef47e	-0.87091815
100	0x3db14aa9	0.086568184
101	0x3bc0b9d0	0.0058815256
102	0x3ef1138b	0.47085223
103	0x3f4496c6	0.7679256
104	0xbf81b36f	-1.0132884
105	0xbd095696	-0.03352984
106	0x3f813049	1.009286
107	0x3c9b3644	0.018946774
108	0xbfdfb102	-1.7475893
109	0xc00ded11	-2.2175944
110	0x3bbcab80	0.005757749
111	0x3dd4f8f5	0.10399047
112	0x3dbebbff	0.09313201
113	0x3f1e0b4f	0.61736006
114	0xbf30dead	-0.69089776
115	0x3c592880	0.013254285
116	0xbe068558	-0.13136804
117	0x3d388352	0.04504711
118	0xbfb6b2ca	-1.4273312
119	0xc0455231	-3.0831416
120	0x3a46c080	0.00075817853
121	0xbdb93ad2	-0.09044422
122	0xbc18a7f0	-0.009317383
123	0xbef7d8dd	-0.4840764
124	0xbf14dde7	-0.58151096
125	0xbd705b0a	-0.05868057
126	0xbe36d607	-0.17855082
127	0x3dad06ff	0.084486
128	0xbfa62aab	-1.2981771
129	0xc0048454	-2.0705767
130	0xbc9a2078	-0.01881431
131	0xbc6c22c0	-0.014412582
132	0x3c94e204	0.018174179
133	0x3eff3eea	0.49852687
134	0xbef62723	-0.48076734
135	0xbd7b2012	-0.06130988
136	0xbc978a54	-0.018498577
137	0x3c9fd238	0.01950942
138	0x3d0a7936	0.033807002
139	0xbd56a77e	-0.052405827
140	0x3d4f3db6	0.05059596
141	0xb71fe000	-9.529293e-06
142	0x3d853ef7	0.0650615
143	0x3d5e473a	0.054267146
144	0xbd94f437	-0.07273143
145	0xbd367f44	-0.044554964
146	0xbd24df8a	-0.040252246
147	0xbccd90e8	-0.02509351
148	0x3fd6f11c	1.6792331
149	0xbf9ef40d	-1.2418228
150	0xc0141b9c	-2.3141851
151	0xbc70acf0	-0.014689669
152	0x3cc24684	0.023715265
153	0x3ffe9e99	1.989215
154	0x3f4a5b45	0.79045516
155	0x3daff03b	0.08590742
156	0x3b085980	0.00208053
157	0xbc7fd378	-0.015614383
158	0xbfba593d	-1.4558483
159	0xbef2bc25	-0.47409168
160	0x3cce0974	0.025150992
161	0x3ef97537	0.4872224
162	0x3d6a398a	0.05718378
163	0xc0383056	-2.8779502
164	0xc00f4ce0	-2.239067
165	0x3d8d938d	0.06912909
166	0x3c1c2cb8	0.009532146
167	0x3d957cf3	0.07299223
168	0xbf309356	-0.68974817
169	0x3eebcc11	0.46054128
170	0x3d6d08ca	0.05786971
171	0x3da1d9ad	0.079028465
172	0x3eb01c93	0.343968
173	0x405ad587	3.4192827
174	0xbf058643	-0.5215799
175	0x3d953061	0.07284618
176	0xbd810602	-0.06299974
177	0xbd917086	-0.0710154
178	0x406752c9	3.6144278
179	0xbea8107e	-0.32825083
180	0xbdb1c055	-0.086792625
181	0xbf22c19d	-0.6357668
182	0xbd38ae8d	-0.04508834
183	0x40952764	4.6610584
184	0xbef1a6a9	-0.47197464
185	0x3c95b4dc	0.018274717
186	0x3d67a3c2	0.056552656
187	0x3dc15a37	0.09441035
188	0x4020d634	2.513074
189	0xbf9712be	-1.1802595
190	0xbe9b4b87	-0.3033106
191	0xbc5162c8	-0.012779899
192	0xbd5d3e9e	-0.054014795
193	0xbf2b50db	-0.6692025
194	0xc05c87f7	-3.4457986
195	0x3c4ee5f0	0.012628064
196	0x3d1cec9a	0.03831158
197	0x3dc5665d	0.09638665
198	0x3fd2b079	1.6460105
199	0xbf5e6db5	-0.8688615
200	0xbd233b5c	-0.03985153
201	0xbe62f4aa	-0.22163644
202	0xbd9aeb1c	-0.07564375
203	0xbf8e53a7	-1.1119279
204	0xc05f049d	-3.4846566
205	0x3d3d84da	0.046269275
206	0xbd61b348	-0.055102617
207	0x3cd43424	0.025903769
208	0xbdd2deca	-0.102964
209	0x3c3923d0	0.011300042
210	0x3cd8e834	0.02647791
211	0xbdaa33e3	-0.08310678
212	0x3b89d9b0	0.0042068586
213	0xbdc5688c	-0.09639081
214	0x3c837f44	0.016051896
215	0x3caa799c	0.020809941
216	0x3fd8ae0c	1.6928115
217	0xbcca01b4	-0.024659015
218	0xbf90cdd3	-1.1312813
219	0xc0372353	-2.861531
220	0xbda2db8c	-0.079520315
221	0x3d8714f5	0.06595794
222	0xbd71ff2f	-0.059081253
223	0xbf1253b8	-0.57158995
224	0xbf25800f	-0.64648527
225	0x3fb85034	1.4399476
226	0x3cabfeec	0.02099558
227	0x3d6e8faa	0.058242477
228	0xbfd18177	-1.6367635
229	0xc04b3e99	-3.1756957
230	0x3d675a5a	0.05648265
231	0x3d45da4e	0.048303895
232	0x3c86b654	0.016444363
233	0xbebe5ab7	-0.37178585
234	0xbf12eb4b	-0.5739028
235	0x3da45ecb	0.08025893
236	0x40277e3c	2.6170797
237	0xbc844798	-0.01614742
238	0xc005a5ad	-2.088237
239	0xc095e0d5	-4.6836953
240	0xbd171166	-0.036881827
241	0xbd1afb32	-0.037837215
242	0x3e0803e5	0.13282736
243	0x404141c9	3.0196402
244	0xbf1976af	-0.5994672
245	0xbc443310	-0.011975065
246	0xbfab4409	-1.3380138
247	0x3d2b7c0e	0.041866355
248	0x40b18c1e	5.548354
249	0x4044d74c	3.0756407
250	0xbb91bd60	-0.004447624
251	0x3d9caf8d	0.07650671
252	0x3d7b4876	0.0613484
253	0x3eced809	0.40399197
254	0x3d73b79c	0.059501275
255	0xbc133508	-0.008984812

layers.hidden.bias f4 [128]
0	0xbf19e5e3	-0.60116404
1	0xbeeb494a	-0.45954353
2	0xbd428aeb	-0.047495764
3	0xbf8501d8	-1.0391188
4	0xbe1aa432	-0.15101698
5	0xbf046525	-0.51716834
6	0xbf491d39	-0.78560215
7	0xbf408399	-0.752008
8	0xbd0aab42	-0.03385473
9	0xbeee0eaa	-0.46495563
10	0x3f8416b0	1.0319424
11	0xbf8307d9	-1.023677
12	0x3e3068a6	0.1722742
13	0xbcd3d09f	-0.025856314
14	0xbc82f07c	-0.015983813
15	0xbeba6519	-0.36405256
16	0xbcafa109	-0.021439092
17	0xbf35c3de	-0.71001995
18	0xbf494b79	-0.7863079
19	0xbc0fe2f9	-0.008782142
20	0xbf30c6d3	-0.6905338
21	0xbcebc336	-0.028779607
22	0xbcb22c84	-0.021749742
23	0xbf67e8b7	-0.9058947
24	0xbf59f08b	-0.85132664
25	0xbf56fabd	-0.83976346
26	0xbc6f1385	-0.014592056
27	0x3c23d70a	0.01
28	0xbf8ab9ad	-1.0837914
29	0xbec09233	-0.3761154
30	0xbf453a31	-0.7704192
31	0xbf03bd6f	-0.5146093
32	0xbd0ec670	-0.034857213
33	0xbf0209e2	-0.5079633
34	0xbea87f0a	-0.32909423
35	0xbbfaa51f	-0.0076490785
36	0x3c23d70a	0.01
37	0x3e861f5f	0.2619581
38	0xbcb5b280	-0.022179842
39	0xbf2af4fe	-0.6678008
40	0xbf25f51f	-0.6482715
41	0x3f419376	0.7561563
42	0xbe83b4e4	-0.25723946
43	0xbe951b7a	-0.29122525
44	0xbf8185cf	-1.011896
45	0xbf162219	-0.5864578
46	0xbcb24c8d	-0.021765018
47	0xbf664b30	-0.8995848
48	0xbd3331a2	-0.043748505
49	0xbebfa7a7	-0.37432596
50	0xbfb74b49	-1.431985
51	0xbf37fd0e	-0.71870506
52	0xbcb262de	-0.02177566
53	0xbedad36f	-0.42739436
54	0xbcee21e1	-0.02906889
55	0xbd0471ca	-0.03233508
56	0x3f5a949e	0.8538302
57	0xbcddc7d3	-0.027072823
58	0xbf713eab	-0.9423625
59	0xbc5e0b82	-0.013552548
60	0xbf903028	-1.1264696
61	0xbf040c47	-0.51581234
62	0xbc056569	-0.008141854
63	0xbcece1da	-0.028916288
64	0xbe970f1c	-0.29503715
65	0xbd031547	-0.032002714
66	0xbb9b574b	-0.0047406307
67	0xbc148324	-0.0090644695
68	0xbeda7e8f	-0.42674682
69	0xbf5c2f83	-0.8601
70	0xbcbd689d	-0.023121173
71	0xbf18a90d	-0.5963295
72	0xbec02c1e	-0.3753366
73	0xbcb21eb5	-0.021743158
74	0xbf70e980	-0.9410629
75	0x3c23d70a	0.01
76	0xbf72b45e	-0.9480647
77	0xbc0e60b9	-0.008690053
78	0xbce7afcf	-0.028282074
79	0xbd001eec	-0.03127949
80	0xbee7cdfd	-0.45274344
81	0xbcb2231a	-0.021745253
82	0xbf44042f	-0.76568884
83	0xbde3227a	-0.1109056
84	0x3e25c41d	0.16188093
85	0xbd188756	-0.03723844
86	0xbf4752e4	-0.77860856
87	0xbf0a4a16	-0.54019296
88	0x3d04ef94	0.032455042
89	0xbbb914a1	-0.005648211
90	0xbf8ac727	-1.0842026
91	0x3e66d98b	0.22543924
92	0xbedb3c99	-0.4281967
93	0x3eccb243	0.39979753
94	0x3f3b5510	0.7317667
95	0xbcc0b675	-0.023524502
96	0xbcb8330f	-0.022485284
97	0xbeabf7d5	-0.33587518
98	0xbf24c50c	-0.6436317
99	0xbf707908	-0.9393468
100	0xbf3a6f03	-0.7282564
101	0xbce2893d	-0.027653331
102	0xbd2abc0d	-0.041683245
103	0xbf941573	-1.1569046
104	0xbf9178e6	-1.136502
105	0x3f3bd600	0.73373413
106	0xbf2f5375	-0.6848672
107	0xbcb8f5c7	-0.022578133
108	0xbf62f52f	-0.8865537
109	0xbce01ed9	-0.02735846
110	0xbcc97850	-0.024593502
111	0xbef8f21c	-0.48622215
112	0xbe910f46	-0.28331965
113	0xbbb9c8d6	-0.0056696935
114	0xbf8a96fc	-1.0827327
115	0xbf797e2b	-0.9745814
116	0xbcc48b57	-0.023992224
117	0xbf688ac8	-0.90836763
118	0xbf525059	-0.8215385
119	0xbf5c180c	-0.8597419
120	0xbd2b4a5c	-0.04181896
121	0xbcfb7570	-0.030695647
122	0xbf4f8720	-0.8106556
123	0xbf181b09	-0.5941625
124	0xbcb6559e	-0.022257622
125	0xbf05f9f1	-0.52334505
126	0xbc3d7a23	-0.011564764
127	0xbf0aa03b	-0.5415074

layers.output.weight f4 [5, 128]
0	0x40975228	4.728779
1	0x402e13f3	2.7199676
2	0x3e8ac122	0.27100474
3	0x4149aaa5	12.604161
4	0xc0a62289	-5.1917157
5	0x40678db2	3.6180234
6	0x40960962	4.6886454
7	0x40bb54e2	5.8541117
8	0xbdb3441d	-0.08753226
9	0xc0dc7ff7	-6.8906207
10	0xc0d689db	-6.704328
11	0x4113068b	9.189097
12	0x40987c79	4.7651944
13	0x3dccf75b	0.10008117
14	0xbd89bc30	-0.06725347
15	0xc0bc852e	-5.8912573
16	0xbe31c47b	-0.17360108
17	0x4100dcdd	8.053922
18	0x40d28c61	6.579636
19	0x3e2dcb7e	0.16972157
20	0x413e63ce	11.899366
21	0xbe0f6803	-0.14004521
22	0x3dcc302c	0.099701256
23	0x41346992	11.275774
24	0x415dae7c	13.855099
25	0x41161f30	9.382614
26	0xbdc11d78	-0.09429449
27	0xbe1cd663	-0.15316157
28	0x4135d309	11.364022
29	0x4026c3d6	2.6057029
30	0x40d83c67	6.7573733
31	0x406e0852	3.7192578
32	0x3d72c7e5	0.059272666
33	0x3ff9de30	1.9520931
34	0x3fb1f5ad	1.3903099
35	0x3e4272bc	0.1898908
36	0x3df8b438	0.12143749
37	0x40b75e96	5.730296
38	0xbe5e90cd	-0.21734925
39	0x4130a192	11.039446
40	0x411a7c44	9.655338
41	0xc0839800	-4.1123047
42	0x3f67a805	0.9049075
43	0xc075418b	-3.8321254
44	0x4126afbb	10.417903
45	0x409d9ebd	4.925627
46	0x3d18fc48	0.03734997
47	0x40d8d8b1	6.7764516
48	0x3dc18bff	0.0945053
49	0x3f3d163b	0.73862046
50	0x41272fc9	10.449166
51	0x409fce77	4.993953
52	0xbb98334c	-0.004644787
53	0x40265684	2.5990305
54	0x3e4ace7b	0.19805329
55	0xbc8f1f1d	-0.01747089
56	0xc079a076	-3.9004188
57	0x3abf0a4e	0.0014575215
58	0x412a21ae	10.633223
59	0xbd85a457	-0.06525486
60	0x4141344f	12.075271
61	0x4077873a	3.8676286
62	0x3e28064c	0.16408652
63	0x3e3bfeca	0.18358913
64	0x3ec2a860	0.38019085
65	0xbe282240	-0.16419315
66	0x3e2c6ddb	0.16838782
67	0xbe294a82	-0.16532329
68	0x3fb9b611	1.4508687
69	0x40f8f089	7.779362
70	0x3e23b8f6	0.15988526
71	0x40b30980	5.5949097
72	0x3fde48a7	1.7365922
73	0x3dda182b	0.10649141
74	0x410de9d6	8.869589
75	0xbdff170a	-0.12455566
76	0x41487e43	12.530826
77	0xbd96f0c5	-0.07370142
78	0xbcdc8751	-0.026919993
79	0x3d825733	0.06364288
80	0x3feb2522	1.8370707
81	0xbcdeee08	-0.027213112
82	0x4123c7f1	10.236314
83	0xc08634a2	-4.193925
84	0x40730c51	3.7976267
85	0x3bb1c29e	0.0054248115
86	0x41152c39	9.323297
87	0x40580bb2	3.3757138
88	0xc0ba303a	-5.818387
89	0xbd96aa82	-0.073567405
90	0x412e3ecb	10.89033
91	0xc08ccc55	-4.399943
92	0x40861127	4.189594
93	0x40ce94c8	6.455662
94	0xc0dc7fde	-6.890609
95	0x3cc67541	0.024225833
96	0xbcac1dfa	-0.021010388
97	0xc0a799e7	-5.237537
98	0x4023210b	2.5488918
99	0x415b4add	13.705777
100	0x40e35c29	7.105
101	0xbd68069c	-0.05664693
102	0x3c863843	0.01638425
103	0x4156a715	13.4157915
104	0x41591c4d	13.569409
105	0xbfdc3dd4	-1.7206368
106	0x40ae0c8e	5.4390326
107	0x3da23a5a	0.07921286
108	0x40ee6de0	7.4509125
109	0xbc3d2c4c	-0.011546206
110	0x3e853971	0.26020387
111	0x40859a90	4.1751175
112	0x3fc0fca5	1.5077101
113	0x3c60904b	0.013706277
114	0x410a15be	8.630308
115	0x414b6d16	12.714132
116	0x3cb54c8e	0.02213123
117	0x4112c2a1	9.172517
118	0x4114bd5e	9.296232
119	0x413c0e29	11.753457
120	0x3d8ed7f4	0.069747835
121	0x3e2711a4	0.16315323
122	0x40ce5621	6.448014
123	0x40ac8d99	5.392285
124	0xbde2faa1	-0.1108296
125	0x41093345	8.575017
126	0xbd2bfb0a	-0.041987456
127	0x4062add3	3.5418594
128	0x40958539	4.6725125
129	0x4028a7cf	2.6352422
130	0x3c9527ce	0.018207457
131	0x4148150d	12.505139
132	0xc09f01d3	-4.9689727
133	0x40669524	3.6028528
134	0x40952898	4.6612053
135	0x40b2e80f	5.5908275
136	0xbce65e27	-0.028121067
137	0xc0df66aa	-6.981282
138	0xc0c8093f	-6.2511287
139	0x411100f3	9.062732
140	0x40a18e48	5.0486183
141	0xbe0e6a3c	-0.13907713
142	0xbdb9c0f6	-0.090700075
143	0xc0bd60f2	-5.918084
144	0x3d8ae11f	0.0678122
145	0x40fed900	7.9639893
146	0x40d2752c	6.576803
147	0x3dd733ac	0.105079025
148	0x4129559d	10.583402
149	0x3e3707cc	0.17874068
150	0xbe581876	-0.21103081
151	0x413559de	11.33444
152	0x416e603b	14.898494
153	0x411a63cb	9.6493635
154	0x3d9f1a49	0.07768685
155	0x3ba72640	0.0051009953
156	0x412df04c	10.871166
157	0x4024be11	2.5741007
158	0x40d82bb5	6.7553353
159	0x406b9554	3.6809893
160	0xbe5d833a	-0.2163209
161	0x40083be0	2.1286545
162	0x3fab977c	1.3405604
163	0xbdfc22b6	-0.12311308
164	0x3e48007c	0.19531435
165	0x40b18e04	5.548586
166	0xbe08c519	-0.13356437
167	0x4121df9d	10.117093
168	0x40f5778e	7.670844
169	0xc0676512	-3.6155438
170	0x3f6c7073	0.92359084
171	0xc07adef4	-3.919858
172	0x41292fce	10.574171
173	0x40a30fcb	5.095678
174	0x3b8cc31e	0.0042957207
175	0x40d39c1f	6.6128078
176	0xbdcfe86d	-0.101517536
177	0x3f31c4c9	0.69440895
178	0x4120a3b5	10.039968
179	0x40a354a1	5.1040807
180	0x3cf1488c	0.029453538
181	0x402acbf4	2.6686983
182	0xbd868f72	-0.06570329
183	0x3bf25acf	0.007396079
184	0xc05fb401	-3.4953616
185	0x3debbc94	0.11510578
186	0x411e490a	9.892832
187	0xbc604300	-0.013687849
188	0x4134b96c	11.295269
189	0x40721753	3.7826736
190	0xbce91478	-0.028452143
191	0xbd8af5d8	-0.06785172
192	0x3eb5d29e	0.3551225
193	0xbdf31a7e	-0.11870287
194	0x3d0bb15c	0.03410469
195	0xbd7bb455	-0.061451275
196	0x3fbe351a	1.4859955
197	0x41076709	8.462655
198	0xbc79b210	-0.015240207
199	0x40b02801	5.5048833
200	0x3fe42b66	1.7825744
201	0x3e11c71c	0.1423611
202	0x410c1264	8.75449
203	0xbdae7236	-0.08517878
204	0x415002ea	13.000711
205	0x3e179018	0.14801061
206	0xbe371b2f	-0.17881463
207	0xbce6ea7d	-0.028187985
208	0x3ff73c56	1.9315288
209	0x3e18801d	0.14892621
210	0x411beea0	9.745758
211	0xc0431faa	-3.0488076
212	0x405859ac	3.3804731
213	0xbe2fa0a7	-0.17151128
214	0x4116fc56	9.436605
215	0x405d52dd	3.4581826
216	0xc0bf6c62	-5.9819803
217	0x3e2e840a	0.17042556
218	0x4120f510	10.05983
219	0xc0b78ae5	-5.735705
220	0x4085afd7	4.177715
221	0x40c3607f	6.1055293
222	0xc0daef2c	-6.841696
223	0x3e5e3f88	0.21703923
224	0x3d8cbd5b	0.06872054
225	0xc0a1c3a1	-5.0551305
226	0x40205344	2.5050821
227	0x41564c0f	13.393569
228	0x40e423b0	7.1293564
229	0xbe0af82e	-0.13571236
230	0xbb98a430	-0.0046582446
231	0x4156a95e	13.416349
232	0x414e3c7b	12.889766
233	0xc05edc3c	-3.482192
234	0x40ac76d8	5.3895073
235	0xbdf78303	-0.120855354
236	0x40f3e4ee	7.6216955
237	0xbdc46921	-0.09590364
238	0x3bc5809f	0.0060272957
239	0x40898e4c	4.29862
240	0x3fb85fb6	1.4404209
241	0x3d92b59c	0.071635455
242	0x410b40b0	8.703293
243	0x413d7de0	11.843231
244	0xbc507558	-0.012723289
245	0x4114001e	9.250029
246	0x4110442c	9.016644
247	0x4141a896	12.103659
248	0xbd1e5cb6	-0.038662635
249	0xbd7d4371	-0.061831895
250	0x40ccbfa4	6.3983936
251	0x40b50c49	5.6577497
252	0xbe479bfc	-0.19493097
253	0x410fa733	8.97832
254	0xbdfd2784	-0.12361053
255	0x40643091	3.5654643

layers.output.bias f4 [5]
0	0xbf63c184	-0.88967156
1	0x3f931740	1.149147
2	0xbed144ee	-0.40872902
3	0xbf099ee5	-0.5375808
4	0xbbe3e1a1	-0.0069543873
